weights0320/best_temperature_encoder.pth (torch, 18507 bytes, 10 tensors)

lstm.weight_ih_l0 f4 [64, 6]
0	0x3f3530ae	0.70777404
1	0x3ec9ac77	0.39389393
2	0x3e75afb2	0.23992804
3	0x3f3f2fd5	0.7468236
4	0xbda59632	-0.08085288
5	0x3eea0d6c	0.45713365
6	0xbe348ccd	-0.17631836
7	0x3d59917c	0.05311726
8	0xbc91f180	-0.017815351
9	0x3e8eb54f	0.27872702
10	0x3ec94183	0.39307794
11	0xbdeeaccf	-0.116540544
12	0x3e8288ec	0.25495088
13	0x3f0bea4d	0.5465439
14	0x3f2db18c	0.6784904
15	0x3f0c2aae	0.54752624
16	0x3da3894f	0.07985174
17	0x3f69b516	0.9129194
18	0x3e9af988	0.30268502
19	0x3e2a7257	0.1664518
20	0x3e157d5a	0.14598599
21	0xbda0ce99	-0.078519054
22	0xbf0d083d	-0.55090696
23	0x3d85f783	0.0654135
24	0x3dfed1d0	0.12442362
25	0x3ec67d57	0.38767502
26	0xbdc47d74	-0.09594241
27	0xbdc2410e	-0.094850644
28	0xbe250200	-0.16114044
29	0x3ee013ed	0.43765202
30	0x3e81bea8	0.25340772
31	0x3e1201c3	0.14258485
32	0x3e4d4e9b	0.20049517
33	0x3d8492ec	0.064733356
34	0x3f26b020	0.65112495
35	0x3e476978	0.19473827
36	0x3cc60000	0.024169922
37	0x3ebc7c72	0.36813694
38	0x3ae6bfc3	0.0017604757
39	0xbdcb19d6	-0.09917037
40	0x3b74680f	0.003729347
41	0xbe680231	-0.22657086
42	0x3e1101de	0.14160869
43	0x3e9bbc27	0.30416986
44	0x3ea7d97f	0.32783124
45	0xbef12fdb	-0.47106823
46	0x3e90cef4	0.28282893
47	0xbeead11f	-0.45862672
48	0x3e857339	0.2606447
49	0xbd59122f	-0.052995857
50	0x3d62668c	0.055273578
51	0xbe052ab3	-0.1300457
52	0x3ea86a9e	0.32893842
53	0xbe064c8a	-0.13115135
54	0x3e3ae504	0.18251425
55	0xbbb0f579	-0.0054003564
56	0x3d1c9a65	0.03823318
57	0x3f3009d6	0.6876501
58	0xbf3c9548	-0.73665285
59	0x3ed5e3f7	0.41775486
60	0x3ec38359	0.38186148
61	0x3edc6422	0.43045145
62	0x3e8208ee	0.25397438
63	0xbe6b5910	-0.22983193
64	0x3f0bdbf1	0.5463248
65	0xbe9dca32	-0.30818325
66	0x3f04898a	0.5177237
67	0x3e6286cf	0.22121738
68	0xbd5984a7	-0.053105023
69	0xbe252df6	-0.16130814
70	0xbe50f4b8	-0.20405853
71	0xbed4a047	-0.41528532
72	0xbde97e15	-0.11401001
73	0x3c022be5	0.007945036
74	0x3eaafe26	0.33397025
75	0x3d0d435b	0.034488063
76	0x3eb8e280	0.36110306
77	0x3f154fde	0.5832499
78	0x3eac6a99	0.33675078
79	0x3c7638ca	0.015028188
80	0x3e337691	0.17525698
81	0x3e841afb	0.25801834
82	0x3dcea81c	0.10090658
83	0x3e959654	0.29216254
84	0x3f1cf729	0.61314636
85	0x3f076275	0.5288461
86	0x3e9af835	0.30267492
87	0x3ed14bca	0.40878135
88	0x3e3db8f1	0.18527581
89	0x3eb8c1f9	0.3608549
90	0x3eadd206	0.33949298
91	0x3e8df9ce	0.27729648
92	0x3ed962b7	0.42458126
93	0xbe97008d	-0.29492608
94	0xbe61df48	-0.22057831
95	0xbec8ae08	-0.39195275
96	0x3eb0c473	0.3452488
97	0x3e64c0c6	0.22339162
98	0x3eed99ab	0.46406302
99	0x3ed44ad1	0.4146333
100	0x3ef989e9	0.4873803
101	0x3f4670bf	0.77515787
102	0x3e929628	0.28630185
103	0x3dcc0337	0.09961551
104	0x3ecb44d2	0.39700943
105	0xbea2beb5	-0.31786123
106	0x3d519ce6	0.05117502
107	0xbe6b1108	-0.22955716
108	0x3f076460	0.52887535
109	0x3f3093a9	0.6897531
110	0x3ef3dbd4	0.47628653
111	0x3f4f0307	0.80863994
112	0xbed4bce6	-0.41550368
113	0x3e4b66e9	0.19863476
114	0x3f110445	0.5664714
115	0x3e1339d8	0.14377534
116	0xbda5b6af	-0.08091485
117	0xbc477247	-0.012173242
118	0x3f0079e0	0.50185966
119	0x3e815160	0.25257397
120	0x3e4c25b1	0.19936253
121	0x3ea0a94d	0.31379166
122	0x3e69a80d	0.22818013
123	0xbb830f75	-0.0039996454
124	0xbf5a735e	-0.85332286
125	0xbe43c326	-0.19117412
126	0xbde94f1c	-0.11392042
127	0x3e9619e1	0.2931662
128	0x3e76d3d8	0.2410425
129	0x3e823670	0.25432158
130	0xbe2295de	-0.15877482
131	0x3e694bbb	0.22782795
132	0x3ea89d8b	0.32932696
133	0x3c646268	0.0139394775
134	0xbe741cbc	-0.23839086
135	0xbf12a10b	-0.5727698
136	0xbf1cb8e9	-0.6121965
137	0x3e0db9e0	0.13840437
138	0xbcede653	-0.029040491
139	0x3ec69e40	0.3879261
140	0x3dfaa144	0.1223779
141	0xbe5dc48f	-0.21657012
142	0xbf2d849c	-0.6778047
143	0xbd22548e	-0.03963142
144	0x3d8f40c0	0.06994772
145	0x3ecb2029	0.39672974
146	0x3ecc6982	0.39924246
147	0x3ea8689f	0.3289232
148	0xbe863bbe	-0.26217455
149	0x3e6eff76	0.23339638
150	0xbd67acfc	-0.056561455
151	0xb8bfd84d	-9.147879e-05
152	0x3da052d6	0.078283
153	0x3f04ac88	0.5182576
154	0x3d9d102f	0.076691024
155	0x3d959aef	0.07304942
156	0x3e137738	0.14400947
157	0x3e9a9fd4	0.30200064
158	0x3e29048a	0.16505638
159	0xbf1510bf	-0.5822868
160	0x3d2f0863	0.042732608
161	0xbeef98dc	-0.4679631
162	0x3ea2464f	0.31694266
163	0x3f223fe8	0.63378763
164	0x3e566f55	0.20940907
165	0x3e72447b	0.23658936
166	0xbf5f6e5c	-0.8727777
167	0xbe0c674c	-0.1371128
168	0x3ea0e7c5	0.31426826
169	0x3e1837f6	0.14865097
170	0x3d544b3a	0.051829554
171	0x3ede160d	0.43376198
172	0x3efef0bf	0.4979305
173	0x3f024525	0.50886756
174	0x3e2d86b4	0.16945916
175	0x3e6f5023	0.23370413
176	0x3e1f67da	0.1556696
177	0xbe0e8503	-0.13917927
178	0x3e2cf63b	0.16890804
179	0x3cf47831	0.029842468
180	0x3f171baa	0.59026587
181	0x3efd02e9	0.49416283
182	0x3f0aff99	0.5429626
183	0x3f185a9d	0.59513265
184	0x3e2fb815	0.17160065
185	0x3e4bbf5c	0.19897217
186	0x3e8eddc6	0.27903575
187	0x3e58c047	0.21167098
188	0xbd9f5395	-0.07779614
189	0xbeaa228d	-0.33229485
190	0x3e8d80d9	0.27637365
191	0xbdd92d1b	-0.10604306
192	0xbe3569c9	-0.17716135
193	0x3eac4002	0.33642584
194	0xbec1c982	-0.3784905
195	0x3e40d1c9	0.18830027
196	0x3d8b4e4e	0.06802045
197	0x3ce5bd45	0.028044352
198	0xbe175ece	-0.14782259
199	0xbe05189f	-0.12997673
200	0xbea356b5	-0.3190209
201	0x3ead5872	0.3385654
202	0xbd2695eb	-0.040670317
203	0x3e96aca2	0.29428583
204	0x3dd585c1	0.10425902
205	0xbe95e0ab	-0.2927297
206	0x3ddbb5a1	0.10728002
207	0x3d9ccb78	0.07655996
208	0x3ed5afd4	0.4173571
209	0x3e215c53	0.15757875
210	0x3e467ea6	0.1938425
211	0x3e2dadc8	0.16960824
212	0xbebdb08f	-0.37048766
213	0xbeb4264c	-0.35185468
214	0xbee44436	-0.4458329
215	0xbe96c2f2	-0.29445606
216	0x3f017a8b	0.5057761
217	0x3da1a778	0.0789327
218	0xbd8dd2f4	-0.06925002
219	0x3f12b4f0	0.5730734
220	0x3f135d07	0.57563823
221	0x3ec975ac	0.3934759
222	0x3e62b841	0.221406
223	0xbe20ea52	-0.15714386
224	0x3ec45463	0.38345632
225	0xbc91ae88	-0.017783418
226	0xbcc18ab7	-0.023625715
227	0xbe7baaa9	-0.2457682
228	0xbe5a61e2	-0.21326402
229	0x3c91fd39	0.017820941
230	0x3d70b184	0.058763042
231	0xbe55ea7e	-0.20890233
232	0xbee0f8c3	-0.4393979
233	0xbeaec6f0	-0.34136152
234	0x3d817ae7	0.0632227
235	0x3e51abde	0.20475718
236	0xbe9b739a	-0.30361634
237	0xbcf43480	-0.02981019
238	0x3ee09ee0	0.43871212
239	0x3f058c17	0.52166885
240	0xbe26fca1	-0.16307308
241	0xbe07daa7	-0.13267003
242	0xbebb62a1	-0.36598685
243	0x3ea8aa9a	0.3294266
244	0xbe388e2b	-0.18022983
245	0x3e955e6d	0.29173604
246	0xbe422738	-0.18960273
247	0xbd8e9705	-0.069623984
248	0xbe79f144	-0.24408442
249	0xbeaca776	-0.33721513
250	0x3dcd0bc0	0.10012007
251	0xbe4f4cb1	-0.20244099
252	0xbdd740ee	-0.10510431
253	0xbe67457d	-0.22585101
254	0xbe35dc5d	-0.17759843
255	0x3eac685a	0.33673364

lstm.weight_hh_l0 f4 [64, 16]
0	0x3e8b66f5	0.27226987
1	0xbf010dc9	-0.5041166
2	0x3e97cc52	0.29648072
3	0x3ebdd190	0.37073946
4	0x3ecd3469	0.40079048
5	0x3e9a606c	0.3015169
6	0xbe52b4e4	-0.20576817
7	0x3d07dc3f	0.033169027
8	0xbee00fad	-0.4376196
9	0xbdc337cd	-0.095321275
10	0xbdf5dc37	-0.12004893
11	0xbeb39ab9	-0.35078982
12	0x3e668a59	0.22513713
13	0x3e580643	0.21096139
14	0xbd4cdaef	-0.05001348
15	0xbe87dcc6	-0.26535624
16	0xbd3066f3	-0.04306693
17	0xbe00e227	-0.1258627
18	0x3e201268	0.15632021
19	0xbd34820b	-0.04406933
20	0xbd9ad2b9	-0.075597234
21	0x3e9c3144	0.30506337
22	0xbe573a14	-0.21018249
23	0x3e2e9aef	0.1705129
24	0x3d0a8080	0.033813953
25	0xbe1565ca	-0.1458961
26	0x3d15b74d	0.036551762
27	0x3c1a91c2	0.009434165
28	0x3dd3b04f	0.103363626
29	0x3e7b2cc0	0.2452879
30	0xbe6c9f21	-0.23107578
31	0xbe54bee2	-0.20775941
32	0xbdc9f9d4	-0.09862104
33	0xbf2e2c4d	-0.6803635
34	0x3dc6aad3	0.09700551
35	0x3e90555c	0.28190124
36	0x3f529d8b	0.8227164
37	0x3e98439b	0.2973908
38	0xbf3a97ed	-0.7288807
39	0xbd600e69	-0.054701243
40	0xbf0399ec	-0.5140674
41	0xbe883658	-0.2660396
42	0x3eb5cdba	0.3550852
43	0xbf0ff690	-0.562356
44	0x3ea48086	0.32129306
45	0x3e9257cd	0.28582612
46	0x3e32b414	0.17451507
47	0xbe6bef88	-0.23040593
48	0x3eed8ba6	0.46395606
49	0xbdda0395	-0.106452145
50	0x3e17653d	0.14784713
51	0x3ef34867	0.47516176
52	0x3edf4df0	0.4361415
53	0x3e6f710a	0.23382965
54	0xbeec7afa	-0.46187574
55	0x3e8ed88f	0.27899596
56	0xbd9632d9	-0.07333917
57	0x3e1a8dcc	0.15093154
58	0x3ea8f1af	0.3299689
59	0xbe2aeb5e	-0.16691348
60	0x3e90768c	0.28215444
61	0x3e9301cb	0.28712305
62	0x3f0b75ff	0.5447692
63	0xbee596ea	-0.448417
64	0x3f24cf44	0.6437876
65	0xbe0c0432	-0.13673475
66	0xbea94afa	-0.33065015
67	0x3ec015c3	0.37516603
68	0x3ed25a9d	0.41084757
69	0x3de436bf	0.111432545
70	0xbea2f28c	-0.31825674
71	0x3de2e709	0.11079223
72	0xbec558fe	-0.38544458
73	0x3f414304	0.7549288
74	0x3ee219ed	0.44160405
75	0xbeab6590	-0.33475924
76	0x3e2d40a3	0.16919188
77	0x3e74e25e	0.23914477
78	0x3f15bc38	0.58490324
79	0xbe92c605	-0.28666702
80	0x3e83b4b3	0.257238
81	0xbead4851	-0.33844236
82	0xbde231fd	-0.11044691
83	0x3d413255	0.04716714
84	0x3e00a6a2	0.12563565
85	0x3c24a3a2	0.010048779
86	0x3d2be7f4	0.041969255
87	0xbd830e3d	-0.063992
88	0xbe2e4274	-0.17017537
89	0x3ea2088b	0.31647143
90	0xbe88d002	-0.26721197
91	0x3cc304a9	0.023805933
92	0x3e369ecc	0.17834014
93	0x3d9a41f8	0.07532114
94	0xbe84a795	-0.25909105
95	0xbde207e1	-0.11036659
96	0x3ecf08bd	0.40436354
97	0x3ddc59cf	0.10759317
98	0x3de0b7c1	0.10972548
99	0x3e4e281e	0.20132491
100	0x3eb70269	0.35744026
101	0x3e8f60f7	0.28003666
102	0xbec2bc9a	-0.38034517
103	0xbd9aab50	-0.075522065
104	0xbe9105fd	-0.2832488
105	0xbdcab439	-0.09897656
106	0x3d8c076e	0.068373546
107	0xbdfb1cb2	-0.122613326
108	0x3e48fdc1	0.1962805
109	0x3ed04e47	0.4068472
110	0x3df98826	0.121841714
111	0xbe9ef068	-0.3104279
112	0x3dc6d5c8	0.09708744
113	0x3bd0865c	0.006363673
114	0x3d73544b	0.05940656
115	0x3d71b244	0.059007898
116	0x3da6a7fe	0.08137511
117	0xbe26dd8d	-0.16295452
118	0x3da5cd33	0.08095779
119	0xbe5dcec6	-0.21660909
120	0x3cb1f889	0.021724956
121	0x3e11e233	0.14246444
122	0x3e08f925	0.13376291
123	0x3b42e192	0.0029736501
124	0xbda5226c	-0.08063206
125	0x3db641c6	0.08899264
126	0x3e4278e8	0.18991435
127	0xbdde627b	-0.108586274
128	0x3ee32d0b	0.44370303
129	0xbebb0396	-0.36526173
130	0xbefa16cd	-0.4884552
131	0x3ee47a63	0.44624624
132	0x3e002037	0.12512289
133	0x3eabd9d0	0.33564615
134	0xbeeec7fb	-0.46636948
135	0xbdbea286	-0.09308343
136	0xbee848c8	-0.45368028
137	0x3f3df852	0.7420703
138	0x3e462a98	0.19352186
139	0xbe3e97b3	-0.18612556
140	0x3ebc8e6f	0.36827418
141	0x3dd3c2d5	0.10339896
142	0xbd2c6c4b	-0.042095464
143	0xbed24878	-0.41070914
144	0x3ed41bb1	0.41427377
145	0xbed07caa	-0.4072011
146	0x3c154eef	0.0091130575
147	0x3f071be5	0.5277694
148	0x3f06b5e4	0.52621293
149	0x3ea6eb8c	0.32601583
150	0xbebd8853	-0.3701807
151	0xbe4eef75	-0.20208533
152	0xbe744af7	-0.23856722
153	0xbe9c71cf	-0.3055558
154	0xba4a1700	-0.0007709116
155	0x3ca8f010	0.020622283
156	0x3ec0508c	0.37561452
157	0x3e5acbc6	0.21366796
158	0xbebdb026	-0.37048453
159	0xbecfbaf5	-0.40572324
160	0xbd9ef308	-0.07761198
161	0xbeaa749e	-0.33292097
162	0x3f089fba	0.53368723
163	0x3f0c5156	0.5481161
164	0x3e5c5f76	0.2152079
165	0x3e656ab6	0.22403988
166	0xbe032d6f	-0.128103
167	0xbe62acf5	-0.2213629
168	0xbe8a4af7	-0.2701032
169	0xbe33cf3c	-0.17559522
170	0xbd5340f7	-0.051575627
171	0xbe9f77ff	-0.31146237
172	0x3ec67334	0.38759768
173	0x3e159d6e	0.14610836
174	0x3e1ab000	0.15106201
175	0x3ab6b74e	0.0013940127
176	0x3d98a3dd	0.074531294
177	0xbdffc28a	-0.12488277
178	0xbc821fc8	-0.015884295
179	0x3e783ddf	0.24242352
180	0x3ecf7e33	0.4052597
181	0xbd220234	-0.039552882
182	0xbefdd3a9	-0.49575546
183	0x3eb4f1f3	0.35340843
184	0xbe29ed6c	-0.16594476
185	0x3e973950	0.29535913
186	0x3f195cfa	0.59907496
187	0x3c6fd52e	0.014638228
188	0x3db3866b	0.087658726
189	0x3eeaff3b	0.4589785
190	0x3f970d19	1.1800872
191	0xbe837770	-0.2567706
192	0x3eab5471	0.3346286
193	0xbe8504ab	-0.25980124
194	0xbe5a1855	-0.21298344
195	0x3eddf51d	0.4335107
196	0x3e8b6c40	0.27231026
197	0x3e2a911a	0.16656914
198	0xbde74434	-0.112923056
199	0x3ea876e2	0.329032
200	0xbe7d4199	-0.24732055
201	0xbd802dba	-0.06258722
202	0x3e3fb0d0	0.18719792
203	0xbd4b0f0a	-0.04957489
204	0x3ea4af03	0.32164773
205	0x3e664250	0.22486234
206	0xbe114589	-0.14186682
207	0xbe8a6e66	-0.27037352
208	0xbe8ef875	-0.27923933
209	0xbe6d2484	-0.23158461
210	0x3df245cf	0.11829721
211	0x3dddb079	0.10824675
212	0x3e562af3	0.20914821
213	0x3e18c147	0.1491748
214	0xbe34aa2f	-0.17643045
215	0xbc61b865	-0.013776873
216	0xbe2bb032	-0.16766432
217	0xbec82c87	-0.39096472
218	0xbe61fb66	-0.22068557
219	0xbe29aa42	-0.16568854
220	0x3df1363f	0.11777925
221	0xbd8d79ac	-0.06907973
222	0xbdd822e0	-0.10553527
223	0xbe48fe02	-0.19628146
224	0x3e9c8efc	0.30577838
225	0xbeb74ef4	-0.35802424
226	0x3e76b0e9	0.24090923
227	0x3ef1dbb1	0.47237924
228	0x3f17c0e8	0.59278727
229	0x3f1c9a4c	0.6117294
230	0xbee58ab1	-0.44832376
231	0xbe7712dd	-0.2412829
232	0xbf260e9a	-0.6486603
233	0xbebc5387	-0.36782476
234	0x3e4d3620	0.20040178
235	0xbf2e2162	-0.6801969
236	0x3ed57583	0.41691217
237	0x3e4215e2	0.1895366
238	0xbeca8155	-0.39551798
239	0xbe79a786	-0.24380311
240	0xbe85bc3d	-0.26120177
241	0xbf044855	-0.5167287
242	0x3f93b665	1.1540037
243	0x3e79cfad	0.24395628
244	0x3f16ce12	0.5890819
245	0x3f344624	0.70419526
246	0xbec4bc07	-0.38424703
247	0xbf2a1774	-0.66442037
248	0xbf0e8cd8	-0.5568366
249	0xbe4c8fb7	-0.19976698
250	0x3f06fda6	0.52730787
251	0xbf476ce0	-0.77900505
252	0x3e56a728	0.20962203
253	0x3f218ca4	0.63105226
254	0xbe1aac0f	-0.15104698
255	0xbe6f6000	-0.23376465

lstm.bias_ih_l0 f4 [64]
0	0x3e5f050f	0.21779273
1	0x3d23cfb7	0.039993014
2	0x3e123d69	0.14281239
3	0x3dcdcaed	0.10048471
4	0xbc97bbde	-0.0185222
5	0x3de772c8	0.1130119
6	0x3e006f86	0.12542543
7	0x3eb320c6	0.34985942
8	0x3d0f714c	0.035020158
9	0xbd1ac94b	-0.037789624
10	0x3dcd159e	0.10013889
11	0x3efb6ce9	0.4910653
12	0x3e95ec3f	0.29281804
13	0xbd3ca44c	-0.046055123
14	0x3ef634b5	0.48087087
15	0x3f127a86	0.57218206
16	0x3e5c445d	0.21510454
17	0x3e85d49d	0.26138774
18	0x3dd510d3	0.104035996
19	0x3e509a7f	0.20371436
20	0x3e8b9e6a	0.27269298
21	0x3c9f8940	0.019474626
22	0x3ddf6d8a	0.10909565
23	0x3dbddb6c	0.09270367
24	0x3d272f54	0.04081662
25	0x3e6457ec	0.22299165
26	0x3e00a28e	0.1256201
27	0x3ea25c8f	0.31711242
28	0x3d0b04ac	0.033940002
29	0x3db7b520	0.08970094
30	0x3e755932	0.23959807
31	0x3e5a5879	0.21322812
32	0x3e884593	0.2661558
33	0xbdd0035b	-0.1015689
34	0x3da23865	0.07920913
35	0x3dc09002	0.09402467
36	0xbc093bd2	-0.008376079
37	0x3e078ed2	0.13238075
38	0xbe751262	-0.23932794
39	0xbddee222	-0.10882975
40	0x3e61aa10	0.2203753
41	0x3e6021fb	0.21887963
42	0x3e7f60de	0.24939296
43	0xbc6b8274	-0.014374364
44	0x3e65ff31	0.22460629
45	0x3dc68736	0.09693758
46	0x3e87dcde	0.26535696
47	0xbe2f035b	-0.17091124
48	0x3e878f47	0.264765
49	0x3e1e19ea	0.15439573
50	0x3f06707e	0.525154
51	0x3c47ec19	0.012202286
52	0x3ea644c1	0.3247433
53	0x3eb49fc8	0.35278153
54	0x3c0c7686	0.00857318
55	0x3eb8e485	0.36111847
56	0x3e69db0a	0.22837463
57	0x3ecc58f0	0.39911604
58	0x3eb61478	0.3556249
59	0x3edb8f63	0.42882833
60	0xbdaa8ad3	-0.0832726
61	0x3e18472d	0.14870901
62	0x3f124cc2	0.57148373
63	0x3d876b8e	0.06612311

lstm.bias_hh_l0 f4 [64]
0	0x3f1402a1	0.5781651
1	0x3e12b1b2	0.14325598
2	0x3e8b76ec	0.27239168
3	0x3d9b7242	0.07590152
4	0x3eaf0026	0.341798
5	0x3e895dcb	0.2682937
6	0x3e08eb57	0.13371025
7	0x3ed99cb5	0.4250237
8	0x3cd33867	0.02578373
9	0x3dccf574	0.10007754
10	0x3ee79a06	0.45234698
11	0x3f038a8a	0.5138327
12	0xbdd7b1e1	-0.105319746
13	0x3dd01608	0.10160452
14	0x3e9f2be1	0.31088164
15	0x3efbb07c	0.49158084
16	0x3ea97d77	0.33103535
17	0x3ea0b4ca	0.3138793
18	0x3e92dffb	0.2868651
19	0x3ed220c8	0.41040635
20	0xbd81ac9a	-0.06331749
21	0x3e437b22	0.1908994
22	0xbd2b76aa	-0.041861214
23	0x3d10da80	0.035364628
24	0x3ea8509e	0.32874006
25	0xbd9cbde9	-0.0765341
26	0x3ddb7a5f	0.107167
27	0x3e0bbc2e	0.13646004
28	0x3d651f10	0.055937827
29	0x3edc69ca	0.4304946
30	0x3e165a71	0.14682938
31	0x3ea25f91	0.31713536
32	0x3ca02e4c	0.019553326
33	0x3e4b255b	0.19838469
34	0xbd888b6e	-0.06667219
35	0x3db03b1a	0.08605023
36	0x3d95b87a	0.07310577
37	0xbe765b84	-0.24058348
38	0x3d4734bf	0.048634287
39	0x3db0fa6b	0.086415134
40	0xbe494f90	-0.19659257
41	0x3e441145	0.19147213
42	0x3e1e2aaf	0.1544597
43	0x3d4a4170	0.049378812
44	0x3e671e0e	0.22570059
45	0x3e023586	0.1271573
46	0x3e86812e	0.2627043
47	0xbca0d9ea	-0.01963516
48	0x3edeee59	0.4354122
49	0xbe0e847e	-0.1391773
50	0x3e94884f	0.29010245
51	0x3da05c6e	0.078301296
52	0x3ead230e	0.33815807
53	0xbd996002	-0.07489015
54	0x3e64241a	0.22279397
55	0x3e215917	0.15756641
56	0x3d827d47	0.06371551
57	0x3e40579f	0.18783425
58	0xbb2491db	-0.002511135
59	0x3e9f085f	0.31061074
60	0x3e85c0e8	0.26123738
61	0x3e20ca4d	0.15702172
62	0x3eecb1e5	0.46229473
63	0x3ee1b17b	0.4408072

lstm.weight_ih_l1 f4 [64, 16]
0	0x3e996c1f	0.29965302
1	0xbf29caee	-0.6632527
2	0xbe8e6304	-0.27809918
3	0x3f55d0da	0.8352181
4	0x3f4fc9a3	0.8116705
5	0x3ed95e5f	0.42454812
6	0xbf04bba9	-0.51848847
7	0xbd900220	-0.07031655
8	0xbf62f10b	-0.8864905
9	0xbe391168	-0.18073046
10	0x3e73bc6b	0.23802345
11	0xbec1f6c7	-0.3788359
12	0x3e96467c	0.2935065
13	0x3eed4174	0.46339
14	0xbf16ef5c	-0.58958983
15	0xbf23e7a9	-0.6402536
16	0x3e62d160	0.22150183
17	0x3e83af06	0.2571947
18	0xbee28ca0	-0.44247913
19	0xbc92ea31	-0.017933937
20	0x3e101f31	0.14074399
21	0xbd9edb55	-0.07756678
22	0xbe9ce81e	-0.3064584
23	0x3ec49cc0	0.3840084
24	0xbe670149	-0.22559084
25	0x3ef5ee6b	0.4803346
26	0xbc9da2b0	-0.019242615
27	0x3e129414	0.143143
28	0x3d8a7ea0	0.06762433
29	0x3ea7399c	0.3266114
30	0xbe2d3419	-0.16914405
31	0x3d44546e	0.04793208
32	0x3e197456	0.14985785
33	0xbee62210	-0.44947863
34	0x3f1a6fac	0.6032665
35	0x3ec6b755	0.38811746
36	0x3f2db1c2	0.6784936
37	0x3e7855fa	0.24251547
38	0xbe41790a	-0.18893829
39	0xbe0c8a74	-0.1372469
40	0xbe986d10	-0.29770708
41	0xbdf60039	-0.12011761
42	0x3ee602f5	0.4492413
43	0xbf003bdd	-0.50091344
44	0x3ea47325	0.32119098
45	0x3f10db99	0.5658508
46	0x3ee18f17	0.4405448
47	0x3e4b0b6a	0.19828573
48	0x3e4dab7e	0.2008495
49	0xbe545d29	-0.20738663
50	0xbe3e359f	-0.18575142
51	0x3ea56ca2	0.32309443
52	0x3de627f1	0.11238087
53	0xbe3d938c	-0.18513316
54	0xbeb78596	-0.35844105
55	0x3e9ac0fa	0.30225354
56	0xbe1f0c39	-0.15532006
57	0xbe80d0b8	-0.2515924
58	0xbe3dc9e9	-0.18534054
59	0xbcd71c9b	-0.026258757
60	0xbe29444c	-0.1652996
61	0xbdbc806e	-0.092041835
62	0xbf062e47	-0.52414364
63	0xbeb5586a	-0.35419017
64	0x3d9cb7ef	0.0765227
65	0xbf8fea11	-1.1243306
66	0x3f154c14	0.5831921
67	0x3f55f246	0.83572805
68	0x3ed84d20	0.42246342
69	0x3ee29299	0.4425247
70	0x3d69dec5	0.057097215
71	0xbf14e4a9	-0.5816141
72	0xbf9003da	-1.1251175
73	0xbdf9e4b4	-0.12201825
74	0x3e9ce7ed	0.30645695
75	0xbf7de550	-0.9917803
76	0x3ee6607c	0.44995487
77	0x3f21dbdc	0.63226104
78	0x3e97e6c0	0.29668236
79	0xbeecf733	-0.46282348
80	0x3e70c44a	0.23512378
81	0xbe76d7f5	-0.24105819
82	0xbe5acb35	-0.2136658
83	0xbe046297	-0.12928234
84	0x3dc02e8a	0.093838766
85	0xbe921410	-0.2853093
86	0x3e027509	0.12739958
87	0xbe7d013e	-0.24707505
88	0x3df54e7d	0.11977861
89	0x3eb1ba66	0.34712523
90	0xbe8c619e	-0.27418226
91	0x3e220c31	0.15824963
92	0x3e8b3ef4	0.27196467
93	0x3e8a653e	0.27030367
94	0xbef0fbe1	-0.47067168
95	0xbe5eff76	-0.21777138
96	0x3e6ea339	0.23304452
97	0xbea9feff	-0.3320236
98	0x3e9e3da9	0.30906418
99	0x3e0c854b	0.13722722
100	0x3e776d48	0.24162781
101	0x3e786c1c	0.2425999
102	0x3d2e6cb1	0.042584125
103	0xbd8ff912	-0.07029928
104	0xbe7140ce	-0.23559877
105	0xbe3e37ac	-0.18575925
106	0xbd45551e	-0.048176877
107	0xbeaec1f7	-0.34132358
108	0x3ebb6cb1	0.36606362
109	0x3ee36eb6	0.44420403
110	0xbebc27c9	-0.36749104
111	0xbe388594	-0.18019706
112	0xbd20be64	-0.03924407
113	0xbe34ae2f	-0.17644571
114	0x3e82a981	0.25519946
115	0x3e5ef794	0.21774131
116	0xbe10617a	-0.14099684
117	0x3d16bfd0	0.03680402
118	0xbd8d6e2a	-0.06905778
119	0x3e2e06b5	0.16994746
120	0xbe097aaa	-0.13425699
121	0xbeb3a393	-0.35085735
122	0xbde96f5d	-0.11398194
123	0x3ddd1944	0.10795835
124	0x3de9eecc	0.114225
125	0x3e29f085	0.16595657
126	0x3e58a6ae	0.21157333
127	0x3c13b6e6	0.009015774
128	0xbe417701	-0.18893053
129	0xbe2bfac7	-0.16794883
130	0x3e247ee1	0.16064025
131	0x3df18202	0.11792375
132	0x3ec22876	0.37921494
133	0x3e7aee92	0.2450507
134	0xbdb5828c	-0.088627905
135	0xbe883348	-0.26601624
136	0xbede7103	-0.43445596
137	0x3d76e4a0	0.060276628
138	0x3d265f95	0.040618498
139	0xbe317ac1	-0.17331983
140	0x3e76db80	0.2410717
141	0x3edc489b	0.43024144
142	0x3dd3a3b4	0.10333958
143	0x3e987744	0.29778492
144	0xbe4fd1ad	-0.20294829
145	0xbe998c3c	-0.29989803
146	0x3cbb7a0e	0.022885349
147	0xbd38951f	-0.045064088
148	0xbe7ad7fc	-0.24496454
149	0x3df1a1bd	0.11798427
150	0xbe1732fd	-0.14765544
151	0xbef97e68	-0.48729253
152	0xbe600407	-0.21876536
153	0x3c049f25	0.008094584
154	0xbe8339f5	-0.25630155
155	0xbaf5213b	-0.001870192
156	0x3d53cf4f	0.051711377
157	0x3e372349	0.17884554
158	0xbef4043d	-0.47659484
159	0xbe9ab350	-0.3021493
160	0x3e409b05	0.18809135
161	0xbdb52a82	-0.08845998
162	0x3d7a1f40	0.06106496
163	0xbe0b28eb	-0.13589828
164	0x3ebdae56	0.3704707
165	0x3e37b639	0.17940606
166	0xbe1cbc2a	-0.15306154
167	0xbe264ce4	-0.16240269
168	0xbe9a0d14	-0.30088103
169	0x3e547e25	0.20751245
170	0x3e881535	0.2657868
171	0xbee44651	-0.44584897
172	0x3ddc4420	0.10755181
173	0x3d6ede0b	0.058317225
174	0x3e9df94a	0.30854255
175	0x3e8b839c	0.27248847
176	0x3e633b7f	0.22190665
177	0xbf0bf1fb	-0.5466611
178	0x3e61a2d9	0.22034778
179	0x3f10da6c	0.56583285
180	0x3e6ef6d2	0.23336342
181	0x3f126463	0.5718443
182	0x3dc7aced	0.0974978
183	0xbf116915	-0.5680097
184	0xbee895a3	-0.45426664
185	0xbeab1d93	-0.33421
186	0xbe7136e5	-0.23556097
187	0xbf6b3520	-0.9187794
188	0x3e859269	0.26088265
189	0xbc09a6d6	-0.008401593
190	0xbf51784b	-0.8182418
191	0xbf36362c	-0.7117641
192	0x3e3a9572	0.18221071
193	0xbcc0020f	-0.023438482
194	0x3b1590c9	0.0022821894
195	0x3d2a1de9	0.04153243
196	0xbda439ad	-0.08018813
197	0xbe117da2	-0.14208081
198	0xbef8d8e9	-0.4860299
199	0x3e7e6622	0.24843648
200	0xbdeecc84	-0.11660102
201	0x3c862660	0.01637572
202	0x3ef64a01	0.48103335
203	0x3e97cb2c	0.29647195
204	0xbd210e24	-0.039320126
205	0xbd6e3ddf	-0.058164474
206	0x3da5f193	0.08102717
207	0x3dac4689	0.08411891
208	0xbe697ae0	-0.2280078
209	0x3c5f702d	0.013637585
210	0x3f04af43	0.5182993
211	0xbdeb4b4d	-0.11488972
212	0x3eecf98e	0.46284145
213	0x3e3a2acb	0.18180387
214	0xbd9c2329	-0.07623894
215	0xbe959633	-0.29216155
216	0x3df8d68e	0.12150298
217	0xbecadaeb	-0.39620146
218	0x3d01951f	0.031636354
219	0x3da4f39f	0.080542795
220	0xbdeb66f9	-0.1149425
221	0x3efb4956	0.49079388
222	0xbedc2852	-0.42999512
223	0xbe9ee79c	-0.3103608
224	0xbde7d029	-0.11319
225	0xbee68573	-0.4502369
226	0x3e7edd7c	0.24889177
227	0x3efacb64	0.489833
228	0x3eaf6f35	0.34264532
229	0x3ecb68a4	0.39728272
230	0x3c20ffd2	0.009826617
231	0xbc05bad0	-0.008162215
232	0xbee190de	-0.44055837
233	0xbedded6e	-0.43345207
234	0xbe972b12	-0.29525048
235	0xbf01b446	-0.506657
236	0x3e812fa0	0.25231647
237	0x3e81d0aa	0.2535451
238	0xbd63d1b7	-0.05561992
239	0xbe195c39	-0.14976586
240	0xbcce585f	-0.025188623
241	0xbd959e90	-0.07305634
242	0x3ee89d77	0.45432636
243	0x3e0abe68	0.13549197
244	0x3e673e56	0.22582373
245	0x3e3bec03	0.1835175
246	0xbc9bd2d2	-0.019021425
247	0x3e34427f	0.17603491
248	0x3c386d83	0.011256578
249	0xbea38c8f	-0.31943175
250	0x3dca2062	0.09869458
251	0xbe94784a	-0.28998023
252	0xbd670234	-0.056398585
253	0x3e7ebcfa	0.24876776
254	0xbe3f9e53	-0.1871274
255	0x3eae6673	0.34062538

lstm.weight_hh_l1 f4 [64, 16]
0	0x3ab8670e	0.0014068799
1	0x3e097636	0.13424
2	0xbeb95768	-0.36199498
3	0xbe0349a1	-0.12821056
4	0xbeef5fe0	-0.46752834
5	0x3c215129	0.00984601
6	0x3d97d896	0.07414357
7	0x3e0ba3a3	0.13636641
8	0xbe1e7b66	-0.1547676
9	0xbf041c83	-0.51606005
10	0xbf09be93	-0.5380642
11	0xbf0845ad	-0.53231317
12	0x3e883bc6	0.26608104
13	0x3e604d9d	0.21904607
14	0xbe046f28	-0.12933028
15	0xbec72cb0	-0.3890128
16	0x3e2988ce	0.16556093
17	0x3e1ee2de	0.1551623
18	0x3e9fa3ff	0.31179807
19	0xbf227ea7	-0.63474506
20	0xbe9a5f59	-0.3015087
21	0x3e8e9642	0.27849013
22	0x3ad657cb	0.0016353069
23	0x3daa2579	0.083079286
24	0x3d9f30e5	0.07772998
25	0x3b5f1c96	0.0034044138
26	0xbeae3b6b	-0.34029707
27	0xbed2c429	-0.41165283
28	0x3f1651db	0.5871865
29	0xbdaa7abf	-0.08324193
30	0xbe3b5730	-0.18294978
31	0xbe715293	-0.23566656
32	0xbf37e6c6	-0.7183651
33	0x3ddbe3b7	0.107367925
34	0x3ebee8c4	0.3728696
35	0xbd8bdc33	-0.06829109
36	0x3e8df6d5	0.2772738
37	0x3ec597e2	0.3859244
38	0xbc820a15	-0.015873948
39	0x3e7fb419	0.24971046
40	0xbe9d2e2e	-0.30699295
41	0x3e4ca9db	0.1998667
42	0xbddaf681	-0.10691548
43	0x3e2ef126	0.17084178
44	0xbe31dc67	-0.17369233
45	0xbd2cf1a5	-0.042222638
46	0xbe2fed92	-0.1718047
47	0xbf008ab1	-0.50211626
48	0x3ee20c6e	0.44150108
49	0xbe793ad2	-0.24338844
50	0xbee7a3ec	-0.4524225
51	0xbe6862c7	-0.2269393
52	0xbe809816	-0.25116032
53	0x3e9d9721	0.30779365
54	0xbdb014d3	-0.08597722
55	0x3e8aac84	0.27084744
56	0xbcab138c	-0.020883344
57	0x3d25006c	0.040283605
58	0x3d8368fb	0.06416508
59	0xbe1db9a5	-0.15402849
60	0x3e6d79fd	0.23191066
61	0x3e9f2a0e	0.31086773
62	0x3e06746a	0.13130346
63	0x3d94bc00	0.07262421
64	0xbf2de12e	-0.6792172
65	0x3e3087f0	0.17239356
66	0xbedfae92	-0.43687874
67	0x3e941947	0.28925535
68	0xbdf63a18	-0.12022799
69	0x3e570442	0.20997718
70	0xbf075488	-0.5286336
71	0x3b5c8d8b	0.0033653702
72	0xbf1d2a89	-0.6139303
73	0x3e07578e	0.13216993
74	0xbe73ace6	-0.23796424
75	0xbd6551cd	-0.055986214
76	0x3e4cf668	0.20015872
77	0x3e68696a	0.22696462
78	0xbe2a64e7	-0.16640054
79	0xbf3bcf86	-0.7336353
80	0x3d1e8bc4	0.03870751
81	0x3df8e274	0.121525675
82	0xbe1bd66a	-0.15218511
83	0xbef0e62e	-0.47050613
84	0xbe3ba04b	-0.18322866
85	0xbe25a898	-0.16177595
86	0x3eee051b	0.4648827
87	0xbe444dfc	-0.19170374
88	0x3dde4b68	0.10854226
89	0xbe93d58e	-0.28873867
90	0x3b9a24f4	0.004704112
91	0xbf204edd	-0.62620336
92	0xbe102cb5	-0.14079554
93	0xbd56cf03	-0.052443516
94	0xbecaa177	-0.39576313
95	0x3d8c18bc	0.06840655
96	0xbe954c84	-0.2915994
97	0x3e8ca50a	0.27469665
98	0xbc239be2	-0.009985896
99	0xbd92759b	-0.07151338
100	0x3e8cc6f8	0.2749555
101	0x3ec8a87a	0.39191037
102	0xbe493519	-0.19649161
103	0x3e593c50	0.21214414
104	0xbeff1d3d	-0.49826995
105	0x3d88a6af	0.06672417
106	0xbeab4736	-0.33452767
107	0xbdc658e7	-0.096849255
108	0x3e6eefaa	0.23333612
109	0x3c75df00	0.015006781
110	0xbd8d585e	-0.0690162
111	0xbe3e9eaa	-0.18615213
112	0x3ecd13e6	0.40054244
113	0x3e303c9f	0.17210625
114	0x3c205195	0.009785076
115	0x3e237703	0.15963368
116	0x3e58abb9	0.21159257
117	0x3e35ca22	0.17752889
118	0xbd1e3d54	-0.038632706
119	0xbdf05077	-0.117340975
120	0x3d5d73b5	0.054065425
121	0xbdd4268a	-0.10358913
122	0x3d1c003a	0.038086154
123	0xbd9e1f4b	-0.077208124
124	0x3e9e161f	0.30876252
125	0x3d99b344	0.07504895
126	0x3eb373da	0.35049325
127	0xbe717100	-0.23578262
128	0xbc4aabd0	-0.012370065
129	0x3ebfab37	0.37435314
130	0x3e0dfaaa	0.13865152
131	0x3d5e5855	0.05428346
132	0x3dbfcc6e	0.09365164
133	0x3eccf75d	0.40032473
134	0xbe930d2f	-0.28720996
135	0x3e0e3284	0.13886458
136	0xbe886875	-0.26642194
137	0xbe9abd12	-0.30222374
138	0xbed5add9	-0.41734198
139	0x3e4c1d0c	0.19932956
140	0x3c6f80af	0.014618083
141	0x3e8beda5	0.27329746
142	0x3e3ff2a2	0.18744901
143	0xbe99d8bd	-0.3004817
144	0xbe37e86f	-0.1795976
145	0xbf05b50d	-0.52229387
146	0xbe076a8a	-0.13224235
147	0xbe4b2342	-0.19837669
148	0xbe91f610	-0.28508043
149	0xbd3eb9ae	-0.046563797
150	0xbd3f8f7b	-0.046767693
151	0xbe022f04	-0.12713248
152	0x3e368365	0.1782356
153	0x3e368579	0.17824353
154	0xbe3a725d	-0.18207689
155	0xbea65834	-0.3248917
156	0xbe2c389c	-0.1681847
157	0xbe643d43	-0.22288994
158	0x3e69c1a5	0.22827776
159	0xbd886031	-0.06658972
160	0xbf32839a	-0.6973206
161	0xbf74974a	-0.9554335
162	0x3d818b29	0.06325371
163	0xbe58f375	-0.21186621
164	0x3ea6ad19	0.32553938
165	0xbe5296ae	-0.20565292
166	0x3e80e249	0.25172642
167	0x3dceba56	0.100941345
168	0xbed69f52	-0.41918427
169	0x3e14794f	0.144994
170	0xbe89b2c0	-0.26894188
171	0x3e88f182	0.26746756
172	0x3e789d59	0.24278773
173	0x3e91f24a	0.28505164
174	0x3e1725ca	0.14760509
175	0xbe887998	-0.2665527
176	0xbd8887dc	-0.06666538
177	0xbdffc2c1	-0.12488318
178	0xbf2d7e4c	-0.6777084
179	0x3e1699a1	0.14707042
180	0xbf0ccc3f	-0.54999155
181	0xbe0d75fb	-0.13814537
182	0xbd47f90c	-0.048821494
183	0xbe2d0029	-0.16894592
184	0x3d379082	0.044815548
185	0xbe927f4d	-0.28612748
186	0xbf002eb9	-0.50071293
187	0xbee7c8ff	-0.45270535
188	0x3e303449	0.17207445
189	0xbe8335a1	-0.25626853
190	0x3e628d96	0.22124323
191	0x3e23aad1	0.1598313
192	0xbd5a086b	-0.053230684
193	0xbe1e1cb9	-0.15440644
194	0x3e6f5819	0.2337345
195	0x3e2b38e9	0.16720928
196	0x3eb51fcd	0.35375825
197	0x3e0c26d7	0.13686691
198	0xbda29671	-0.07938851
199	0x3dc587d2	0.09645046
200	0xbd10f16e	-0.035386495
201	0xbe52932a	-0.20563951
202	0xbdbf9386	-0.0935431
203	0x3dcde4a1	0.10053373
204	0xbdf1be7f	-0.11803912
205	0x3e94304f	0.28943107
206	0xbead7735	-0.3388001
207	0xbe233ad9	-0.15940417
208	0x3e18fa33	0.14939193
209	0x3eec8c25	0.46200672
210	0x3e39f60f	0.1816027
211	0x3e5cda93	0.21567754
212	0x3e5a61e9	0.21326412
213	0x3e16aaeb	0.14713638
214	0xbe75d447	-0.24006759
215	0x3e6e35af	0.23262666
216	0xbbe588f2	-0.0070048505
217	0x3ed7190a	0.4201129
218	0x3eb03d32	0.34421688
219	0xbf13bca7	-0.57709736
220	0x3e130e6d	0.14360972
221	0xbed05275	-0.4068791
222	0x3e31e169	0.17371143
223	0xbe2462fb	-0.16053383
224	0x3d935b15	0.07195107
225	0x3f250a71	0.6446906
226	0xbe0b2694	-0.13588935
227	0x3da0abce	0.07845269
228	0x3c13351a	0.008984828
229	0x3e1c6d1c	0.15275997
230	0xbd53276c	-0.051551268
231	0x3e4be381	0.19911005
232	0xbf10baad	-0.56534845
233	0xbd37db11	-0.044886652
234	0x3e068a98	0.13138807
235	0xbf199e41	-0.600071
236	0xbc40aa6b	-0.011759381
237	0xbe7692db	-0.24079458
238	0x3e044d43	0.12920098
239	0xbe585cb5	-0.21129115
240	0x3ead11f6	0.33802766
241	0x3e686915	0.22696336
242	0x3e9ff0fc	0.31238544
243	0x3e008786	0.12551698
244	0xbe4959af	-0.19663118
245	0x3e1a5ad4	0.1507371
246	0xbdadb1d6	-0.08481185
247	0xbd6cb004	-0.05778505
248	0xbba72b8f	-0.005101628
249	0x3e809f41	0.251215
250	0xbe2fc344	-0.17164332
251	0xbc49a4b9	-0.012307339
252	0xbda334b0	-0.07969034
253	0xbf0e2a5d	-0.5553339
254	0x3db380af	0.08764779
255	0xbcd9c318	-0.026582286

lstm.bias_ih_l1 f4 [64]
0	0x3eb37235	0.3504807
1	0x3e2b4030	0.16723704
2	0xbe2a7e67	-0.16649781
3	0xbe13cba7	-0.14433156
4	0x3d442a4a	0.047891892
5	0x3d6584f4	0.056034997
6	0x3e8f90aa	0.28040057
7	0x3d322832	0.043495364
8	0x3ea781eb	0.32716307
9	0x3e10e96b	0.14151542
10	0x3e31826e	0.17334911
11	0x3ec79bb7	0.38985988
12	0x3d10ba8a	0.035334148
13	0x3de626f9	0.11237902
14	0x3e9bbc35	0.30417028
15	0x3cc8d023	0.02451331
16	0x3edb7c50	0.4286828
17	0x3e82b14b	0.2552589
18	0xbe84917f	-0.25892255
19	0x3e32fb5b	0.17478697
20	0xbe5a89e5	-0.21341665
21	0xbdb567c1	-0.0885768
22	0x3e8a892b	0.27057776
23	0xbe1bf56f	-0.15230344
24	0x3e8cbc84	0.27487576
25	0xbe98f371	-0.2987323
26	0x3e8eadb7	0.2786691
27	0x3dc3aee4	0.09554842
28	0x3bd2b410	0.0064301565
29	0xbc04e064	-0.0081101395
30	0x3e07dc78	0.13267696
31	0xbe40e6c8	-0.18838036
32	0x3e107219	0.14106025
33	0x3e706215	0.23474915
34	0xbe51a9e7	-0.20474969
35	0xbdf2fedd	-0.118650176
36	0x3e63a265	0.22229917
37	0x3d055750	0.03255397
38	0x3c6b4b53	0.01436122
39	0x3ce23ae9	0.027615981
40	0xbe186a16	-0.14884219
41	0xbe2bc4a2	-0.16774228
42	0x3c9c4924	0.019077845
43	0x3e50783f	0.2035837
44	0x3e754224	0.23951012
45	0xbdb0d95b	-0.08635207
46	0x3e338682	0.1753178
47	0xbe24cf16	-0.16094622
48	0x3e63b722	0.22237828
49	0x3c7ffbd8	0.015624009
50	0x3e0da13b	0.13831036
51	0x3e3962c0	0.18104076
52	0x3eaefd3f	0.34177586
53	0xbd39c22e	-0.0453512
54	0x3eaf8709	0.3428271
55	0x3e805ac8	0.2506926
56	0x3e9ab63f	0.30217168
57	0xbde8c70e	-0.11366092
58	0x3e000dfb	0.12505333
59	0x3eb619d6	0.35566586
60	0x3e8ebfc8	0.27880692
61	0x3d71abb7	0.05900165
62	0xbb839067	-0.004015017
63	0x3cf3a61e	0.029742297

lstm.bias_hh_l1 f4 [64]
0	0x3ec876b9	0.39153078
1	0x3f022d06	0.5084995
2	0xbda4a7b6	-0.08039801
3	0x3be2921c	0.0069143903
4	0xbd2b5114	-0.04182537
5	0x3e9395c4	0.288252
6	0x3e55b8ec	0.20871323
7	0x3e911ce8	0.28342366
8	0xbda82647	-0.08210426
9	0xbd0fd154	-0.03511174
10	0x3d62b046	0.05534389
11	0x3cb2eac1	0.021840455
12	0x3e85d869	0.2614167
13	0x3d86010c	0.065431684
14	0x3eb72902	0.35773474
15	0xbd8ed54d	-0.06974278
16	0x3d40aab7	0.047037806
17	0x3e249e69	0.16076054
18	0xbe405dc3	-0.18785767
19	0xbe3d92c2	-0.18513015
20	0x3de71c06	0.11284642
21	0xbe3db0cd	-0.18524475
22	0xb930d0e6	-0.00016862489
23	0x3b908db0	0.0044114217
24	0x3e4c6966	0.19962081
25	0xbdb70c62	-0.08937909
26	0x3daf0139	0.08545155
27	0xbe0d2b54	-0.1378606
28	0x3e9e575a	0.3092602
29	0x3e6d7d30	0.23192286
30	0x3b759857	0.0037474835
31	0xbdd9775f	-0.10618471
32	0x3d57c6e3	0.052679908
33	0x3e618123	0.22021918
34	0x3d71ed49	0.059064183
35	0x3de93c78	0.113884866
36	0x3ce3473e	0.027743932
37	0x3d647915	0.055779535
38	0xbd39e69f	-0.045385953
39	0x3d717ffa	0.05895994
40	0xbe5afe5e	-0.21386096
41	0xbe17d1e2	-0.14826158
42	0xbdb85d9c	-0.090022296
43	0xbd79c88b	-0.06098227
44	0x3e87a61c	0.2649392
45	0x3e22a3cf	0.158828
46	0xbe678034	-0.226075
47	0xbe434b5c	-0.19071716
48	0x3dd5cc66	0.104393765
49	0x3ee2d7ef	0.4430537
50	0xbe3697c8	-0.17831337
51	0x3e8522bb	0.2600306
52	0xbceeb7ef	-0.02914044
53	0x3e7cf162	0.24701455
54	0x3e517651	0.2045529
55	0xbc0dec14	-0.008662242
56	0x3d90a25a	0.07062216
57	0xbe59f9c9	-0.21286692
58	0x3d9a05a7	0.07520609
59	0x3e5de4d6	0.21669325
60	0x3e096753	0.13418321
61	0xbd23a298	-0.039949983
62	0x3e8e37ef	0.2777705
63	0x3e7c980a	0.24667373

fc.weight f4 [16, 16]
0	0xbe0e7bf8	-0.13914478
1	0x3e5bb81b	0.2145695
2	0xbe9b4508	-0.30326104
3	0xbc8b16c5	-0.01697863
4	0xbe0f48d8	-0.13992631
5	0x3e43b249	0.19110979
6	0x3d64609a	0.05575619
7	0x3ebc46a2	0.3677264
8	0x3e7b2058	0.24524057
9	0x3d3cbadd	0.046076644
10	0x3c87b7ee	0.016567197
11	0x3e89ac05	0.26889053
12	0x3df4d6df	0.11955046
13	0x3e9a1083	0.30090722
14	0xbd83ed80	-0.06441784
15	0x3df19c6b	0.117974125
16	0x378aab86	1.6530754e-05
17	0x3efcb943	0.49360093
18	0xbea43d5c	-0.32078063
19	0xbe2825d2	-0.16420677
20	0xbe8b18c0	-0.2716732
21	0x3e888be3	0.26669225
22	0xbe6d3fd1	-0.23168875
23	0x3e3a7482	0.18208507
24	0x3e41ee52	0.18938568
25	0xbded6a63	-0.11592557
26	0x3e2da0dc	0.16955894
27	0xbce1da9c	-0.027570061
28	0x3dc7ffaf	0.09765565
29	0xbd96ebc0	-0.073691845
30	0xbe8b12f3	-0.27162895
31	0xbe018059	-0.12646617
32	0x3d08ec3b	0.033428412
33	0xbef52ef5	-0.47887388
34	0x3d1b127c	0.037859425
35	0x3dd5e836	0.10444681
36	0xbc790555	-0.015199025
37	0x3d09e936	0.033669673
38	0x3d93ab74	0.072104365
39	0xbe80269d	-0.2502946
40	0xbe7283a2	-0.23683026
41	0xbe1172ca	-0.14203945
42	0xbe09fba3	-0.13474898
43	0x3e30f27e	0.17280003
44	0xbe83b91c	-0.25727165
45	0xbe674389	-0.22584356
46	0x3dbfea61	0.09370876
47	0xbe3054f1	-0.17219903
48	0x3e48967e	0.19588658
49	0xbee9051d	-0.45511714
50	0x3ea41af1	0.32051805
51	0xbe8af659	-0.27141073
52	0x3e9163bd	0.28396407
53	0xbe5fcd88	-0.21855748
54	0x3d5d6534	0.054051593
55	0x3de2c557	0.11072796
56	0xbe63217e	-0.22180745
57	0xbd983186	-0.07431321
58	0xbe68ded6	-0.22741255
59	0x3e3d3b1e	0.18479583
60	0x3d92c30a	0.07166107
61	0x3e044aa9	0.12919106
62	0x3ebe2980	0.37141037
63	0xbe4c6268	-0.19959414
64	0x3e59c9df	0.21268414
65	0xbe98bc4b	-0.29831156
66	0xbd810ae3	-0.063009046
67	0xbd1da768	-0.03848973
68	0x3e1761e9	0.14783444
69	0xbee5e7de	-0.44903463
70	0x3e7d8f4a	0.24761692
71	0xbe715a93	-0.23569708
72	0xbe6f40b1	-0.23364522
73	0x3cd37c93	0.025816238
74	0xbe97f6d7	-0.2968051
75	0x3e3b21ad	0.18274565
76	0xbd329db2	-0.04360742
77	0xbe91e9a1	-0.28498557
78	0x3dbb7406	0.09152989
79	0xbe0075eb	-0.12544982
80	0x3e96f74a	0.29485542
81	0xbe87c753	-0.2651926
82	0x3ea8ca88	0.3296702
83	0xbe62154c	-0.22078437
84	0xbda3167d	-0.07963274
85	0xbdb1fcd5	-0.08690802
86	0xbe547a5a	-0.20749798
87	0xbe6a6cd1	-0.22893073
88	0x3dda36c8	0.1065498
89	0x3e05f051	0.13079955
90	0x3d64f763	0.05589999
91	0xbe1083fa	-0.14112845
92	0x3debb1a9	0.11508495
93	0xbdc749eb	-0.097308956
94	0x3db99cd0	0.09063113
95	0x3da4d24b	0.08047923
96	0x3e8a7345	0.2704107
97	0xbd3cee55	-0.04612573
98	0x3c89c5ed	0.016818011
99	0xbdb71533	-0.0893959
100	0x3e414fbd	0.18878074
101	0xbe2e138b	-0.16999643
102	0xbe2f1ed6	-0.17101607
103	0xbe9cf9bd	-0.30659285
104	0xbe4e5de2	-0.20153001
105	0xbe74d0e0	-0.23907804
106	0xbe33ec22	-0.17570546
107	0x3d398aaa	0.045298256
108	0xbdb117a5	-0.08647088
109	0xbe7e89ac	-0.24857205
110	0x3e0f2167	0.13977586
111	0xbda1ada5	-0.07894448
112	0x3e09fcf2	0.13475397
113	0xbd66c102	-0.05633641
114	0x3e9d2395	0.3069121
115	0xbe510d0f	-0.20415138
116	0xbe05f045	-0.13079937
117	0xbd536f57	-0.051619854
118	0x3e41f638	0.18941581
119	0xbe24b86d	-0.16085978
120	0xbdc9154c	-0.09818515
121	0xbdd75bbf	-0.10515546
122	0xbe7c8fd9	-0.24664249
123	0x3d0929d6	0.033487163
124	0xbcc0ccae	-0.023535099
125	0x3d93225f	0.0718429
126	0x3dedf780	0.116194725
127	0xbe465788	-0.19369328
128	0xbd9bcc89	-0.07607371
129	0x3ea24a1d	0.3169717
130	0xbd8ad23b	-0.067783795
131	0x3e107aeb	0.1410939
132	0x3da6f567	0.081522755
133	0x3eb8de17	0.3610694
134	0xbc804499	-0.01565771
135	0x3d08e823	0.033424508
136	0x3e56ba35	0.2096947
137	0xbc60fc8f	-0.01373209
138	0x3df89e4f	0.1213957
139	0x3e86d1b3	0.26331863
140	0xbd385e74	-0.045011953
141	0x3e090ebb	0.13384525
142	0xbe9c140f	-0.30484053
143	0x3e4554a9	0.19270577
144	0xbd90937a	-0.07059379
145	0x3e7cb634	0.2467888
146	0x3dc01fd1	0.093810685
147	0x3db86662	0.09003903
148	0x3df62718	0.12019175
149	0x3ec03b9c	0.37545478
150	0xbe6bf09b	-0.23041002
151	0x3e446966	0.19180831
152	0xbe20a2d1	-0.1568711
153	0x3e34ebe1	0.17668106
154	0x3ea8415e	0.3286237
155	0x3d9e9c17	0.077446155
156	0x3e8400d3	0.2578188
157	0x3dc942fa	0.09827228
158	0xbeb941fb	-0.36183152
159	0x3e6a4943	0.2287951
160	0xbea9c179	-0.3315542
161	0x3dbcc6b1	0.09217585
162	0xbd934006	-0.07189946
163	0xbd547e86	-0.051878475
164	0x3dd6f029	0.10495026
165	0x3ece8671	0.40336946
166	0x3e174ad9	0.14774646
167	0x3d407abd	0.046992052
168	0x3dbd83de	0.09253667
169	0x3e0471cd	0.12934037
170	0xbca74561	-0.020418825
171	0xbe0658b8	-0.13119781
172	0x3d332ad6	0.043742023
173	0x3d1c6280	0.038179874
174	0xbdd5777a	-0.10423179
175	0x3d1e9f04	0.038725868
176	0xbec5c66b	-0.38627943
177	0x3e7d0e82	0.24712566
178	0xbeb85075	-0.35998884
179	0xbd91ceab	-0.07119497
180	0xbe61680e	-0.2201235
181	0x3ee60557	0.4492595
182	0x3e1353f7	0.14387499
183	0x3eb5c7fc	0.35504138
184	0xbe1cff14	-0.1533168
185	0x3dbaef81	0.09127713
186	0x3e95c17f	0.29249188
187	0xbd603df4	-0.054746583
188	0x3e1ef945	0.15524776
189	0x3e7b0da7	0.24516927
190	0xbec05959	-0.37568167
191	0xbbeba7f1	-0.007191651
192	0x3e308261	0.17237236
193	0xbeea6f5c	-0.45788085
194	0xbdbc9523	-0.09208133
195	0xbe36a446	-0.17836103
196	0x3eaf0ddb	0.34190258
197	0xbee4ad55	-0.44663492
198	0xbd488c0f	-0.048961695
199	0x3d96bde2	0.07360436
200	0xbe3847f2	-0.17996195
201	0xbe4da0e5	-0.20080908
202	0xbec12ac2	-0.37727934
203	0xbe48727d	-0.19574924
204	0xbe83f3f9	-0.25772074
205	0x3d1fc978	0.039010495
206	0x3eab08fb	0.3340529
207	0xbe69dcb3	-0.22838096
208	0xbe8f3cb0	-0.27975988
209	0x3ee20959	0.44147757
210	0xbeae7ad9	-0.340781
211	0x3e6dbe65	0.23217161
212	0xbe4e4321	-0.20142795
213	0x3d3b404b	0.04571561
214	0xbd5ece5e	-0.054396026
215	0x3c4c8f60	0.012485355
216	0x3ce6f3bf	0.0281924
217	0x3d4e9c29	0.050441895
218	0x3e809bbe	0.25118822
219	0xbd933fc3	-0.07189896
220	0xbe50aaeb	-0.203777
221	0x3e541c15	0.20713837
222	0xbeabd8a2	-0.33563715
223	0x3da8a98e	0.08235465
224	0x3e7e5bc0	0.24839687
225	0xbe96d3a2	-0.29458338
226	0x3ddfd56d	0.109293796
227	0xbe1a4b5a	-0.15067807
228	0x3e3c58d4	0.1839326
229	0xbe09cbcc	-0.13456649
230	0x3d76c495	0.06024607
231	0x3d259c7a	0.04043243
232	0xbe8dca86	-0.27693576
233	0x3cdb4279	0.026765095
234	0xbeeb3dc5	-0.45945564
235	0x3d31d319	0.04341421
236	0x3d308ec8	0.043104917
237	0x3d9c0d82	0.07619764
238	0x3ecfb5be	0.40568346
239	0x3df43cf5	0.11925689
240	0x3eac4048	0.33642793
241	0xbec27199	-0.37977293
242	0x3dc81393	0.097693585
243	0x3e2745d4	0.16335231
244	0x3e73e9fb	0.23819725
245	0xbeb92b07	-0.3616564
246	0x3cd86959	0.026417421
247	0xbe84de26	-0.25950736
248	0xbc60736c	-0.013699394
249	0xbda4a1c5	-0.080386676
250	0xbe92c7be	-0.28668016
251	0x3e434476	0.19069085
252	0xbdd49241	-0.10379458
253	0xbe8e601e	-0.27807707
254	0x3dbe2b0a	0.09285553
255	0x3e487c5a	0.19578686

fc.bias f4 [16]
0	0xbe1b8875	-0.15188773
1	0x3e57c1dc	0.21070045
2	0xbda606c4	-0.08106759
3	0x3d052ccd	0.03251343
4	0xbd9d5252	-0.07681717
5	0x3e0d1913	0.13779096
6	0x3e35fae7	0.17771493
7	0xbe139859	-0.14413585
8	0xbde85e3b	-0.11346098
9	0xbe237bf1	-0.15965249
10	0xbe186d10	-0.14885354
11	0xbc2b48d9	-0.01045438
12	0xbe7913b6	-0.24323925
13	0x3de67560	0.11252856
14	0xbe310c9c	-0.17289966
15	0xbdca02a7	-0.09863787
