weights/best_ppg_encoder.pth (torch, 238582 bytes, 10 tensors)

conv1.weight f4 [64, 2, 5]
0.15784754 0.14679462 -0.13545407 -0.09845117 -0.14494093 0.2017399 0.2067901 0.07857152
-0.2977216 0.09535156 0.27124354 0.27195126 0.15302302 0.007453002 -0.17803445 0.027372709
0.14366469 0.22074568 0.27116913 0.004706992 0.19592331 0.20206374 -0.04079278 0.0114507545
-0.1428289 -0.2460228 -0.061066218 0.03360324 0.053905502 -0.046199705 -0.060945317 -3.6744867e-05
0.012460925 0.23684564 0.24377646 -0.14605272 -0.12843765 -0.09846405 0.0012992249 -0.21520649
0.17820935 0.065906405 -0.14843266 -0.00055756024 -0.050747372 0.013236876 0.22097717 0.019475568
-0.19971606 0.17998028 0.26984486 -0.108026534 0.084901296 0.21219486 -0.21632233 0.074384324
0.22020523 0.07207737 -0.19181907 0.077486485 0.051963557 1.4082199e-05 -0.30330262 0.045766436
0.09373893 0.16183545 -0.13111939 -0.021834316 0.26650375 0.051292554 -0.059766088 -0.18340202
0.004505034 -0.009885778 -0.07458897 0.16328101 -0.016469965 -0.17574626 -0.20874815 0.1781163
0.097075194 0.17933865 -0.036231924 0.26144513 -0.031183582 0.246108 -0.19900855 0.13650165
-0.2493135 -0.049754083 -0.13013265 0.13233642 0.20983997 0.010175698 0.18759012 -0.1938553
-0.05333896 0.24721639 0.10660224 -0.05133731 0.27583092 0.27257252 0.055555195 0.052787937
-0.08759543 -0.1636884 -0.00523211 -0.10565901 0.042507928 -0.23580055 0.23659778 -0.06702477
0.01855683 -0.0005041896 -0.1330071 0.20345478 0.15376772 -0.03822758 -0.0379246 0.2999355
0.14791374 -0.21412043 -0.120500974 0.21691844 -0.044946548 -0.25003445 -0.12941222 -0.049612917
-0.26142892 0.0020887835 -2.145432e-06 -0.2138689 -8.6527587e-07 0.046720915 -0.2849924 0.08068356
-0.09826618 0.06512952 0.028310155 -0.28557917 0.22687334 0.26200584 0.07062183 0.12092508
0.2283454 -0.0050906525 0.23225416 -0.2743971 0.29427546 -0.015079168 -0.14092149 8.504991e-06
-0.20845011 0.055490546 0.18202063 -0.16200592 -0.13984878 -0.0001907245 -0.12566417 -0.28457108
0.23354207 0.0052346806 -0.18304859 -0.09448337 -0.24927819 -0.1710827 0.04493195 0.22201586
0.25444773 -0.27247134 -0.19910558 0.22926594 -8.4111673e-07 0.217485 -0.28749782 0.21004358
0.18144451 -0.04827955 -0.15550035 -0.29976073 0.21103458 0.16386409 -0.019004587 -0.24862917
0.13026689 0.29669508 0.21191278 -0.22585192 -0.18826832 0.069929585 -0.24412559 0.30166897
0.1744986 0.01621388 0.1234782 -0.18270628 0.04993212 0.095216624 -0.19793455 -0.1705642
-0.21715254 0.1939916 -0.021523299 0.0342075 -0.081124105 0.03486732 -0.14967513 -0.049859032
-0.10802412 0.07081195 0.21109116 -0.20032696 0.120804854 0.2245969 0.2569524 -0.1353732
0.14628229 -0.027189052 0.09377114 0.24322724 0.17407236 0.1802947 -0.061940923 0.2861494
-0.14653103 0.1445305 0.28649378 -0.29400223 -0.14273694 -0.030071562 0.29107833 0.25983426
-4.349875e-05 0.2720102 0.20342115 -1.2155155e-07 -0.011735902 -0.2366896 -0.18647641 -0.1264515
0.042786777 -0.1511428 0.01732417 -0.11545696 -0.025557617 0.12215644 -0.19896135 -0.16397227
-0.07401039 -0.008650508 0.121393286 -0.30278963 -0.07757487 0.22048515 -0.16906045 0.054952238
00000000: c9a2 213e 5451 163e 79b4 0abe c4a0 c9bd
00000010: 656b 14be e894 4e3e c9c0 533e 1bea a03d
00000020: f76e 98be ae47 c33d 6fe0 8a3e 323d 8b3e
00000030: 11b2 1c3e 5038 f43b aa4e 36be bb3c e03c
00000040: d61c 133e 280b 623e aed6 8a3e 1c3d 9a3b
00000050: 1fa0 483e cce9 4e3e 5516 27bd f29b 3b3c
00000060: bd41 12be 67ed 7bbe 9220 7abd 8da3 093d
00000070: 04cc 5c3d e73b 3dbd cca1 79bd 801e 1ab8
00000080: e828 4c3c aa87 723e 89a0 793e d88e 15be
00000090: 2985 03be 85a7 c9bd c14a aa3a 175f 5cbe
000000a0: 837c 363e f0f9 863d bbfe 17be 3c29 12ba
000000b0: 7adc 4fbd 7bdf 583c d747 623e 3a8b 9f3c
000000c0: 5e82 4cbe c04c 383e 1b29 8a3e 043d ddbd
000000d0: bbe0 ad3d 9c49 593e 9a83 5dbe cf56 983d
000000e0: 7b7d 613e 4d9d 933d 386c 44be 3cb1 9e3d
000000f0: bdd7 543d 9642 6c37 7b4a 9bbe 9675 3b3d
00000100: 32fa bf3d 31b8 253e 2944 06be e1dd b2bc
00000110: 2e73 883e 2418 523d 49cd 74bd bdcd 3bbe
00000120: f79e 933b f5f7 21bc 1ac2 98bd 2333 273e
00000130: 05ec 86bc d4f6 33be 13c2 55be 1f64 363e
00000140: 5ccf c63d 8da4 373e ed67 14bd 23dc 853e
00000150: b674 ffbc bc03 7c3e e6c8 4bbe 17c7 0b3e
00000160: 0a4c 7fbe f0ca 4bbd 7e41 05be 3383 073e
00000170: 4ae0 563e f9b7 263c a017 403e 0182 46be
00000180: f479 5abd 4b26 7d3e 4652 da3d 1247 52bd
00000190: b639 8d3e a08e 8b3e d88d 633d 2a38 583d
000001a0: 3c65 b3bd ef9d 27be 1f72 abbb c063 d8bd
000001b0: cb1c 2e3d b375 71be b046 723e 4844 89bd
000001c0: 7e04 983c 972b 04ba 0333 08be 7356 503e
000001d0: 4975 1d3e 8694 1cbd d356 1bbd 2591 993e
000001e0: b376 173e 6342 5bbe 37c9 f6bd de1f 5e3e
000001f0: df19 38bd 8404 80be a384 04be ea36 4bbd
00000200: 03da 85be f9e3 083b 3efa 0fb6 7300 5bbe
00000210: 4e45 68b5 6e5e 3f3d 86ea 91be 6c3d a53d
00000220: c73f c9bd a062 853d b3ea e73c 6f37 92be
00000230: 7c51 683e a125 863e 2ea2 903d 91a7 f73d
00000240: 60d3 693e 7dcf a6bb 09d4 6d3e c77d 8cbe
00000250: 46ab 963e 9d0e 77bc b94d 10be a8b0 0e37
00000260: f273 55be 0e4a 633d 9e63 3a3e e1e4 25be
00000270: 8534 0fbe 38fd 47b9 1cae 00be 4db3 91be
00000280: a725 6f3e af87 ab3b 1771 3bbe 7f80 c1bd
00000290: c842 7fbe 4e30 2fbe 900a 383d 2058 633e
000002a0: f946 823e 5d81 8bbe 55e2 4bbe b1c4 6a3e
000002b0: 1ac9 61b5 63b4 5e3e ea32 93be aa15 573e
000002c0: 97cc 393e c7c0 45bd 7c3b 1fbe 3d7a 99be
000002d0: 7319 583e fdcb 273e 82af 9bbc a598 7ebe
000002e0: af64 053e 6be8 973e aaff 583e ba45 67be
000002f0: 69c9 40be 3e37 8f3d 0ffc 79be 5b74 9a3e
00000300: c3af 323e f9d2 843c 23e2 fc3d 5b17 3bbe
00000310: 9f85 4c3d ef00 c33d 5baf 4abe 62a8 2ebe
00000320: 3c5d 5ebe bca5 463e a151 b0bc 2a1d 0c3d
00000330: 6524 a6bd 09d1 0e3d 7044 19be fc38 4cbd
00000340: c03b ddbd db05 913d 4828 583e 8322 4dbe
00000350: 8968 f73d bbfc 653e 448f 833e 469f 0abe
00000360: 06cb 153e 93bb debc 150b c03d 9010 793e
00000370: 0640 323e 2d9f 383e c4b5 7dbd 2d82 923e
00000380: 3b0c 16be ceff 133e 50af 923e 7687 96be
00000390: a229 12be a358 f6bc 3808 953e ff08 853e
000003a0: 6d72 36b8 ec44 8b3e a24d 503e d683 02b4
000003b0: f147 40bc c25e 72be acf3 3ebe 817c 01be
000003c0: 3041 2f3d 2ec5 1abe 6beb 8d3c b374 ecbd
000003d0: 355e d1bc 282d fa3d 86bc 4bbe 59e8 27be
000003e0: c292 97bd dcba 0dbc 0b9d f83d 3e07 9bbe
000003f0: 93df 9ebd dcc6 613e 2f1e 2dbe 9915 613d

conv1.bias f4 [64]
-0.25952116 -0.15078366 0.0002885014 -0.0011915544 0.1480796 -0.16075568 0.16205586 0.2202012
-0.19146325 -0.078154124 0.19754054 -0.13583465 -0.15108947 -0.107417434 0.009419501 -0.2197595
-0.08339703 0.05890501 0.2704807 0.2940025 0.29486465 -0.1776806 0.00027394915 0.14230001
-0.08023335 0.26914325 -0.1776687 0.00046659756 -0.0056409854 -0.14560498 0.045979567 0.17156029
0.028961182 -0.16270362 0.22897749 0.06768205 0.30089042 -0.27300477 -0.26678458 0.029760879
0.21951726 0.24923325 0.084637 0.07833121 -0.28682688 -0.1012647 -0.2624495 -0.1950025
0.07681296 -0.07709172 0.18651944 -0.24917723 0.1550847 -0.2612523 0.030673329 0.2956052
0.2022067 -0.28352478 -0.003394638 0.13032736 0.11817935 0.11851817 0.070220895 -0.09949127
00000000: f5df 84be 0867 1abe 0142 9739 ee2d 9cba
00000010: 2ea2 173e 239d 24be f9f1 253e 6c7c 613e
00000020: f10e 44be 450f a0bd 1148 4a3e 3d18 0bbe
00000030: 33b7 1abe acfd dbbd 4054 1a3c a208 61be
00000040: 10cc aabd 6146 713d 727c 8a3e 7f87 963e
00000050: 80f8 963e e7f1 35be d5a0 8f39 18b7 113e
00000060: 6251 a4bd 25cd 893e c9ee 35be aaa1 f439
00000070: 04d8 b8bb 7919 15be 1255 3c3d 80ad 2f3e
00000080: 0040 ed3c c79b 26be 1379 6a3e e39c 8a3d
00000090: 4f0e 9a3e 48c7 8bbe fd97 88be 16cd f33c
000000a0: 22c9 603e 0037 7f3e 2a56 ad3d 1d6c a03d
000000b0: f9da 92be de63 cfbd c85f 86be bcae 47be
000000c0: 1d50 9d3d 44e2 9dbd f4fe 3e3e 5128 7fbe
000000d0: 86ce 1e3e ddc2 85be a246 fb3c 9159 973e
000000e0: 460f 4f3e 292a 91be 9378 5ebb 8974 053e
000000f0: 0408 f23d a8b9 f23d f9cf 8f3d 14c2 cbbd

conv2.weight f4 [64, 64, 5]
0.037825588 0.011513898 0.013528437 0.029199407 0.029239124 0.02806685 0.00029395992 -0.033986818
2.2761756e-06 -0.035721112 -0.038588163 0.019994406 -0.014750847 -0.00023879006 0.039816275 0.016802577
3.5180028e-06 0.013286337 0.027945934 0.026306221 -0.019906828 0.021924762 0.036779884 -0.0128978295
0.028097952 0.010867416 0.0033503256 -0.027222523 0.03947368 0.026360303 0.025845839 9.4682146e-05
-0.016873 0.04257849 0.014305088 0.020483937 0.024522722 -0.013512009 0.035015106 -0.020463232
0.0056172414 -0.035596948 0.034760084 0.0025340146 0.025934491 0.0005324329 -0.008686227 0.020114273
0.04075779 0.00018892373 0.028469017 0.019697892 0.0019093711 -0.03668425 -0.024026949 0.027986515
-0.012961682 -0.028873054 -0.026949488 0.003558529 -0.007872895 -0.024551632 -0.040765695 -0.029953416
0.00086234754 0.026319401 -0.037244275 -0.009761781 -0.021450173 0.008874589 0.0024866918 0.025424933
-0.044112746 -0.0073043425 0.029769437 -0.025968827 0.03772069 0.0007835813 -0.03114882 0.009316224
-0.0220487 0.015398213 0.015140795 -0.029001862 -0.016804319 -0.010241478 0.0376282 0.027744308
-0.0058931215 -0.030909482 0.018670488 -0.03331797 -0.039072108 0.008731119 -0.028297177 0.011618552
0.0026974268 -0.01059171 0.014012497 0.0356916 3.2345959e-06 -0.01652513 0.023680408 -0.035749953
0.0010623663 -0.004590104 -0.00058572163 -1.7743771e-06 -0.007900319 4.297759e-08 0.03489625 -0.03171009
-0.039388694 -1.2909618e-06 -0.025353134 -0.042036667 0.033965908 1.0915625e-05 0.0037336093 -0.034352377
-0.042659365 -3.7282596e-06 -0.01972287 -0.01625131 -0.017696206 1.1337519e-05 0.023220873 0.042540062
0.0347953 0.0015317324 1.14495615e-05 -0.042696837 -0.030963527 -0.00801443 0.019632991 -0.04408802
0.041455034 -0.0253863 0.028276555 -0.02528832 0.02088639 -0.00016695184 0.0006302765 -0.027523965
-0.037369788 -0.03701012 0.0020964306 0.007922882 0.034346454 0.029287212 3.2887064e-07 -0.025993051
0.003558184 -0.0021960486 -0.04043623 -0.023761468 -0.031668484 -0.022331595 0.016357843 -0.00989912
-0.02685334 0.025510952 0.0023636818 0.018780937 -0.005677077 0.0210795 0.006380188 5.998796e-07
-0.014534706 -0.0046579186 -0.018268276 0.013320964 0.018216118 -0.024880053 0.026287138 -0.0033945504
-9.840341e-06 0.0037498549 -0.01583211 0.0052015255 0.0041299355 -0.036139224 0.035399567 0.005001581
0.029961124 -0.010035658 0.027824039 -0.022682996 -0.026353858 -0.026666086 4.9185155e-06 -0.04381786
0.008127222 -0.039709803 0.018383294 -0.032206062 0.0023088825 0.022330415 0.038468257 -0.043112118
-0.0057213097 3.4041657e-06 -0.009761968 0.022031425 0.007869678 -0.0036617592 1.1820761e-05 -0.010891031
0.010350225 -3.081052e-06 0.0062208474 0.013947951 0.026376959 -0.017523704 -0.022122186 0.000297144
-0.015102621 0.029682744 0.01609735 0.0406722 -0.0006455143 -0.029579056 -0.0012206726 -0.037142206
-0.037757616 -0.012309828 0.025295246 0.010841463 -0.035259288 -0.0053518945 0.04428583 0.03954031
-0.025210163 -0.035301413 0.025368214 0.025367416 0.015571137 0.026930751 0.004410377 0.029482808
1.2700293e-05 -0.02571882 0.036007155 0.03472019 -0.031223007 -0.03962227 1.7661823e-06 0.009607234
0.008138756 -0.0013062455 -0.03441905 -0.015909024 -0.019910824 0.0061834212 0.008689086 0.021991245
00000000: 01ef 1a3d caa4 3c3c 61a6 5d3c 9833 ef3c
00000010: e386 ef3c 73ec e53c a21e 9a39 c335 0bbd
00000020: 66c0 1836 4d50 12bd 9f0e 1ebd 4fcb a33c
00000030: 89ad 71bc b863 7ab9 6416 233d 8fa5 893c
00000040: d416 6c36 f0ae 593c dfee e43c 2580 d73c
00000050: a513 a3bc 8f9b b33c 81a6 163d 6b51 53bc
00000060: ad2d e63c 3f0d 323c 2391 5b3b c501 dfbc
00000070: 27af 213d 90f1 d73c a7ba d33c 1790 c638
00000080: 3f39 8abc c866 2e3d e35f 6a3c eecd a73c
00000090: e0e3 c83c 7961 5dbc 006c 0f3d 82a2 a7bc
000000a0: d610 b83b 1bce 11bd 9760 0e3d b611 263b
000000b0: 9274 d43c f892 0b3a ad50 0ebc b0c6 a43c
000000c0: a4f1 263d d419 4639 db37 e93c 795d a13c
000000d0: dd43 fa3a 3942 16bd 2ad4 c4bc fa43 e53c
000000e0: 3c5d 54bc 2f87 ecbc 2cc5 dcbc 3636 693b
000000f0: 51fd 00bc 8120 c9bc eef9 26bd de60 f5bc
00000100: 2a0f 623a c99b d73c 748d 18bd e1ef 1fbc
00000110: 46b8 afbc b966 113c c4f7 223b f347 d03c
00000120: 91af 34bd 4459 efbb 09df f33c 94bc d4bc
00000130: 0381 1a3d 4069 4d3a cf2b ffbc 13a3 183c
00000140: 7a9f b4bc c948 7c3c 1911 783c 5095 edbc
00000150: 36a9 89bc dfcb 27bc 0720 1a3d 0848 e33c
00000160: 161b c1bb e235 fdbc daf2 983c 6c78 08bd
00000170: 130a 20bd f80c 0f3c 7bcf e7bc bd5b 3e3c
00000180: 50c7 303b da88 2dbc ac94 653c 5b31 123d
00000190: ef11 5936 b65f 87bc 6afd c13c 8b6e 12bd
000001a0: 193f 8b3a 9568 96bb 1d8b 19ba 2227 eeb5
000001b0: 5770 01bc 5c96 3833 5fef 0e3d 70e2 01bd
000001c0: 0a56 21bd 1c45 adb5 60b1 cfbc a42e 2cbd
000001d0: d61f 0b3d 4122 3737 92af 743b 14b5 0cbd
000001e0: 96bb 2ebd 0333 7ab6 db91 a1bc 7821 85bc
000001f0: a2f7 90bc 4636 3e37 b339 be3c 7d3e 2e3d
00000200: 8485 0e3d 69c4 c83a 7e17 4037 e1e2 2ebd
00000210: 39a7 fdbc f54e 03bc 5ed5 a03c a495 34bd
00000220: c1cc 293d eef6 cfbc 3ca4 e73c 7329 cfbc
00000230: ef19 ab3c cb0f 2fb9 2439 253a f079 e1bc
00000240: 1011 19bd ec97 17bd 4564 093b face 013c
00000250: deae 0c3d bceb ef3c a38f b034 61ef d4bc
00000260: 6c30 693b 95eb 0fbb 76a0 25bd 69a7 c2bc
00000270: d0b6 01bd c0f0 b6bc e200 863c eb2f 22bc
00000280: 89fb dbbc 58fc d03c 00e8 1a3b 7bda 993c
00000290: c606 babb eaae ac3c e510 d13b 6a07 2135
000002a0: fa22 6ebc 74a1 98bb 5aa7 95bc 2c40 5a3c
000002b0: f839 953c 41d1 cbbc 2058 d73c 1b77 5ebb
000002c0: f117 25b7 20c0 753b 57b2 81bc 8f71 aa3b
000002d0: 6954 873b b906 14bd 23ff 103d 4de4 a33b
000002e0: 0871 f53c 9a6c 24bc 3def e33c b1d1 b9bc
000002f0: 0ce4 d7bc d672 dabc ba09 a536 5b7a 33bd
00000300: 0a28 053c bfa6 22bd 9098 963c 81ea 03bd
00000310: 9f50 173b 46ee b63c e490 1d3d 5596 30bd
00000320: d379 bbbb 1f73 6436 a9f0 1fbc 3f7b b43c
00000330: d2ef 003c 20fa 6fbb c851 4637 4b70 32bc
00000340: fd93 293c 12c4 4eb6 40d8 cb3b f285 643c
00000350: 7e14 d83c df8d 8fbc 9639 b5bc fec9 9b39
00000360: fc70 77bc 3a29 f33c 97de 833c e597 263d
00000370: bb37 29ba c74f f2bc fafe 9fba 6d22 18bd
00000380: bba7 1abd 29af 49bc fa37 cf3c 64a0 313c
00000390: 0b6c 10bd f25e afbb 0f65 353d 05f5 213d
000003a0: 8b85 cebc 3798 10bd 00d1 cf3c 54cf cf3c
000003b0: 151e 7f3c e19d dc3c ec84 903b ee85 f13c
000003c0: 5813 5537 46b0 d2bc 3d7c 133d c236 0e3d
000003d0: 64c7 ffbc f64a 22bd 900d ed35 a967 1d3c
000003e0: 6b58 053c 5336 abba fdfa 0cbd a453 82bc
000003f0: 061c a3bc 4c9e ca3b ab5c 0e3c fc26 b43c

conv2.bias f4 [64]
-0.02049685 0.038392078 -0.0101475315 -0.012843226 -0.030608756 0.0052766968 0.023057563 -0.018077422
-0.01541615 -0.0031339203 -0.040242378 0.018994397 0.03954628 0.0010809565 0.022983516 -0.0177401
0.0023583425 0.009905144 -0.024997618 -0.04041729 -0.017520765 -0.028699698 0.026908832 -0.04284749
-0.020514937 -2.1871683e-06 -0.0052153906 0.04053737 0.0063385405 -0.011864161 4.4877652e-08 -0.041863672
-0.01655961 0.01037738 0.0011557091 -7.0526664e-07 -0.042752896 0.0064882534 0.023119107 -0.0046613486
0.029942503 -0.02749241 0.037994765 0.0037198951 0.0059690317 0.0034007223 0.0041970653 0.022889655
0.03149445 0.00031250613 0.0283522 0.015639925 0.042365197 1.298419e-06 0.018126026 4.048997e-05
-0.026278999 0.0026401435 -0.015735416 0.012681277 0.019119192 -0.022737026 -7.1562763e-06 0.0015818484
00000000: 03e9 a7bc 0341 1d3d d541 26bc 656c 52bc
00000010: 37bf fabc 24e8 ac3b 37e3 bc3c 1a17 94bc
00000020: 0594 7cbc 7562 4dbb 31d5 24bd 239a 9b3c
00000030: 48fb 213d e2ae 8d3a ed47 bc3c b053 91bc
00000040: 6c8e 1a3b 2f49 223c cec7 ccbc 9a8c 25bd
00000050: b587 8fbc a11b ebbc e96f dc3c da80 2fbd
00000060: f10e a8bc 44c7 12b6 dee5 aabb 830a 263d
00000070: 88b3 cf3b e661 42bc 80bf 4033 3e79 2bbd
00000080: 05a8 87bc e305 2a3c 2a7b 973a 8e51 3db5
00000090: a91d 2fbd 6a9b d43b 4864 bd3c 3abe 98bb
000000a0: fb49 f53c c337 e1bc 66a0 1b3d 7cc9 733b
000000b0: de97 c33b a7de 5e3b 8987 893b 1683 bb3c
000000c0: 5300 013d ddd7 a339 df42 e83c 4d1f 803c
000000d0: 2187 2d3d 5645 ae35 087d 943c c6d3 2938
000000e0: 0e47 d7bc 4206 2d3b 8fe7 80bc 21c5 4f3c
000000f0: da9f 9c3c 0043 babc f21f f0b6 0656 cf3a

lstm.weight_ih_l0 f4 [256, 64]
-0.0038035545 0.03675005 -0.006105194 -0.014882355 0.019873707 0.052821685 0.08691231 0.045795754
0.03703714 -0.008307019 0.0019415141 0.028895319 -0.05352843 0.019112876 0.07051298 0.008032686
-0.104838796 0.034084454 0.08420687 0.10690007 0.06558667 -0.09143169 0.017249923 -0.041413378
-0.017409168 -0.060479432 -0.08444585 0.012395417 0.018043004 0.00010803344 0.048589036 -0.0026917332
0.07960182 -0.05255192 0.02557069 0.10288219 0.10894475 0.099134706 0.016333753 0.004430184
-0.038819432 -0.06595695 0.01188685 0.0466232 -0.026012236 0.03221569 0.08284337 -0.09552911
-0.06759838 -0.012545844 0.1043235 0.111873664 0.016726376 -0.048469305 -0.087683655 0.01910831
0.0067462143 -0.0007394018 -0.08222437 0.0831577 0.0013061166 0.029363599 -0.027286032 0.09949115
0.0712357 -0.016391352 -0.09902223 -2.195088e-05 -0.09563367 -0.07302211 0.058559738 -0.050012488
-0.10073787 -0.0550136 0.09040857 -0.02561228 -0.08209988 0.05615605 0.051954415 -0.029327435
-0.09879568 0.07304292 -0.011845403 0.03882755 0.06739316 -0.0064516235 -0.04975358 0.10655423
-0.07585099 -0.05825992 0.05324945 0.08702174 -0.1013284 0.039418407 -0.077607244 0.104064345
0.11110378 -0.065022595 -0.056773435 0.0867212 0.09211932 0.061409183 0.054743387 0.08027351
-0.024955658 -0.0452515 0.022032108 -0.031605493 0.004902184 -0.05775876 0.047187395 0.11423801
0.0026996871 0.0043076733 -0.044172443 0.10645928 -0.072867036 -0.027347095 0.09901068 0.009042603
-0.085775636 0.07716335 0.07341887 -0.0020214638 0.010780311 0.0915383 0.056101263 0.00067904784
-0.032874312 -0.047487985 -0.09382557 0.020706916 0.0396105 0.02716259 0.09934434 -0.040657524
-0.07253657 -0.026833925 0.08099683 -0.017300423 0.022699125 0.034321837 -0.023391476 0.06682584
0.0010858012 -0.00010192921 -0.0010974752 -0.08139861 0.10344022 -0.0570468 0.048277628 0.07348774
-0.054791644 0.086778656 -0.050616987 0.09717806 -0.092240036 0.0003524331 -0.09597099 0.0053532883
-0.08469897 -0.036549762 0.051599927 0.11567883 0.07080841 -0.06001178 0.07704401 -0.113122344
0.113256276 0.12429853 -0.1122657 0.06809737 0.05563392 0.09180426 0.066754535 -0.065752394
0.09420503 0.03806707 0.062003154 -0.110249765 0.023012541 -0.029264685 -0.06829732 -0.021257242
-0.09630692 -0.00040429566 0.0034008226 -0.036105208 -0.07528906 -0.07169909 0.019766398 -0.022623213
0.09973924 0.106013075 0.0053540375 0.057657827 0.0064887507 -0.09099291 0.0579941 -0.05252774
-0.07904012 -0.083082765 0.100024536 -0.08577832 0.029593106 -0.00644633 -0.07892728 0.07761043
-0.01793975 0.042205118 0.037139386 -0.09990058 -0.07769122 0.0004409585 -0.029213771 0.08899073
-0.0016903537 -0.019442778 0.10973616 0.10679389 -0.008006018 0.097227395 -0.06025122 0.031581644
0.06262444 0.08135848 0.026866693 -0.004045961 -0.06513769 0.015203475 -0.093937784 -0.076448835
0.053082503 -0.109048165 -0.029264275 -0.03127783 0.08159475 -0.0075990977 -0.10652971 -0.03353255
0.028360521 0.036785793 0.078554004 -0.095209 0.08119017 -0.025978636 -0.09077918 0.03737437
-0.069949955 0.10464542 -0.098949246 0.060330167 -0.08116813 0.002870705 0.064054556 -0.03329765
00000000: 0e45 79bb 3887 163d 140e c8bb 1fd5 73bc
00000010: 2fce a23c 8d5b 583d 15ff b13d 5494 3b3d
00000020: 42b4 173d 2a1a 08bc 677a fe3a e0b5 ec3c
00000030: a140 5bbd 9b92 9c3c 1c69 903d 879b 033c
00000040: b9b5 d6bd 249c 0b3d a774 ac3d 6dee da3d
00000050: 4e52 863d 8a40 bbbd b64f 8d3c 13a1 29bd
00000060: ac9d 8ebc 48b9 77bd f2f1 acbd 2616 4b3c
00000070: ecce 933c 0390 e238 4c05 473d ca67 30bb
00000080: 4706 a33d af40 57bd a079 d13c e6b3 d23d
00000090: 6d1e df3d 2307 cb3d 5dce 853c 142b 913b
000000a0: 2001 1fbd 7014 87bd 10c1 423c f8f7 3e3d
000000b0: 9d17 d5bc 99f4 033d c9a9 a93d c4a4 c3bd
000000c0: 0571 8abd 158d 4dbc 8fa7 d53d 051e e53d
000000d0: c105 893c c087 46bd 7d93 b3bd 0889 9c3c
000000e0: 590f dd3b 6ad4 41ba 4065 a8bd 964e aa3d
000000f0: 0032 ab3a ee8b f03c f586 dfbc 04c2 cb3d
00000100: 06e4 913d 2847 86bc 2bcc cabd 2823 b8b7
00000110: 96db c3bd 9e8c 95bd 56dc 6f3d e5d9 4cbd
00000120: a84f cebd f155 61bd 2128 b93d d8d0 d1bc
00000130: fb23 a8bd e303 663d 27ce 543d 1740 f0bc
00000140: 6455 cabd 8797 953d 3913 42bc a309 1f3d
00000150: 6d05 8a3d 2468 d3bb 69ca 4bbd 1b39 da3d
00000160: c457 9bbd f4a1 6ebd 181c 5a3d 7438 b23d
00000170: 4485 cfbd 3275 213d 8cf0 9ebd b01f d53d
00000180: 618a e33d 912a 85bd 438b 68bd e29a b13d
00000190: 0ea9 bc3d 3288 7b3d 9a3a 603d 7066 a43d
000001a0: cf6f ccbc a359 39bd ae7c b43c c374 01bd
000001b0: 80a2 a03b 7394 6cbd 9247 413d 9ef5 e93d
000001c0: 3ced 303b 6227 8d3b 2aee 34bd 5307 da3d
000001d0: 503b 95bd 0407 e0bc 1dc6 ca3d 6d27 143c
000001e0: 23ab afbd d207 9e3d a25c 963d 897a 04bb
000001f0: e79f 303c 6f78 bb3d 70ca 653d 2102 323a
00000200: 37a7 06bd c382 42bd 9f27 c0bd 8da1 a93c
00000210: 9f3e 223d 1484 de3c 0c75 cb3d 8188 26bd
00000220: 0e8e 94bd d2d2 dbbc aae1 a53d 9eb9 8dbc
00000230: 84f3 b93c 0e95 0c3d 7b9f bfbc fcdb 883d
00000240: 7151 8e3a d4c2 d5b8 28d9 8fba 50b4 a6bd
00000250: 77d8 d33d e8a9 69bd c3be 453d bd80 963d
00000260: 346d 60bd 02b9 b13d c253 4fbd 4a05 c73d
00000270: 58e8 bcbd c5c6 b839 708c c4bd a36a af3b
00000280: a776 adbd 34b5 15bd 725a 533d 06e9 ec3d
00000290: 0004 913d eace 75bd 40c9 9d3d b0ac e7bd
000002a0: e8f2 e73d 3a90 fe3d 8feb e5bd a276 8b3d
000002b0: 65e0 633d df03 bc3d 9ab6 883d 31a9 86bd
000002c0: 91ee c03d 37ec 1b3d 05f7 7d3d a1ca e1bd
000002d0: cc84 bc3c 7ebc efbc 77df 8bbd ab23 aebc
000002e0: 903c c5bd a5f7 d3b9 56e0 5e3b 0ee3 13bd
000002f0: 2731 9abd f9d6 92bd 24ed a13c 5154 b9bc
00000300: 1644 cc3d 621d d93d ec70 af3b 9d2a 6c3d
00000310: 969f d43b 7e5a babd 398b 6d3d 5427 57bd
00000320: c9df a1bd 4c27 aabd aad9 cc3d 8bac afbd
00000330: 3e6d f23c bc3b d3bb a0a4 a1bd 38f2 9e3d
00000340: 62f6 92bc 46df 2c3d 781f 183d ad98 ccbd
00000350: 931c 9fbd 7330 e739 b851 efbc c640 b63d
00000360: dc8e ddba 7646 9fbc 5abd e03d c1b6 da3d
00000370: ac2b 03bc 281f c73d fcc9 76bd c15b 013d
00000380: 3e41 803d 469f a63d 8a17 dc3c fb93 84bb
00000390: e966 85bd ff17 793c 7462 c0bd 3591 9cbd
000003a0: 0a6d 593d a554 dfbd a2bb efbc 2f1d 00bd
000003b0: 261b a73d da01 f9bb 402c dabd 6d59 09bd
000003c0: 5354 e83c b3ac 163d ece0 a03d f0fc c2bd
000003d0: 0847 a63d 26d1 d4bc 6fea b9bd de15 193d
000003e0: ec41 8fbd 5750 d63d e7a5 cabd c41c 773d
000003f0: 7a3b a6bd 7022 3c3b 092f 833d 1e63 08bd

lstm.weight_hh_l0 f4 [256, 64]
0.02022286 0.10407213 0.007341627 -0.017927282 0.11342677 0.01954398 -0.009320615 0.045401987
0.05331458 0.05571722 0.08090727 0.026825488 -0.04344991 0.07776547 -0.048726972 -0.03425733
-0.086683705 -0.058661368 0.0121990815 0.06963968 -0.059424352 -0.029048761 0.075536944 -0.060443953
-0.041043025 0.075883314 -0.021229433 0.0623798 -0.023722218 -0.03759848 0.0025061376 0.10153244
-0.09105941 0.1007596 -0.06755982 5.5704586e-06 0.024703082 0.079111926 0.066559635 -0.017838763
-0.06396218 -0.039284114 0.069640614 -0.08923689 -0.010120748 -0.012361261 -0.097123295 -0.074698724
0.0763297 0.031051537 -0.017841587 -0.03228824 -0.049799234 -0.016932242 0.07662015 -0.103319936
0.02466369 -0.005803747 0.0013794074 0.085622765 0.038698316 0.08936887 -0.0916638 0.06228543
-0.09953247 0.04424326 -0.041927297 -0.032260064 -0.017683676 0.04409393 -0.06428788 -0.051379997
0.10734485 0.040705092 -0.028623175 0.07838388 -0.07525378 0.0890864 -0.11049399 0.085002065
0.02715659 0.027554043 0.10377832 0.072026454 -0.041674167 0.09981335 0.07506331 -0.015411482
0.04587008 0.10057029 0.082256414 0.09101212 0.07248845 -0.07609051 0.05023 0.0025173747
0.019597989 0.09666313 -0.041811854 0.09391698 0.096112385 -0.0657042 -0.013129958 -0.00097327674
-0.04851762 0.08013651 0.08312749 0.047913224 0.11106961 -0.006427639 0.029554373 0.0021260553
-0.06438143 0.09203684 0.09124853 0.07251753 0.05256831 0.016654227 0.008662152 0.011409645
-0.02585073 -0.0048437556 0.040007345 -0.0018959796 -0.039911438 -0.03883657 -0.111514986 0.0023463566
0.095521204 0.104774065 -0.007520158 -0.03131373 0.084276214 -0.082119636 0.064535595 0.08362231
-0.103433125 -0.087942176 0.025193276 0.0424282 0.021123225 -0.025726136 0.0057012727 0.011959334
0.04343848 -0.08094405 0.045104746 0.053078532 0.013016043 -0.021748034 -0.047590766 0.049037483
0.013972701 -0.09744712 0.094449386 -0.03656657 -0.0776963 0.0027024392 0.10687106 0.053184908
-0.031374697 0.10321828 -0.073754 -0.056795176 -0.031014586 -0.016021745 -0.034094185 -0.05829492
-0.10598966 0.031490825 0.07764885 -0.022515306 0.020532032 -0.03505898 -0.022164581 -0.09184926
0.11440237 -0.023733333 0.063058384 0.0024973473 -0.06207635 0.03774664 0.06425967 -0.06721346
-0.0978139 0.006347656 -0.00569458 0.06388086 0.07493611 -0.10811918 0.094548404 -0.008180387
0.0075476593 0.001699384 0.09541786 -0.07513752 0.036833793 0.053167827 -0.016797703 -0.010141099
-0.010847784 0.0038844629 -0.08848889 0.10921446 0.024988787 0.09207142 -0.044529665 0.069206424
-0.0715661 0.05467777 -0.11018597 -0.10131802 0.0161575 -0.08003904 -0.10818585 0.031971697
-0.037877485 -0.034666024 0.008012344 -0.094948694 0.097629 -0.01845482 -0.07488878 -0.09841707
0.051515136 -0.08863927 -0.07934349 0.011264363 0.00631786 -0.09401714 -0.014894445 -0.042665165
0.0065997667 -0.020872187 0.009740581 -0.021823097 -0.022995753 0.081630416 0.052103754 0.04165698
-0.068522125 0.042540822 0.01761492 -0.094002046 -0.05946915 -0.024173155 -0.064844355 -0.0003462663
0.017772513 0.11037339 0.0990217 0.08513849 -0.045479883 0.050208155 0.1036812 0.006722577
00000000: 69aa a53c c523 d53d 0892 f03b 3cdc 92bc
00000010: 4b4c e83d b21a a03c 7eb5 18bc 6ff7 393d
00000020: 6460 5a3d bd37 643d b6b2 a53d 20c1 db3c
00000030: 88f8 31bd 8143 9f3d ef95 47bd 6a51 0cbd
00000040: 3a87 b1bd e746 70bd a8de 473c 409f 8e3d
00000050: f366 73bd abf7 edbc 1db3 9a3d 1494 77bd
00000060: bb1c 28bd b668 9b3d 59e9 adbc f681 7f3d
00000070: 1955 c2bc dd00 1abd 033e 243b 3df0 cf3d
00000080: 5b7d babd 0d5b ce3d ce5c 8abd e0e9 ba36
00000090: 1e5e ca3c 6f05 a23d 6b50 883d 9922 92bc
000000a0: 9afe 82bd 61e8 20bd bd9f 8e3d d5c1 b6bd
000000b0: 7ed1 25bc e386 4abc 94e8 c6bd a5fb 98bd
000000c0: bf52 9c3d cb5f fe3c 8528 92bc ac40 04bd
000000d0: 48fa 4bbd 7cb5 8abc 06eb 9c3d 6799 d3bd
000000e0: 820b ca3c 5c2d bebb 3bcd b43a fd5a af3d
000000f0: 2082 1e3d 0707 b73d 3bba bbbd 021f 7f3d
00000100: aed7 cbbd 6c38 353d f5bb 2bbd 2123 04bd
00000110: 5bdd 90bc d69b 343d 5da9 83bd d573 52bd
00000120: 9ed7 db3d 62ba 263d 267b eabc ba87 a03d
00000130: a71e 9abd ee72 b63d ac4a e2bd 9015 ae3d
00000140: 7f77 de3c 04b9 e13c ba89 d43d 9b82 933d
00000150: 88b2 2abd f16a cc3d cbba 993d 7180 7cbc
00000160: 44e2 3b3d ccf7 cd3d 0d76 a83d 9064 ba3d
00000170: d374 943d 57d5 9bbd f9bd 4d3d 8afa 243b
00000180: f68b a03c 52f7 c53d e842 2bbd 8c57 c03d
00000190: 92d6 c43d ec8f 86bd 091f 57bc 7f23 7fba
000001a0: 69ba 46bd 9c1e a43d bf3e aa3d a840 443d
000001b0: 7778 e33d f29e d2bb 031c f23c 4a55 0b3b
000001c0: 69da 83bd d07d bc3d 82e0 ba3d 1284 943d
000001d0: de51 573d 726e 883c b3eb 0d3c 85ef 3a3c
000001e0: e9c4 d3bc 5eb8 9ebb bede 233d 8582 f8ba
000001f0: 2d7a 23bd 1813 1fbd f861 e4bd 55c5 193b
00000200: 9fa0 c33d c993 d63d a86b f6bb d342 00bd
00000210: 0299 ac3d 572e a8bd 3d2b 843d 2c42 ab3d
00000220: bfd4 d3bd 071b b4bd 2162 ce3c 31c9 2d3d
00000230: 9d0a ad3c 9ebf d2bc bed1 ba3b 15f1 433c
00000240: 8cec 313d fec5 a5bd c1bf 383d e068 593d
00000250: 3e41 553c ef28 b2bc 89ee 42bd 87db 483d
00000260: c1ed 643c 5b92 c7bd ae6e c13d d4c6 15bd
00000270: 3d1f 9fbd 681b 313b 37df da3d 6bd8 593d
00000280: c182 00bd 1b64 d33d 560c 97bd 0fa2 68bd
00000290: 4d12 febc 0940 83bc 58a6 0bbd a7c6 6ebd
000002a0: 1b11 d9bd 86fc 003d 5c06 9f3d 0572 b8bc
000002b0: cb32 a83c 019a 0fbd 7f92 b5bc 771b bcbd
000002c0: ca4b ea3d 686c c2bc c124 813d 89aa 233b
000002d0: c543 7ebd 399c 1a3d 939a 833d 36a7 89bd
000002e0: a752 c8bd ffff cf3b 9999 babb f8d3 823d
000002f0: 1a78 993d 976d ddbd 98a2 c13d 0807 06bc
00000300: 5b52 f73b ddbd de3a 706a c33d b3e1 99bd
00000310: 08df 163d 82c6 593d 569b 89bc da26 26bc
00000320: e7ba 31bc 7992 7e3b aa39 b5bd d5ab df3d
00000330: 49b5 cc3c f18f bc3d bd64 36bd 19bc 8d3d
00000340: 3f91 92bd ccf5 5f3d 2fa9 e1bd d27f cfbd
00000350: bc5c 843c 82eb a3bd 8b90 ddbd c1f4 023d
00000360: 6c25 1bbd f6fd 0dbd 3546 033c 7674 c2bd
00000370: b7f1 c73d 902e 97bc 4a5f 99bd e48e c9bd
00000380: 8901 533d 8188 b5bd d77e a2bd 2a8e 383c
00000390: 0d06 cf3b 0f8c c0bd d507 74bc abc1 2ebd
000003a0: db42 d83b 26fc aabc f596 1f3c 5ac6 b2bc
000003b0: 9761 bcbc d92d a73d bf6a 553d 82a0 2a3d
000003c0: 5455 8cbd 493f 2e3d 2a4d 903c 2584 c0bd
000003d0: ec95 73bd c806 c6bc 1ecd 84bd 138b b5b9
000003e0: a997 913c 720b e23d e4cb ca3d 175d ae3d
000003f0: 1d49 3abd 11a7 4d3d cf56 d43d 1049 dc3b

lstm.bias_ih_l0 f4 [256]
-0.048609167 -0.109712325 -0.11223243 0.06323269 -0.08190221 0.11921665 0.045488957 -0.05079181
0.021049298 -0.021154515 -0.06255677 -0.06488547 -0.0449274 -0.070464954 -0.08027857 0.035020307
-0.06265684 0.05272889 -0.02099299 -0.120075464 -0.095679164 -0.016249942 0.027969623 -0.055004433
-0.03901153 -0.04748472 0.010326549 0.09389705 -0.05014864 0.07856132 0.07912983 0.08622108
-0.06122686 0.08430425 0.011929304 0.11501063 -0.061677694 -0.07028481 -0.10758003 -0.08562276
0.1082751 0.016938014 0.09400167 -0.0027741645 -0.026250692 -0.06783257 -0.037471727 0.032001648
0.10270136 -0.038822968 -0.043224514 -0.10161654 0.10618453 0.053283956 -0.05096738 -0.040953506
0.044761375 -0.10018472 -0.03459155 -0.02348444 0.09395321 0.06641502 -0.04455451 0.06648824
-0.11498245 0.05348727 -0.022543224 0.04247703 0.017791675 -0.069486134 -0.083142504 -0.067902
0.07191933 -0.027389502 0.092338674 -0.034609858 0.0071212477 -0.071354136 -0.118695445 -0.011503362
0.033894178 -0.09057079 -0.11076219 -0.014839354 0.012999337 -0.012829781 -0.059197687 -0.09214833
-0.046415593 -0.09135616 0.020729491 -0.0462458 0.07140056 0.12435302 0.10432769 0.10711828
0.046778344 -0.033814408 0.020949949 -0.09799418 0.06225243 0.118080996 0.018687302 -0.030229095
-0.055927955 0.04685036 -0.07609811 -0.037516374 -0.07780171 -0.051141318 -0.006056572 -0.10318978
0.091791034 -0.0570297 -0.060746677 0.107559256 -0.053918254 -0.015922012 0.06362482 -0.05625654
0.08782052 0.0010447694 0.08574765 0.06043287 0.015391278 -0.043814108 0.13106614 0.094265044
0.060943607 -0.1192314 0.09413438 -0.081958175 -0.050006345 0.035390146 -0.08034082 0.03802924
-0.0546028 0.015837938 0.005402247 -0.087208584 0.07926613 0.03565495 0.06378597 -0.1049596
0.09109228 -0.06645858 -0.083562925 0.029794032 -0.02132694 0.01189921 -0.024910636 0.077140234
0.1006418 -0.016618527 0.11016156 0.108525686 -0.09512351 0.08012607 -0.0010708984 -0.051845163
-0.101202995 -0.10233129 0.0356251 -0.07920364 -0.11518308 -0.064129576 -0.08843059 -0.064032376
0.035664905 -0.06230323 -0.08562445 0.029459268 -0.057143774 0.05608708 -0.039200254 -0.0017694051
0.012814252 -0.039357293 -0.076328084 0.101755835 0.05938659 -0.10476146 0.011256316 0.026099615
0.09879035 0.007981231 -0.07163215 -0.0074799443 0.065384254 -0.031155298 0.08942444 0.001012057
0.09595699 0.06227179 0.015624156 0.08270415 0.11011234 0.08814153 -0.08800992 -0.011604106
-0.087802045 0.10793765 0.10781748 0.10289958 0.008997252 0.10541093 -0.10085514 -0.069081806
0.040617954 0.044007927 0.10736431 0.06510748 -0.012678295 -0.07572113 0.08898949 0.024329621
0.11298465 -0.109595075 0.11528832 -0.032712616 -0.0928979 -0.010650352 0.10401053 -0.06281484
0.0063478467 -0.10127102 -0.081004746 -0.033033747 -0.022093367 0.10532385 0.01252025 0.04722884
-0.0901036 0.028410142 -0.104154274 0.08276428 -0.066246375 0.10301115 -0.11239892 0.082905926
0.07058523 -0.07741473 -0.04389881 0.11530133 -0.009365931 -0.091338 0.0667518 -0.056922644
-0.11437006 0.07781485 -0.07320269 -0.043249354 -0.058355413 0.025148723 -0.07582569 0.024349928
00000000: 681a 47bd dbb0 e0bd 1eda e5bd 2480 813d
00000010: 59bc a7bd dc27 f43d a152 3a3d 130b 50bd
00000020: 946f ac3c 3c4c adbc c41d 80bd ace2 84bd
00000030: cb05 38bd ee4f 90bd 1769 a4bd 7471 0f3d
00000040: 3b52 80bd 40fa 573d 7ef9 abbc 20ea f5bd
00000050: 70f3 c3bd 991e 85bc 8d20 e53c 544c 61bd
00000060: 8eca 1fbd 567f 42bd b030 293c 194d c03d
00000070: a968 4dbd c2e4 a03d d20e a23d ad94 b03d
00000080: 04c9 7abd b5a7 ac3d 2173 433c b18a eb3d
00000090: c0a1 7cbd 7cf1 8fbd eb52 dcbd fc5a afbd
000000a0: 56bf dd3d 97c1 8a3c f383 c03d c2ce 35bb
000000b0: b10b d7bc cdeb 8abd f47b 19bd 2914 033d
000000c0: 1755 d23d d504 1fbd 300c 31bd 551c d0bd
000000d0: 4677 d93d 4740 5a3d 2cc3 50bd ddbe 27bd
000000e0: b457 373d a52d cdbd deaf 0dbd 7162 c0bc
000000f0: 8a6a c03d 9904 883d ca7e 36bd fd2a 883d
00000100: eb7b ebbd 7815 5b3d 91ac b8bc 65fc 2d3d
00000110: d9bf 913c bf4e 8ebd 9e46 aabd 3410 8bbd
00000120: 714a 933d f35f e0bc 0f1c bd3d 11c3 0dbd
00000130: 5b59 e93b 1e22 92bd 9916 f3bd 9978 3cbc
00000140: 9fd4 0a3d 2e7d b9bd 49d7 e2bd c320 73bc
00000150: 2cfb 543c 0034 52bc 4679 72bd 43b8 bcbd
00000160: 471e 3ebd f018 bbbd e5d0 a93c 3c6c 3dbd
00000170: 753a 923d ccac fe3d c2a9 d53d d460 db3d
00000180: a69a 3f3d fa80 0abd 3a9f ab3c 2cb1 c8bd
00000190: 67fc 7e3d 73d4 f13d 1d16 993c 02a3 f7bc
000001a0: b614 65bd 2ae6 3f3d 53d9 9bbd c5aa 19bd
000001b0: 8156 9fbd 8f79 51bd 3576 c6bb 2a55 d3bd
000001c0: f0fc bb3d fa97 69bd 82d1 78bd 0748 dc3d
000001d0: 63d9 5cbd e16e 82bc bb4d 823d 426d 66bd
000001e0: 3fdb b33d a5f0 883a 779c af3d 7588 773d
000001f0: b32b 7c3c 6c76 33bd 3436 063e 080e c13d
00000200: 01a0 793d 982f f4bd 87c9 c03d b0d9 a7bd
00000210: 74d3 4cbd 42f5 103d ba89 a4bd 8cc4 1b3d
00000220: 30a7 5fbd 90be 813c 5505 b13b 6a9a b2bd
00000230: 4856 a23d ed0a 123d 38a2 823d 0ff5 d6bd
00000240: 978e ba3d 701b 88bd 0a23 abbd 9d12 f43c
00000250: d6b5 aebc e7f4 423c 6411 ccbc b3fb 9d3d
00000260: 4a1d ce3d 9423 88bc 629c e13d b742 de3d
00000270: 1dd0 c2bd 2319 a43d 635d 8cba 985b 54bd
00000280: 8443 cfbd 1193 d1bd a0eb 113d 8535 a2bd
00000290: 1be5 ebbd 5e56 83bd 191b b5bd 6823 83bd
000002a0: 5d15 123d ac31 7fbd df5b afbd 9054 f13c
000002b0: 970f 6abd 91bb 653d 7290 20bd 62eb e7ba
000002c0: def2 513c 1d35 21bd e651 9cbd 5d65 d03d
000002d0: 5a3f 733d 2d8d d6bd 696c 383c dcce d53c
000002e0: 9852 ca3d b6c3 023c e0b3 92bd 521a f5bb
000002f0: 2ee8 853d 6539 ffbc 2924 b73d ffa6 843a
00000300: 1985 c43d b410 7f3d 76fc 7f3c cb60 a93d
00000310: 9482 e13d 8c83 b43d 8c3e b4bd 261f 3ebc
00000320: 8fd1 b3bd 6a0e dd3d 69cf dc3d 04bd d23d
00000330: 3669 133c b0e1 d73d 248d cebd c37a 8dbd
00000340: 035f 263d a841 343d d2e1 db3d 1257 853d
00000350: a0b8 4fbc ae13 9bbd 1f40 b63d ea4e c73c
00000360: 7f64 e73d 6273 e0bd 481c ec3d aafd 05bd
00000370: 4141 bebd d07e 2ebc 7903 d53d 11a5 80bd
00000380: 9901 d03b 2e67 cfbd d1e5 a5bd 654e 07bd
00000390: 26fd b4bc 08b4 d73d bc21 4d3c 0773 413d
000003a0: 3c88 b8bd 63bc e83c d64e d5bd 5280 a93d
000003b0: 2eac 87bd 83f7 d23d 6831 e6bd 95ca a93d
000003c0: fd8e 903d 9d8b 9ebd 3dcf 33bd 1b23 ec3d
000003d0: 9073 19bc 6b0f bbbd 2bb5 883d b827 69bd
000003e0: da3a eabd 645d 9f3d 4beb 95bd 3c26 31bd
000003f0: 1606 6fbd b204 ce3c 804a 9bbd 8079 c73c

lstm.bias_hh_l0 f4 [256]
0.11007992 0.03973542 0.112655066 0.028017513 0.09202449 -0.091148 0.105669975 0.0046038823
0.05693937 -0.07001333 -0.11488333 -0.09682623 -0.024213806 0.054032087 -0.09173503 -0.042272527
-0.08524731 -0.10991027 0.03795718 0.044887662 0.012596178 0.09973382 0.037184022 -0.08520264
-0.028195925 0.067902185 0.049275268 0.022730049 -0.08264052 0.06941515 -0.03485622 -0.032789428
0.034030117 0.074108735 0.041379794 -0.0048468607 0.07960653 0.062446702 -0.06807885 0.05656096
-0.08352091 -0.077314995 -0.06505201 0.10196656 -0.07632567 0.05417706 -0.10053741 0.04481836
-0.09885972 -0.013427822 -0.08912436 -0.092878625 -0.031788655 0.07540027 0.0859445 -0.015894108
-0.008010381 -0.0900079 0.063336454 0.07190104 0.0047041643 0.09274101 0.091250055 -0.01543633
-0.08646774 -0.035880312 -0.03848652 0.008045105 0.07406203 -0.08591812 0.028514458 0.031199154
-0.113811806 0.052301276 -0.05007481 0.05365676 -0.0734129 -0.069351 0.071128786 -0.06694634
0.020197788 -0.005415433 -0.04299508 -0.07862953 -0.04371637 0.11625576 0.012822875 -0.025591344
0.059200704 0.0922089 0.067631595 -0.012965079 -0.11543364 0.045684088 -0.054696877 0.00786133
0.00543645 -0.112859234 -0.082500085 -0.09922468 0.01244739 0.118070506 0.10426008 -0.007370781
-0.067464426 0.06528176 -0.00784632 0.06623969 0.026438383 0.0853267 0.053718276 -0.11496468
0.08319721 0.100490786 0.07598041 0.059562936 -0.015100438 -0.041499015 -0.1122111 0.08248967
0.104819134 0.0814998 -0.03659728 -0.07510296 -0.05916768 -0.051193994 -0.056285527 0.05242385
0.035378907 -0.049026586 -0.0029503417 -0.08020307 -0.08699152 0.104301475 0.11391131 -0.103839256
-0.06346953 -0.120693706 -0.06264188 -0.044748403 0.068051815 -0.031595193 0.11829862 0.016377686
-0.075842395 -0.014658425 0.06373041 -0.103901446 0.09668132 -0.115725555 -0.059169404 -0.037607744
-0.06858162 0.040913146 -0.05943231 -0.016589276 0.0024420647 0.056720298 0.03171814 0.093186125
0.04178255 0.03628798 0.027434723 0.07909828 0.0178564 0.06579848 -0.00907737 0.09000785
-0.04737075 -0.056177184 -0.0043938686 0.07683336 -0.029170541 0.051468626 0.069302134 0.102873385
-0.063252576 0.03368563 0.066259354 -0.061348516 -0.06030051 -0.013775562 0.03888539 0.06449169
0.08909933 0.03541248 -0.12217576 0.0070585003 0.010363812 0.077391386 -0.09655562 0.08458485
-0.05376381 0.09828129 0.02021665 -0.015542673 -0.03859875 -0.05125266 0.07740492 -0.005340739
-0.05777505 0.08539529 -0.09460983 0.006446904 0.0010512428 0.028037366 -0.021537073 -0.09226299
-0.02733667 -0.060403712 -0.010036159 0.0038685075 0.024679717 0.09667519 -0.02402209 -0.099536605
-0.024983965 -0.064199805 0.11445425 0.07148768 -0.092280515 -0.018583354 -0.051550366 0.057716813
0.048136335 0.119142585 -0.063681535 0.056624994 0.0023472446 -0.022193817 -0.027402565 0.016986538
-0.017967863 -0.03139028 0.0703256 0.04129715 0.0052276636 0.0791207 -0.046368513 0.08892958
0.037736014 -0.04208997 0.079438 0.0007165478 0.05381292 0.0019543616 0.114964016 0.0838103
0.09610365 -0.036470175 0.118625276 0.012232716 0.10759545 -0.05286688 0.03593019 -0.004885207
00000000: 9571 e13d 9cc1 223d b3b7 e63d fc84 e53c
00000010: 5677 bc3d cdab babd 8069 d83d 2adc 963b
00000020: 4239 693d 2663 8fbd f447 ebbd d54c c6bd
00000030: 085c c6bc c050 5d3d 93df bbbd f525 2dbd
00000040: 2496 aebd a318 e1bd fd78 1b3d 20dc 373d
00000050: 3360 4e3c 3f41 cc3d 464e 183d b97e aebd
00000060: 24fb e6bc 4d10 8b3d ddd4 493d 5e34 ba3c
00000070: 6f3f a9bd 8829 8e3d 65c5 0ebd 354e 06bd
00000080: 2a63 0b3d 52c6 973d dc7d 293d 6ad2 9ebb
00000090: c008 a33d 1dc8 7f3d ed6c 8bbd 77ac 673d
000000a0: 030d abbd 5357 9ebd fd39 85bd d8d3 d03d
000000b0: a250 9cbd c4e8 5d3d 8fe6 cdbd 7593 373d
000000c0: f776 cabd 5e00 5cbc d586 b6bd 2637 bebd
000000d0: d234 02bd 756b 9a3d ac03 b03d 5c34 82bc
000000e0: f93d 03bc 1056 b8bd 8bb6 813d da40 933d
000000f0: 6425 9a3b 00ef bd3d 4fe1 ba3d a9e8 7cbc
00000100: 0016 b1bd 3cf7 12bd 0ba4 1dbd 9ecf 033c
00000110: d5ad 973d d7f5 afbd 2797 e93c 5e95 ff3c
00000120: 2a16 e9bd dd39 563d 3e1b 4dbd 31c7 5b3d
00000130: 8159 96bd e607 8ebd f8ab 913d 2a1b 89bd
00000140: d575 a53c f273 b1bb 9c1b 30bd 8508 a1bd
00000150: f00f 33bd 8017 ee3d 0917 523c f0a4 d1bc
00000160: 707c 723d 05d8 bc3d 6f82 8a3d 7c6b 54bc
00000170: 7968 ecbd 3d1f 3b3d d509 60bd cfcc 003c
00000180: 3f24 b23b be22 e7bd cef5 a8bd 4f36 cbbd
00000190: 23f0 4b3c f3ce f13d 4f86 d53d 9886 f1bb
000001a0: ca2a 8abd 72b2 853d da8d 00bc ada8 873d
000001b0: 4f95 d83c c4bf ae3d b207 5c3d 9a72 ebbd
000001c0: 4d63 aa3d 1dce cd3d 9e9b 9b3d 44f8 733d
000001d0: d467 77bc dffa 29bd efce e5bd 58f0 a83d
000001e0: 6aab d63d 5ee9 a63d 08e7 15bd 95cf 99bd
000001f0: cf59 72bd cbb0 51bd a78b 66bd 64ba 563d
00000200: 79e9 103d 1ad0 48bd 855a 41bb 8241 a4bd
00000210: 9c28 b2bd 039c d53d 554a e93d ada9 d4bd
00000220: 50fc 81bd 432e f7bd 634a 80bd 1a4a 37bd
00000230: c05e 8b3d f669 01bd 8c46 f23d 7f2a 863c
00000240: 4253 9bbd e429 70bc 1785 823d 48ca d4bd
00000250: db00 c63d 8501 edbd 9e5b 72bd 940a 1abd
00000260: 8574 8cbd 8b94 273d 4b6f 73bd 3ce6 87bc
00000270: 0c0b 203b 8b53 683d e1ea 013d 5ed8 be3d
00000280: 2e24 2b3d b4a2 143d c9be e03c 47fe a13d
00000290: 9647 923c 5ac1 863d 40b9 14bc 0956 b83d
000002a0: d507 42bd 0c1a 66bd 71fa 8fbb cf5a 9d3d
000002b0: 0ff7 eebc c4d0 523d 47ee 8d3d 48af d23d
000002c0: 918a 81bd f1f9 093d fcb2 873d 9548 7bbd
000002d0: abfd 76bd e5b2 61bc 4946 1f3d 3814 843d
000002e0: b679 b63d ad0c 113d 4937 fabd fe4a e73b
000002f0: facc 293c 607f 9e3d f4be c5bd d23a ad3d
00000300: 7137 5cbd b347 c93d 639d a53c b2a6 7ebc
00000310: b919 1ebd 4fee 51bd 7886 9e3d 5e01 afbb
00000320: 88a5 6cbd bae3 ae3d ccc2 c1bd 8d40 d33b
00000330: dbc9 893a 9eae e53c 846e b0bc 61f4 bcbd
00000340: 27f1 dfbc e269 77bd b46e 24bc c986 7d3b
00000350: 1e2d ca3c a4fd c53d f9c9 c4bc d9d9 cbbd
00000360: 2cab ccbc 307b 83bd fd66 ea3d 2268 923d
00000370: 91fd bcbd 1e3c 98bc 7a26 53bd 7768 6c3d
00000380: 9b2a 453d 0701 f43d 776b 82bd 9cef 673d
00000390: 3bd4 193b cfcf b5bc 587b e0bc 5a27 8b3c
000003a0: 5731 93bc 1893 00bd de06 903d 3327 293d
000003b0: d24c ab3b 090a a23d e9ec 3dbd b620 b63d
000003c0: 1491 1a3d 8866 2cbd 64b0 a23d b5d6 3b3a
000003d0: f06a 5c3d bf14 003b 4172 eb3d bca4 ab3d
000003e0: fed1 c43d c061 15bd cff1 f23d bb6b 483c
000003f0: 015b dc3d f18a 58bd 892b 133d 1614 a0bb

fc.weight f4 [64, 64]
0.078447394 -0.07408137 0.08044726 -0.021413054 0.07338354 0.06868777 -0.031981762 -0.0033898018
0.094708934 0.1092848 0.07116521 0.09759412 -0.086857766 -0.12610869 0.018577691 0.10146887
-0.108682856 0.022589551 0.029754141 0.07125896 0.021804871 0.030784288 -0.105503395 -0.04560214
0.027121715 0.117643625 -0.09237468 -0.098707944 0.044653058 -0.062351298 0.06689282 -0.104017034
-0.124378316 -0.031964596 0.031103913 -0.010071257 0.04548982 0.11180925 -0.035897184 0.10238128
0.056356616 -0.10979364 -0.10906522 0.08796467 -0.06533206 -0.027071478 0.036434602 0.106289275
0.00201757 0.08899374 0.03934876 0.025202932 -0.06537192 -0.06134351 -0.11688462 0.025638282
0.073693916 0.010890355 -0.04431959 0.0668335 0.12445997 -0.0009619716 -0.022470977 -0.056540713
-0.09675253 0.04860161 -0.106865644 -0.052397273 -0.010951824 -0.119245894 0.014534407 -0.035081875
0.022103442 0.09338896 -0.047740012 0.04345931 -0.05553441 -0.05529008 -0.04704035 -0.0007220815
-0.09228786 -0.051433124 -0.01977731 0.007512016 0.087123804 0.09410667 0.1004286 -0.11942144
0.01599607 0.12462013 -0.09556439 0.012396299 0.09381621 0.06209598 0.045328915 -0.12611762
-0.09718642 0.043028526 0.12242102 -0.057744063 -0.0059012803 0.018767184 -0.025758805 0.12898648
0.11582706 0.061486114 0.06596267 -0.11731549 0.06266561 -0.10706392 -0.0024030793 0.07013569
0.007928987 0.04361837 0.105871156 0.05563108 -0.064074636 0.10644502 0.02485897 -0.039177544
-0.054219212 -0.08679558 0.037001114 0.06986451 -0.06491928 -0.0077244025 0.129266 0.10222368
0.057828028 -0.09462012 -0.09237478 -0.03877121 -0.099445894 0.09050247 -0.00058049295 0.014250185
0.020184455 -0.08679183 -0.05799182 -0.10492627 0.03537636 -0.012890114 -0.06596619 0.088417456
0.07532276 0.0027667934 -0.12298602 0.08716478 -0.051082134 0.09155312 -0.060869742 -0.01643849
0.036238253 -0.0067404523 0.0071712458 -0.004148402 0.02434172 -0.02467867 -0.108482786 0.08332521
-0.088242576 0.042695146 0.11416358 0.030106036 0.09248472 -0.0073678354 0.033190623 0.07215837
0.034336887 -0.08324524 -0.08268601 0.017099634 -0.04387178 -0.120801866 -0.053609446 0.10115385
0.027725907 -0.033830374 0.079287976 0.09636965 -0.076643996 -0.07489056 0.093472175 -0.008313734
0.031784583 -0.034303326 -0.023607213 0.08298062 0.08587132 0.10066159 0.0074500307 0.06338394
0.033780903 0.069622435 -0.10614802 0.0021806674 -0.11999919 -0.100889415 0.031860773 0.015993
-0.07997709 -0.03854877 -0.0879198 -0.049124245 0.0479681 0.057676796 0.05415314 -0.051878378
-0.07664501 -0.026697801 -0.043156985 0.035053156 0.07141473 -0.096628234 0.096099086 -0.0976285
0.1172529 -0.11366121 0.06717792 0.048829116 0.121965565 0.0637015 0.044349007 0.10728697
0.0008563478 -0.08808768 -0.067735225 0.010016876 0.08618341 -0.011607629 -0.08164376 -0.034543518
0.035892244 -0.01390708 -0.051303763 -0.011841347 -0.07595096 -0.021455409 -0.09017442 0.08759393
0.0064235963 -0.064678244 0.07089482 0.11146815 0.056751993 -0.07326659 0.09223569 -0.05479875
-0.12078899 -0.109484814 0.06910616 -0.07252936 -0.10592394 -0.018750751 -0.0010101883 -0.06556409
00000000: 07a9 a03d f9b7 97bd 88c1 a43d 6e6a afbc
00000010: 1c4a 963d 2cac 8c3d 4fff 02bd 7027 5ebb
00000020: c2f6 c13d b6d0 df3d 11bf 913d 6ddf c73d
00000030: 7ce2 b1bd a322 01be 3e30 983c e9ce cf3d
00000040: 1e95 debd b90d b93c f5be f33c 38f0 913d
00000050: 21a0 b23c 552f fc3c 2a12 d8bd 4fc9 3abd
00000060: 5c2e de3c 24ef f03d f02e bdbd 6427 cabd
00000070: 20e6 363d 1364 7fbd 1aff 883d e206 d5bd
00000080: 0fba febd 4fed 02bd a2cd fe3c ea01 25bc
00000090: 8953 3a3d 40fc e43d ed08 13bd 47ad d13d
000000a0: 32d6 663d 7ddb e0bd 965d dfbd d226 b43d
000000b0: d1cc 85bd 01c5 ddbc 733c 153d 31ae d93d
000000c0: 3539 043b 5a42 b63d 2a2c 213d 6176 ce3c
000000d0: b7e1 85bd 5543 7bbd 3461 efbd 6007 d23c
000000e0: d6ec 963d 766d 323c 7588 35bd 01e0 883d
000000f0: dee4 fe3d d22c 7cba 0e15 b8bc 3c97 67bd
00000100: 3126 c6bd 7b12 473d 60dc dabd 869e 56bd
00000110: 476f 33bc 3137 f4bd b921 6e3c 03b2 0fbd
00000120: 4712 b53c b642 bf3d 088b 43bd 6402 323d
00000130: 0d78 63bd da77 62bd 62ad 40bd 124a 3dba
00000140: 6b01 bdbd 8aab 52bd 0604 a2bc 5c27 f63b
00000150: f76d b23d ffba c03d 83ad cd3d 3a93 f4bd
00000160: 310a 833c d738 ff3d 43b7 c3bd d919 4b3c
00000170: b722 c03d 5b58 7e3d d0aa 393d fa24 01be
00000180: ac09 c7bd ae3e 303d dfb7 fa3d 0a85 6cbd
00000190: 875f c1bb a3bd 993c 2104 d3bc 0815 043e
000001a0: bd36 ed3d ddd8 7b3d 7017 873d 1b43 f0bd
000001b0: d456 803d 5444 dbbd fb7c 1dbb 4da3 8f3d
000001c0: 95e8 013c 2da9 323d fad2 d83d 6add 633d
000001d0: 9039 83bd d9ff d93d 0aa5 cb3c a278 20bd
000001e0: f714 5ebd e2c1 b1bd 7b8e 173d 2015 8f3d
000001f0: 66f4 84bd fc1c fdbb 4e5e 043e a65a d13d
00000200: 15dd 6c3d 32c8 c1bd fd2e bdbd 8fce 1ebd
00000210: 4aaa cbbd 5c59 b93d 392c 18ba 9c79 693c
00000220: df59 a53c eabf b1bd d588 6dbd 96e3 d6bd
00000230: cde6 103d 0f31 53bc 4819 87bd 3614 b53d
00000240: d242 9a3d 1753 353b 18e0 fbbd 7383 b23d
00000250: 803b 51bd 3480 bb3d 8d52 79bd 03aa 86bc
00000260: 906e 143d 03df dcbb c5fc ea3b 51ef 87bb
00000270: 4968 c73c ec2a cabc 392c debd 68a6 aa3d
00000280: 86b8 b4bd 1be1 2e3d 98ce e93d efa0 f63c
00000290: a168 bd3d e26d f1bb e4f2 073d c4c7 933d
000002a0: d6a4 0c3d 7b7c aabd 4857 a9bd 8814 8c3c
000002b0: e5b2 33bd f866 f7bd 9495 5bbd c029 cf3d
000002c0: 7121 e33c b891 0abd bc61 a23d 735d c53d
000002d0: 87f7 9cbd 3960 99bd 576e bf3d 5436 08bc
000002e0: 8d30 023d a581 0cbd ea63 c1bc bef1 a93d
000002f0: 4ddd af3d aa27 ce3d 631f f43b 70cf 813d
00000300: d85d 0a3d 3596 8e3d 2264 d9bd 87e9 0e3b
00000310: 23c2 f5bd 1c9f cebd 7180 023d c003 833c
00000320: 07cb a3bd 51e5 1dbd 4c0f b4bd 8136 49bd
00000330: 337a 443d 813e 6c3d afcf 5d3d 6c7e 54bd
00000340: 0ff8 9cbd 59b5 dabc 61c5 30bd e693 0f3d
00000350: e341 923d 06e5 c5bd 99cf c43d 73f1 c7bd
00000360: 4a22 f03d 35c7 e8bd 9494 893d 0a01 483d
00000370: 15c9 f93d ef75 823d 4ea7 353d 45b9 db3d
00000380: 877c 603a 5067 b4bd c4b8 8abd d31d 243c
00000390: ed80 b03d ed2d 3ebc d834 a7bd 817d 0dbd
000003a0: bf03 133d 85da 63bc e523 52bd 3602 42bc
000003b0: 2d8c 9bbd 41c3 afbc 5ead b8bd 7264 b33d
000003c0: 087d d23b 0776 84bd 4e31 913d 6a49 e43d
000003d0: c774 683d cb0c 96bd 11e6 bc3d a774 60bd
000003e0: 3860 f7bd 9339 e0bd 8887 8d3d 468a 94bd
000003f0: a7ee d8bd 2d9b 99bc 4b68 84ba 7746 86bd

fc.bias f4 [64]
0.10149032 -0.10311752 0.123762 -0.071057275 0.07694266 -0.121416524 0.1030487 0.069001965
-0.007535299 0.08651418 -0.07122334 0.0032687173 0.057289716 -0.020842763 -0.021386186 0.12758785
0.057641152 0.098505445 -0.065392725 0.114517055 0.09537784 -0.021786809 0.0098723965 0.036217235
-0.027948141 0.07934433 -0.038159218 0.068817 0.122659296 -0.08575156 -0.00034027232 0.075117655
-0.04166254 -0.07291322 0.06413527 0.054879457 -0.092636384 -0.06308248 0.030412229 -0.093175314
-0.08144612 -0.04644671 0.039572902 0.0845334 0.08510049 -0.10361648 -0.08274401 0.020955307
0.019561796 0.07294842 0.07771872 -0.007222682 0.0043241098 -0.022015218 -0.041919403 -0.12238124
0.025319794 -0.09537207 -0.11218325 -0.11885892 0.118092716 -0.05625704 -0.048042428 0.11811746
00000000: 28da cf3d 472f d3bd ee76 fd3d 7a86 91bd
00000010: 1d94 9d3d 3aa9 f8bd 320b d33d e750 8d3d
00000020: abea f6bb 592e b13d 8bdd 91bd fa37 563b
00000030: 9fa8 6a3d 71be aabc 1532 afbc 64a6 023e
00000040: 2119 6c3d 39bd c93d 9fec 85bd eb87 ea3d
00000050: 7555 c33d 407a b2bc d5bf 213c 8658 143d
00000060: 80f3 e4bc 487f a23d d74c 1cbd edef 8c3d
00000070: cc34 fb3d 849e afbd 9466 b2b9 49d7 993d
00000080: 57a6 2abd 8753 95bd 5a59 833d 48c9 603d
00000090: 25b8 bdbd 6331 81bd 1123 f93c b3d2 bebd
000000a0: 39cd a6bd e83e 3ebd 3217 223d d91f ad3d
000000b0: 2a49 ae3d e134 d4bd b175 a9bd 77aa ab3c
000000c0: 0f40 a03c fb65 953d fe2a 9f3d 3fac ecbb
000000d0: 43b1 8d3b 4259 b4bc aeb3 2bbd 04a3 fabd
000000e0: 756b cf3c 6f52 c3bd 55c0 e5bd 4e6c f3bd
000000f0: 98da f13d c86d 66bd 23c8 44bd 91e7 f13d
