weights/best_temperature_encoder.pth (torch, 19110 bytes, 10 tensors)

lstm.weight_ih_l0 f4 [64, 3]
00000000: 3e1f a03e d966 933e 3f39 063e d355 133d
00000010: 534e 8b3c ae7b 2fbe a965 2bbe e9f0 5c3e
00000020: 7df5 83bc b4e5 0dbe de36 dbbc 66d0 553d
00000030: c636 9a3e 9251 413e 4098 b23e 6133 ac3e
00000040: 42f3 773d e7e4 e2bc 183d a03e 4a86 6d3e
00000050: 3ab1 753d cef0 803e 9e63 3d3d dc5b 3bbe
00000060: bc38 e03d e5d5 8a3e 8e0c 833e 0213 683e
00000070: a4e3 ed3d bb4b 92bd 0a56 ccbd 1039 3d3e
00000080: dab8 a43d 0f11 69be b977 c03c 0615 37be
00000090: b651 74be 0a20 603e 8a73 143e 5541 fbbd
000000a0: b059 923d 2efc 983e 1140 d13d 0995 853e
000000b0: 41b2 67be 9bca b83d 2fe2 133e ea50 843e
000000c0: 1006 1d3e 382f 063e 64a2 c53d 6f5c 07bd
000000d0: 112e 133e d116 5d3e 7048 aebd d71c b43d
000000e0: b4ec 6f3e 73a1 6bbc 54b0 7f3e 3c28 e53d
000000f0: 24c1 c23c a3b2 dc3d 5e78 a23c c184 5f3d
00000100: 61a4 f43d a9ab 3bbd dfa2 57bc 71a6 5d3d
00000110: a5a1 b53d 1a64 47be d7df 46be c211 3f3e
00000120: 04af 963d ef47 5c3c 2bbe 833e e52d 5c3e
00000130: 2ee0 df3d 216b 8c3e e2a4 4b3e 799f 373e
00000140: 08b0 bbbd 9642 4e3e e844 773e f759 4f3e
00000150: 2c9e a8bd 7996 18be 65fc ca3d f8db e03d
00000160: ce6d b13e 45b7 813e 4cf2 edbb 0856 003e
00000170: d1da 383e c861 493e e561 cf3d ab0c 1c3e
00000180: 0205 7fbd 0cc4 d93d 3e20 7c3e 9c8c 243c
00000190: f4d4 3f3d 4d73 6abb c1dd 30be d42e 6cbb
000001a0: a098 0e3e ea1e 10bd 051a ce3d b890 38be
000001b0: 21eb 553e c946 643e 9008 16bd 4979 2ebe
000001c0: 2b32 9c3d 7798 96be bb5d 8c3e d935 f6bd
000001d0: 30b6 563e 793f ae3d f2e5 5a3d 8d5c 1abe
000001e0: 3f30 e13d d402 46bd 3bf0 663e 0711 d5bd
000001f0: fea4 57be 4b46 80be 72c4 553e 261d f43a
00000200: 74cb e9bd 0623 603e 4d07 243c 5505 c4bd
00000210: 7f61 c03d 9d86 843e c8c7 3ebe faee 22be
00000220: 86f3 b93c 4ce1 1cbe 75cb 823d 43e5 0abe
00000230: 15b8 1e3d 9555 85be f255 6e3c 2fef 3a3e
00000240: 4acc f23d 4eff bcbc f3fc 973e 9414 c83d
00000250: 9519 ef3b 57e9 9d3b 10cd 223e fb0c e23d
00000260: d9ea 08bc 399b 16be cc96 253e ebfd ab3c
00000270: 1e9b ecbd bbb5 043e 0e94 433d b967 573e
00000280: 3a8b 3f3e 86d2 7e3e 9303 bbbc c718 733e
00000290: 2ee1 903e defc 6b3e 2840 58bd 8689 afbd
000002a0: c79d 72bd 3115 693e 1ea0 963e 42e9 683e
000002b0: ddac 663e 4959 853e 8965 05be a506 ae3d
000002c0: c5d2 e9bc ad7d 6c3e ca34 11be 49b7 2abe
000002d0: a898 19be 9fd8 3cbe 0286 3a3e f9fa 9dbd
000002e0: ed03 e8bd 1cd4 a83e df55 13be 7b91 ebbd
000002f0: 284e 30be ef9c 1a3e 8920 863d 68ef 233d
0.31273836 0.28789404 0.13107775 0.03597052 0.017005121 -0.17137024 -0.16737999 0.21576275
-0.016108269 -0.13857156 -0.026759561 0.052200697 0.30119914 0.18878773 0.34881783 0.3363295
0.060534723 -0.02769704 0.3129661 0.23195758 0.05998347 0.2518372 0.04623758 -0.1829676
0.10948321 0.27116314 0.25595516 0.22663501 0.11615685 -0.07143351 -0.09977348 0.18478799
0.0804307 -0.22760414 0.023494588 -0.17879114 -0.23859295 0.21887222 0.144972 -0.122683205
0.07146013 0.29879898 0.10217298 0.26090267 -0.22626592 0.09023019 0.14441751 0.25842983
0.15334344 0.1310395 0.09650114 -0.033047136 0.14373042 0.21590735 -0.0850991 0.08794563
0.23430139 -0.014381754 0.24969608 0.11189315 0.023773737 0.1077626 0.019832786 0.054569963
0.11945415 -0.045818005 -0.01316139 0.05411381 0.08868722 -0.1947178 -0.19421326 0.18659118
0.073576 0.013444885 0.25731024 0.21501882 0.10931431 0.27425483 0.19887117 0.17931928
-0.09164435 0.20142588 0.2414738 0.20249163 -0.08233294 -0.14901151 0.09911422 0.10979456
0.34654087 0.25335136 -0.00726155 0.12532818 0.18052222 0.19666207 0.10126094 0.15239207
-0.062260635 0.10633096 0.24621674 0.0100432895 0.046833947 -0.003577429 -0.17272092 -0.0036038654
0.1392541 -0.035185732 0.100635566 -0.18023956 0.20890476 0.22292627 -0.03662926 -0.17038454
0.07626756 -0.29413196 0.2741526 -0.120219894 0.20967937 0.085082 0.05344195 -0.15074368
0.1099553 -0.04834254 0.22552578 -0.10403638 -0.21059033 -0.2505363 0.20875719 0.001862441
-0.11415759 0.2188836 0.010011506 -0.095713295 0.09393596 0.25883952 -0.18630898 -0.15911475
0.022699129 -0.15320319 0.063864626 -0.13564019 0.038749773 -0.26041856 0.014546858 0.18255304
0.11855371 -0.023070958 0.29685172 0.0976955 0.007296751 0.004819076 0.15898538 0.11037632
-0.008356773 -0.1470765 0.16170806 0.020995101 -0.11553024 0.1295995 0.047748618 0.21035661
0.18705454 0.24884996 -0.022828853 0.2373992 0.28296798 0.2304568 -0.05279556 -0.085711524
-0.0592325 0.2276199 0.29419035 0.22745231 0.2252688 0.26044682 -0.13027014 0.08497361
-0.028542886 0.23094817 -0.14180294 -0.1667148 -0.1499964 -0.1844201 0.18215182 -0.07713885
-0.11328874 0.32974327 -0.14388226 -0.115023576 -0.17217314 0.15098928 0.06549174 0.040023237

lstm.weight_hh_l0 f4 [64, 16]
00000000: 93b3 4c3e 8f29 e63d 7e14 91bd 70cd 3d3d
00000010: 0fd2 b83e 7d74 a8be 6427 943e aac8 00bd
00000020: 87ff 273e 1d1a 81bb 2f56 823d 8fc7 f33d
00000030: 67d0 023e 2e8b 86be d7ce 65be 7d9e 34bd
00000040: 28df 59be 7aef 20bd b406 3c3d ce23 2d3d
00000050: d8b0 8dbe c994 2b3d e577 0b3e 5cfc 553e
00000060: dcbf 2dbe c8c9 283e 943c efbd c4ff 183d
00000070: 0b6c 333d 90c9 7dbd 5cdd 3c3e 94c3 ca3d
00000080: db1a 943e d76a 00be 5a34 8b3d 7c76 74be
00000090: 5b14 17be 9d8b 4dbe 79a9 a13e 11cb a8be
000000a0: b1cf 833b 2978 8d3d e9be 423d 553b 333e
000000b0: 1929 263e b23c 58bd 4a40 8cbe 65e5 90be
000000c0: f89e 18bd 2fec 923d 7487 93be abba 453c
000000d0: c837 743e 729b 8bbe 5f40 f33d cf5f 1b3e
000000e0: 8a76 93bd 9272 67be b2b2 0b3e 3c9a e33a
000000f0: 4c40 0cbe ce7b 393d 6afe f73d e305 073d
00000100: a233 433e b240 89be 3236 553b 5d80 2ebe
00000110: dfba 42be 2fe7 63be d883 623e b25e a9be
00000120: 3ef2 c13e b3b5 50be 2d77 cfbd a287 67be
00000130: e9b7 a83d b35e a3be a7c5 28be c2ad 72be
00000140: f46e 8a3e f049 853d 13e5 4ebe 28da 98bc
00000150: 1001 6cbe e5db 2dbc 6414 db3e 9559 54be
00000160: b3e5 c73e c642 91be 4c13 95bd e3f2 57be
00000170: 4a63 4d3e 5509 08be b160 363c 4941 c3be
00000180: 3bdb 173d c287 1b3e dfdd 78be 2c69 f23b
00000190: b384 b03d 87ec 9abe 7b88 f4bb a91c 543e
000001a0: 1c2a 763e 3510 64be 4434 443e 9a99 5ebe
000001b0: bccc 963d 4d5c 8abe bf8e 803c d428 0cbe
000001c0: a138 a03d 5bd2 323e f2b8 e43c 49e1 223e
000001d0: a538 dfbc d925 3fbe 8041 fcbd f120 c2bd
000001e0: 8146 023e 68d4 333e ac45 6dbe 4cbf 6fbe
000001f0: a457 ad3c c660 babd 4a2a 42bd 1a7c 003e
00000200: 7f83 b63e 855f da3d fa5f b93b fd3c 183e
00000210: 8e17 533e 485e 443d 479f e3bd b9fb 5a3d
00000220: 579d 933d 3b82 1bbe 5692 a8bd 8384 5b3b
00000230: 48be 5c3e 5bb1 6abe 3f5d 1fbd e004 48bd
00000240: 2185 733e 8ba7 6dbe 4301 523e c8a8 b53d
00000250: 24a2 2c3b af32 893d d7ab 943e 5a5a f3bd
00000260: a9db ccbd 20ce 5e3d 1af3 f9bc 3fdb c73c
00000270: 53af a63c 02da 363e ab6f 10bd b18b 83be
00000280: 1364 6f3d ce69 1c3e d1db 57be 3fec 4a3c
00000290: 31b2 193e 3cba 213e 7f77 29be 8196 ee3d
000002a0: b044 3cbd cae0 bdbd 1374 49be 6ea3 40be
000002b0: d34b e03d 8481 843d 07b2 e9bd 1d16 17bd
000002c0: 7f75 5cbe 63a2 a83d 5f0d 9bbe b156 ff3d
000002d0: 28f1 313e 91ba 593e 1c71 3e3c 3d80 503d
000002e0: 407e 1a3e ec38 c6bd 4395 2e3e b9e3 053e
000002f0: 0911 9fbd 6285 c9bc 3490 363e 804b 5dbe
00000300: b3e1 133d d3fe 63be b8b3 d93d 5689 89be
00000310: 1168 80be 381e 583e 488c 7cbe 9069 4cbe
00000320: b8d8 8dbd f2f8 b3bd 5739 c53d 9b13 6cbe
00000330: db64 163e faea 9e3d 6000 88be 249b 7dbe
00000340: caf4 1b3e 1e98 353e 2057 c13d 87de 6d3d
00000350: bc89 2d3e c623 053c 6a97 873e e584 7bbe
00000360: d6b9 4c3e f67e 3dbe 9875 3bbe 1e18 8cbd
00000370: 0e3f 98bc f34c e4bb b631 b83d 441e 373e
00000380: 1fc6 61be 7f29 5cbe 6dd2 86be 572a 4f3d
00000390: 4935 65be 575b 96bd 67c5 64bd ec47 943c
000003a0: 2d4a 013e 4e57 83be 4af9 15bd 0c70 97bd
000003b0: 2e8e 613e 6b50 51be 34d9 3f3e 67d4 653c
000003c0: e9cf c13b 76a0 323d 7016 14be 7103 cb3d
000003d0: e895 473e cf5f 7e3d 5f02 8fbd 8eec 10be
000003e0: 3494 2d3e f0af 833d 43bf cfbd 1a45 06be
000003f0: b3a8 c63c eb1e 0a3e 0097 533d 17ff 303e
0.19990377 0.112383954 -0.07083987 0.0463385 0.36097762 -0.32901374 0.28936303 -0.03144137
0.1640607 -0.0039398805 0.063640945 0.11903297 0.12774812 -0.2627806 -0.22442184 -0.04409646
-0.21276534 -0.039290883 0.04590483 0.042270474 -0.27673984 0.04188994 0.13619955 0.20897049
-0.1696772 0.16483223 -0.11681476 0.037353292 0.04380421 -0.061959803 0.18443817 0.09900585
0.2892674 -0.12540756 0.06797095 -0.23873323 -0.14753859 -0.2007279 0.3157461 -0.32967427
0.0040225615 0.06907684 0.047545347 0.17503102 0.16226615 -0.05279226 -0.273928 -0.28300014
-0.03726098 0.07173955 -0.2881428 0.012068431 0.23849404 -0.27267033 0.11877512 0.15173267
-0.07200344 -0.22602299 0.13642386 0.0017364691 -0.13696402 0.045284085 0.121090725 0.0329646
0.19062665 -0.2680717 0.0032533524 -0.17041154 -0.19016598 -0.22256158 0.22120607 -0.3308006
0.3788013 -0.20381813 -0.10130153 -0.22610334 0.08238203 -0.31908187 -0.16481648 -0.23699096
0.27037776 0.06508243 -0.20204572 -0.018658713 -0.2304728 -0.010611509 0.42788994 -0.20737298
0.39042434 -0.28371257 -0.07279071 -0.21088748 0.20057407 -0.1328481 0.011131451 -0.38135746
0.03707431 0.15188506 -0.24303387 0.0073977914 0.0861906 -0.3025858 -0.007462559 0.20714058
0.24039501 -0.22271807 0.19160563 -0.21738282 0.07363269 -0.27023545 0.015693067 -0.1368745
0.07823301 0.17463057 0.02792022 0.15906252 -0.02724869 -0.18666781 -0.12317181 -0.09478939
0.12722208 0.17561495 -0.23171109 -0.23412818 0.021159954 -0.09100489 -0.04740361 0.12547341
0.356472 0.1066275 0.0056571933 0.14867015 0.20614454 0.047941476 -0.11114364 0.053462718
0.072077446 -0.15186398 -0.08231036 0.0033495731 0.21556962 -0.22919218 -0.038907286 -0.048832774
0.23781253 -0.23208444 0.20508294 0.08870083 0.002634176 0.0669912 0.29037353 -0.118824676
-0.10002834 0.054395795 -0.030511428 0.024396537 0.020347273 0.17856601 -0.035262745 -0.25692514
0.058445048 0.15274736 -0.21079947 0.012385427 0.15009381 0.15793699 -0.1654949 0.116498
-0.045963943 -0.09271391 -0.19673185 -0.18812343 0.10951962 0.06470016 -0.11410909 -0.036886323
-0.21529196 0.08234098 -0.3028364 0.12467707 0.1737715 0.21262576 0.011623647 0.050903548
0.15087223 -0.09678826 0.17049126 0.1307515 -0.07766921 -0.024599735 0.17828447 -0.21610832
0.036103915 -0.22265176 0.10629982 -0.26862592 -0.25079396 0.21105278 -0.24662888 -0.19962144
-0.069261014 -0.08787717 0.09630077 -0.23054354 0.14686911 0.07759662 -0.26562786 -0.24766213
0.15230098 0.1773381 0.09440446 0.058073547 0.16947073 0.008126205 0.26482707 -0.24562414
0.19992766 -0.18505463 -0.18306577 -0.068405375 -0.018584754 -0.006967181 0.089938566 0.17882639
-0.22048233 -0.21500205 -0.26332417 0.050577488 -0.22383608 -0.073416404 -0.05585232 0.018100701
0.12625952 -0.25652546 -0.036614694 -0.07394418 0.22026893 -0.20440833 0.187352 0.014027691
0.0059146774 0.04361006 -0.14461684 0.09912766 0.19490778 0.06210309 -0.06982874 -0.14152738
0.16951066 0.06430042 -0.10143902 -0.13112298 0.024250364 0.13488357 0.051657677 0.17284809

lstm.bias_ih_l0 f4 [64]
00000000: a9f8 9dbc b9a1 5c3d 223d 6e3e 2690 e23d
00000010: aa3c 943e 9524 8b3d 9373 553e c4a7 47be
00000020: c077 753e 58bc 853d 4d8b 56bd 5bc2 80bd
00000030: bc16 24be dc92 8e3e 2421 b0b9 5365 823e
00000040: 2ef7 5a3e fce5 303e e763 8f3c bbf6 7cbd
00000050: 0031 493c 95e7 b23e 05ce 123e 4980 713e
00000060: a5f6 6e3e 22bf 203d d973 17bd 7651 153e
00000070: a338 823e 0bd3 e6bd c83e 053e fdd9 e2bd
00000080: b674 6c3e 67b6 2abe f69c 56bd 3663 58be
00000090: 2d4b 80be 0811 263e 0b2d cebd ebae 4abe
000000a0: 3cb0 febd 18d7 833e fb2d 86be cd67 82be
000000b0: 3146 653e 3c41 ab3c 82ad 83bd 8107 25be
000000c0: db3f cc3d 2f1f 0fbe 71a1 ea3d 17ad 4ebd
000000d0: 1393 5f3c bb18 8ebd acd1 bcbd 4dc1 8b3d
000000e0: 0c40 71bc 32a2 e73d 3ad8 47bd 4cb7 073e
000000f0: 0f81 d33c 277b d63d 0d27 37be bdbe b9bd
-0.01928361 0.05386517 0.23265508 0.110626504 0.28952533 0.06794087 0.2084487 -0.19497591
0.23971462 0.06530064 -0.05237894 -0.0628707 -0.16024297 0.2784642 -0.00033594028 0.2546793
0.21383354 0.17275232 0.017503692 -0.061758738 0.012279749 0.34942308 0.14336403 0.23584093
0.23336275 0.03924478 -0.036975715 0.14581856 0.25433835 -0.11270722 0.1301223 -0.11076734
0.23091397 -0.16671143 -0.052395783 -0.21131596 -0.25057355 0.16217434 -0.10067185 -0.19793288
-0.12435958 0.2575004 -0.26206955 -0.2546982 0.22390057 0.02090513 -0.06429578 -0.16116144
0.09973117 -0.1397674 0.11456574 -0.05045804 0.013645905 -0.06938311 -0.09219679 0.068239786
-0.014724743 0.11310233 -0.048790194 0.13253516 0.025818376 0.10472708 -0.1788599 -0.090695836

lstm.bias_hh_l0 f4 [64]
00000000: 3bdc 9a3d 08af ef3d 2c57 a7bc 8cfd 323e
00000010: 037c c7bd 767b a03e 7705 ddbd 06fd 4ebe
00000020: ab6e c3bc 17cd 7fbc 8c2b 323c 25f7 ebbc
00000030: cce6 3cbe b91c e83d 57cb 513e 173e 66be
00000040: 98ab 1fbe 97ac 1e3e 54e0 cfba 3c07 8b3e
00000050: b60f 383e e998 d3bd ff80 5abd 88d0 e4bd
00000060: 1435 073e a6fb 57be 1a42 96bd 74dc bdbc
00000070: c698 48be c3b9 913e 34c9 973e 2635 c53d
00000080: a21d 70be 8725 08be a1db 9ebe 57c7 22bd
00000090: d167 58be b6e3 063d 4167 0d3e ee8c 7fbe
000000a0: 8c99 c93d ffda 55be 77d6 febc b44f 84be
000000b0: 48a4 443d 5213 0b3d ee5a 893c 946d c5bc
000000c0: 4658 e73c d797 3b3e aee6 2a3e a71a 813e
000000d0: 6fb8 213e 6d1f 7e3c 8c3d 69bd 6306 123e
000000e0: 7b03 ddbd 6bb0 abba 91e7 a3bc b7e3 133e
000000f0: 4b12 aabd ba7e 7c3d 643e 353d fd61 cfbd
0.07561537 0.117033064 -0.020427309 0.17479533 -0.0974045 0.31344193 -0.10792058 -0.20213708
-0.023856482 -0.015612862 0.01087464 -0.028804371 -0.18447417 0.113336034 0.20487724 -0.22484623
-0.15592802 0.15495525 -0.0015859702 0.27153957 0.17974743 -0.103319 -0.053345677 -0.11172587
0.13203841 -0.2109209 -0.073368266 -0.02317641 -0.19589528 0.28462037 0.29645693 0.09629278
-0.23448804 -0.13295566 -0.3102694 -0.039740887 -0.21133353 0.032932006 0.1380892 -0.24956104
0.0984374 -0.20884322 -0.031108124 -0.2584206 0.048008233 0.033953972 0.016766991 -0.024100102
0.028240334 0.18319641 0.1668956 0.25215647 0.15793012 0.015510422 -0.05694346 0.14260249
-0.107916795 -0.0013098841 -0.02000788 0.14442335 -0.0830427 0.061644293 0.044248953 -0.10126112

lstm.weight_ih_l1 f4 [64, 16]
00000000: 0467 063e f961 cdbd d877 0a3e a819 afbd
00000010: d09c a43e d234 abbc 072d 6b3e 8dba f7bc
00000020: c978 6fbd 153f 6fbe 0a36 823e 2472 353e
00000030: f943 1bbe f50c 54be 2f15 1e3e 0b49 8c3c
00000040: 1975 673e 58ff a7bd cf5c 2bbe adae 4dbe
00000050: 829b 36be 105f 16bd 2baa 8e3d 1ed1 bebd
00000060: 8ca9 003d 533f 9ebd 5d45 c93d e47c a1bd
00000070: e677 3ebe d6da 8a3d a6d4 18bd 3808 fb3d
00000080: c40c b2bd 3637 e23d 2dcf 0abe 8527 28be
00000090: cfbc 48bd cc0b 6ebe 27d2 dbbb 6160 b13d
000000a0: ad1f a43e 286d edbd 1b17 dc3d b373 e23a
000000b0: fdaf c1bd f6b2 a33d 1db4 3fbe 5578 e23d
000000c0: df6b 543e e49b 4d3e a09f 1eb9 280d 4f3e
000000d0: 5645 253e fb63 d43d 90cd 7f3e 7bfb 6c3c
000000e0: f7fe 5f3e 2a5d efbd 1f82 01be f134 4bbd
000000f0: 7860 fe3d 45f8 b1be b8da 003e a48a b93c
00000100: 0bf1 69bd 3974 98bd 3c0b 353c 415c 42be
00000110: bb9f 963e 65f0 a03b ca12 e2bd 9bbf bf3d
00000120: 6a11 b13d af11 973c 4f67 36be d451 e9bd
00000130: 1edb 423e 29ef 5fbe 0890 453e b0af 253e
00000140: fa95 a53e 655a 653e 3625 b93b 521d 87bd
00000150: 99f9 ba3e 2d8b 87be 07c7 a73d 5966 9f3d
00000160: 6074 793e 2888 62be 7457 343e dbc3 dbbd
00000170: 51c9 a4bd 8bf3 a6be c1c4 5cbe 2b1f 833d
00000180: 725b dbbd 05ab 2e3d 4686 0e3e 2047 0e3c
00000190: 09eb b03c 7530 aa3d 0219 313e e428 11be
000001a0: 1f77 c6bb 108a fe3d 80a3 b3bd b33e 8c3e
000001b0: e4cf 34bd 4a21 27be 13b5 86bd 18b6 c0bd
000001c0: cbca 53bd f1c9 83be 2ad9 2dbe d261 703d
000001d0: a722 8e3e 3e28 fc3d 43b9 bb3e ddad d4bc
000001e0: 8329 aabb 5215 24be d2c9 1dbd 0738 91be
000001f0: cacd 60bd 6132 98be 5628 63be 35e8 38bd
00000200: b73c e53d e157 e93d 62f9 f63d 13af 48be
00000210: ca1b 2b3d f4c1 8d3d 0e28 80bc 1ba5 c9bc
00000220: 0136 eebc e43a 013e 0347 2a3e 1071 84be
00000230: aee8 32be da44 033d 7953 e33d ecb9 90be
00000240: c218 d73e bb98 7abe 131a 86bd 5257 5dbe
00000250: 77ce b23c 0e7b d83d 120d 3f3e 68b6 90be
00000260: d1d8 263e 36dc 7f3d e5ab 023e a497 25be
00000270: 8644 b9bd 2caf 6cbe b7c5 e03d 4349 dfbd
00000280: bbc4 f03d f337 13be 5fd4 11bc 0e68 ddbd
00000290: 29d9 9b3e b523 66be ff8e f93d 2c6a 19be
000002a0: b456 233e 622d 063e a7bc 223d 3be5 c9bb
000002b0: 2555 0ebe 88a1 b6bd 3242 643e 1437 a5bc
000002c0: 80a9 82bc 402d 9a3d 3b8a 103e c660 e0bc
000002d0: 21b5 bf3c f12c 40be 3e10 42be c8e9 b9bd
000002e0: 1318 153e d7c4 ed3b da5a 93bd 0ff2 853d
000002f0: ade6 923d c761 173e 0297 3c3e e40b 13be
00000300: 3ca9 403e efa0 27be b599 fa3d 0771 e7bc
00000310: 7455 d7bd 06e6 a93b 93be be3d 1c99 4c3d
00000320: a2ed 783d 2b0b e6bd 3473 113d 9072 96be
00000330: df80 b73d 631f 26be 6963 433d b8f1 0a3d
00000340: afa7 d03e 144f 88be c0eb 57be e9fe c5bd
00000350: 0d56 603e 5014 25be 1c80 c03e ba84 49be
00000360: 1e35 a33e cbfb 47be 10d2 643e 1844 76be
00000370: 377b 93ba 6606 61bb 226e 2bbe 8816 93be
00000380: e10a a03b 576b 86be 62b5 60be b581 61be
00000390: 6b3a 00be fc0d 953d 047e e63b 6f07 8fbe
000003a0: 6ce4 b73e a253 d2bd d62a 7ebe 1165 793d
000003b0: ec50 d3bd 12b7 e0be 1fee 06bd 4a32 43be
000003c0: 27fa dc3d 8be5 58bc 99ce e0bd 178a f1bb
000003d0: 14e3 5bbe 9417 03bc 0dcc 2ebe c498 d4bd
000003e0: 4094 7bbe 973c 1ebe aa25 c03b 095c b9bd
000003f0: 8de1 20be 103f caba f21e 023d 4780 65be
0.13125235 -0.100284524 0.1352228 -0.085498154 0.32150888 -0.02089921 0.22966395 -0.030240322
-0.0584648 -0.23363908 0.25431854 0.17719322 -0.15162648 -0.20708068 0.15437768 0.017124673
0.22603263 -0.08203 -0.16734622 -0.20086165 -0.17832759 -0.036711752 0.06966051 -0.0931723
0.031411693 -0.07726922 0.09827683 -0.07885149 -0.18600425 0.06780021 -0.037312172 0.12257427
-0.08693841 0.11045687 -0.13555594 -0.16421326 -0.049008187 -0.23246688 -0.0067084017 0.08660961
0.32055417 -0.115930855 0.107465945 0.0017276913 -0.09457395 0.079931185 -0.18721052 0.11058108
0.20744275 0.20078999 -0.00015127519 0.20219862 0.16139731 0.10370632 0.2498076 0.0144642545
0.21874605 -0.116876915 -0.12647294 -0.049611036 0.12420744 -0.34759727 0.12583435 0.022649117
-0.057114642 -0.07444043 0.011050042 -0.18980505 0.2941874 0.0049114698 -0.1103874 0.09362718
0.086458996 0.01844105 -0.17812847 -0.113925606 0.19028899 -0.21868576 0.19293225 0.161803
0.32340986 0.22397764 0.005650188 -0.06597389 0.36518553 -0.2647337 0.08192258 0.07783193
0.243608 -0.22122252 0.17611486 -0.10730716 -0.080462106 -0.32607684 -0.2155943 0.06402429
-0.10710801 0.042643566 0.13918409 0.00868395 0.021596448 0.08310024 0.17294696 -0.14175755
-0.006056681 0.12428677 -0.087714195 0.27391586 -0.044143572 -0.16321293 -0.06577506 -0.094097316
-0.05170707 -0.25740007 -0.16977373 0.05868704 0.27760813 0.12312363 0.3666478 -0.02596181
-0.005192937 -0.16023758 -0.03852255 -0.28363058 -0.054883756 -0.29725936 -0.22183356 -0.045143325
0.11193221 0.11393715 0.12059285 -0.19598036 0.04177455 0.06921759 -0.0156441 -0.024614861
-0.029078485 0.12620121 0.16628651 -0.2586751 -0.17471573 0.032048084 0.110999055 -0.28266847
0.42011076 -0.24472325 -0.06547942 -0.21615341 0.021826966 0.10570346 0.1865733 -0.28264165
0.16293646 0.06246587 0.12760885 -0.16171128 -0.09046273 -0.23113698 0.10975211 -0.109026454
0.11756273 -0.14376812 -0.008900731 -0.108108625 0.30439118 -0.22474559 0.121854775 -0.14981908
0.15951043 0.1310325 0.039730694 -0.0061613596 -0.13899668 -0.089175284 0.22290877 -0.020167865
-0.015949965 0.07528162 0.1411523 -0.027389895 0.023401799 -0.18767144 -0.18951508 -0.09077793
0.14559965 0.007256131 -0.07195063 0.0654031 0.07172904 0.14783393 0.1841698 -0.14360005
0.18814558 -0.16369985 0.122363485 -0.028252138 -0.10514346 0.0051848916 0.09313693 0.049950704
0.0607735 -0.11232599 0.035510257 -0.2938428 0.08960127 -0.1622291 0.047702227 0.033921927
0.40752932 -0.26622832 -0.21086025 -0.09667761 0.21907826 -0.1612103 0.3759774 -0.19679537
0.31876463 -0.19529645 0.22345757 -0.24049413 -0.0011251931 -0.003433609 -0.16741231 -0.28728127
0.0048841094 -0.2625377 -0.21944192 -0.22022136 -0.12522285 0.07278058 0.007034065 -0.2793536
0.3591646 -0.10269858 -0.24821028 0.0608874 -0.10318169 -0.43889672 -0.032941934 -0.19062153
0.107899 -0.013238321 -0.109769054 -0.007371198 -0.21473342 -0.008001227 -0.17070027 -0.103807
-0.24568272 -0.154528 0.005863865 -0.090507574 -0.15711041 -0.0015430171 0.031767793 -0.22412215

lstm.weight_hh_l1 f4 [64, 16]
00000000: 8708 2ebe a6ba 403e 463b 803e c3ae 8bbe
00000010: 16b3 0f3e 4ffc ed3d d911 51be bd5d d73d
00000020: 931c 90bd 67a2 0c3e 3241 edbd e1b0 563e
00000030: 0283 84be 73a5 bd3d 9162 813d 7b54 ca3d
00000040: bd68 1bbe 2ca1 7d3e dd76 2bbe d60a 003e
00000050: f1dc 8b3b 8a8f 04be 2863 ac3d 64dc 52bd
00000060: fb3b 6e3e 2724 02be eecb 11ba b87d 403e
00000070: fba7 913e 274d 1c3d ff08 503e 34e6 633e
00000080: 663c 2b3e b0ce 3b3e 5a0b f3bb c46b 063e
00000090: d7f3 20be ba3a 013c fd56 84be 7ea1 fb3d
000000a0: 2352 85be dedb 4d3e 1767 1fbe 5c5a 5dbb
000000b0: 9e18 fdbd dabb 3b3e c74d dcbd 5593 223e
000000c0: 7701 8cbe 88f1 213c 64e2 843b de80 67be
000000d0: 1edb 9cbd 62a2 d9ba 93d5 103e 1e3a 12be
000000e0: 6145 1f3e e1be 3b3e 312d 0ebe 269c d83d
000000f0: 1979 6dbe 39f0 e83d 206c 45bd 87d9 373e
00000100: a6c9 ac3d 3a9b 243e ff57 92bd 7e67 c5bd
00000110: 2111 f53d c9dc 9abe f2c6 a9bc fcf8 8e3c
00000120: 8653 85bd a3f3 05bd cee7 59be e43f 5ebd
00000130: 6099 353e 97bb 523e 699c 6ebd 0676 543d
00000140: 6332 5dbe 63f5 243e bbd2 2d3d 4e11 e1bd
00000150: 7fd5 a7bd 9f86 333d 16aa 0f3e 5820 633d
00000160: 09da 1f3e 7a83 fbbc 86cc 333e ff7d 6e3e
00000170: ddbd dabd 4e8f 3b3e effb 89bd 2b89 be3d
00000180: 8c3a 16be a806 53bd dbac d23c 1d1f 13be
00000190: 88d3 06be 081f 35bd ed23 6c3e 905a 9fbd
000001a0: 0959 08be e3d3 0d3e 4927 9b3d 7d7f 613e
000001b0: 8792 433d 1633 693e 1f0d a43d 4f1a ae3d
000001c0: 0781 d2be 570b ecbd 37f4 cfbc 085a 3bbe
000001d0: 648d 323d 7be3 4cbd de37 bdbd 6a9b 1bbe
000001e0: 36b5 6fbc 08f0 0fbe 5748 b3be 5b94 4fbe
000001f0: cc9f 823e 9172 793e 26c2 003e fe94 793e
00000200: 8194 0fbd 4fb2 303e bb04 42be cb37 f03d
00000210: db87 e0bd e215 61be 0766 8abe 2c54 9fbc
00000220: 9b74 fc3d c044 e23d 96b2 963b e699 fb3d
00000230: f10e 133d dfbb a9bd cc60 823e 3b50 98bd
00000240: 5177 a5be e797 873e 4bbd a73e d3f9 21be
00000250: d5c0 1bbe f101 bbbe 3db2 3cbe 0c30 373d
00000260: 9d90 e93d 1c95 c73c cb37 90bd 1920 373d
00000270: 82ec 823e eb25 163e 8e52 093e 454c 993d
00000280: 56a4 8dbd b381 99bd ec38 053e 0919 8fbe
00000290: 8523 85be cf2c 17bc d0c1 c13d e211 4bbd
000002a0: 5f71 d33c 68ac 0d3e 7567 383e 3acf 7d3e
000002b0: 24a5 f5bc 9f98 683e 7ce5 fcbd f0b5 403e
000002c0: de5d 5dbd d556 883e ad7e 21bd 98db f6bd
000002d0: 9df6 96be f5f3 0b3e 9000 bfbc aff6 1f3e
000002e0: 7b8a 163d 4fe8 35be 2cd4 e9bd 55fd 53be
000002f0: 9314 2d3e 38bd 2f3e cf1a 003e 9e6d 37be
00000300: 7a83 2bbc 488a 79bc a2bc 7bbc e648 56be
00000310: 399e 81be 6ba5 d53d 5e37 82be 753b 293e
00000320: 788d 07be ff66 5fbd 85dd 023d 9685 53be
00000330: 87d7 3d3e f7bf 5b3d 4f59 0ebe e6ed a53c
00000340: 0c80 8a3d 3ec4 223d db6c ba3d 9864 48be
00000350: 5bb0 99be dd1a aabe 4001 b73d 5917 c6bd
00000360: 50c1 393e c0f6 ed3e bfd3 7bbc 0ad9 553d
00000370: 5379 84be 1f58 953e ee50 4dbe 7761 d43c
00000380: ffb5 a9be 779a db3d 4cfe f5bc e491 81be
00000390: cf53 4f3d 64b1 5dbe f06d 84be 646c 2c3e
000003a0: bf48 1dbe 650a b93c 3af2 723d b602 debd
000003b0: 4738 ce3d 96c0 b03e be57 513e 66ff f2bc
000003c0: e8c3 25be a20f 1abe 718b 45be b61d 83be
000003d0: 08a2 30bd e706 843e bf1f 34be 4149 313d
000003e0: a7c3 68bc 4981 303e 6bc9 81bd e657 82bd
000003f0: bc74 c13d 7bf3 4cbe 2483 513d 6434 333e
-0.1699544 0.188212 0.25045222 -0.2728177 0.1403316 0.1162039 -0.20416965 0.10515926
-0.070367 0.13733827 -0.11584701 0.20965911 -0.258812 0.092600726 0.06317628 0.098793946
-0.15176673 0.24768513 -0.16744561 0.12504134 0.0042682816 -0.12945381 0.0841735 -0.051479712
0.23265068 -0.12709104 -0.0005561699 0.18797958 0.2844847 0.038159516 0.20315932 0.22255784
0.16722259 0.18340564 -0.0074171247 0.13127047 -0.15718018 0.007887537 -0.25847617 0.122866616
-0.26039228 0.20103404 -0.1556667 -0.0033775782 -0.12358211 0.18333378 -0.10757022 0.15876515
-0.27344868 0.009884246 0.004055308 -0.22607753 -0.07658981 -0.001660418 0.14143972 -0.14279982
0.1555381 0.18334533 -0.13884427 0.10576658 -0.23190726 0.11373944 -0.04819882 0.17954074
0.08436899 0.16074839 -0.0714569 -0.0963888 0.11966158 -0.3024657 -0.020724747 0.01745271
-0.065100715 -0.032703053 -0.21279833 -0.05426015 0.17734289 0.20579372 -0.058254633 0.05187037
-0.21601252 0.16109233 0.042437296 -0.10989629 -0.08195018 0.043829557 0.14029726 0.055450767
0.15610518 -0.030702341 0.17558488 0.23290251 -0.10680745 0.18316385 -0.06737506 0.093035065
-0.14670771 -0.05152002 0.02571719 -0.14367338 -0.1316663 -0.044219047 0.2306058 -0.07780945
-0.13315214 0.1385036 0.075758524 0.22021289 0.04774716 0.22773394 0.08010315 0.08501112
-0.41114065 -0.115256004 -0.025385005 -0.18296063 0.04359187 -0.05002163 -0.092391714 -0.15196005
-0.014630606 -0.14056408 -0.35016128 -0.20271437 0.2551254 0.2436011 0.12574062 0.24373242
-0.035053734 0.1725552 -0.18947117 0.11729392 -0.109634124 -0.21981004 -0.27030966 -0.019449316
0.12326928 0.11048269 0.004598926 0.12285213 0.03590292 -0.08287787 0.25464475 -0.07437178
-0.32317594 0.2648308 0.32761607 -0.15817957 -0.15210278 -0.3652492 -0.18427368 0.044723555
0.11404536 0.024363093 -0.07041892 0.044708345 0.25571066 0.14662902 0.13410398 0.074852504
-0.0691611 -0.07495441 0.13009995 -0.27948788 -0.26003662 -0.009226992 0.09460795 -0.0495776
0.025810895 0.13835299 0.18008216 0.24786082 -0.029985972 0.2271447 -0.12348458 0.18819404
-0.054044597 0.26628748 -0.039427448 -0.12053603 -0.29485026 0.13667281 -0.023315698 0.15621446
0.03675316 -0.177644 -0.11417422 -0.20702107 0.1690238 0.17162025 0.12510227 -0.1791291
-0.010468358 -0.015230723 -0.015364798 -0.20926246 -0.25316027 0.104319416 -0.25432867 0.16526587
-0.1323756 -0.054541584 0.03194954 -0.20656428 0.18539248 0.05364987 -0.13901256 0.02025504
0.06762704 0.039737932 0.09102794 -0.19569623 -0.3001736 -0.3322362 0.08935785 -0.09672422
0.18140149 0.46477318 -0.015370308 0.052208938 -0.25873813 0.29168794 -0.20050403 0.025925381
-0.33146665 0.10722821 -0.030028485 -0.25306618 0.050617035 -0.216497 -0.25865126 0.16838223
-0.15359782 0.022587964 0.059313037 -0.10840361 0.10069328 0.3452193 0.20443627 -0.0296628
-0.16188014 -0.15045026 -0.19291474 -0.25608605 -0.043123275 0.25786516 -0.17590235 0.04328275
-0.014206803 0.17236818 -0.063372456 -0.063644215 0.094460934 -0.20014755 0.051150456 0.17500454

lstm.bias_ih_l1 f4 [64]
00000000: 826d 863e 400c c13c a2a4 51be 9560 68be
00000010: 3b88 153e 4f54 b73d cd1f 3f3e 26e7 a0bd
00000020: 7cfb 223e 29d9 2d3e d1f4 5b3e 59bd 1c3e
00000030: d74f 843e c4ed 203d c986 e43d e0d1 0c3d
00000040: baa8 653d 0e10 dcbd a4ae 69bc c3ee 6ebd
00000050: 4f30 86bd be25 3e3e 0789 0e3e 66ec 04be
00000060: 62ed 21be 1cd1 3dbd 2fa8 21be 608d 583e
00000070: 7e00 12be dc41 6f3c 1dfd c7bd 6d3a 2a3e
00000080: 2297 c43d ab80 dc3d 870e 5a3e d25d 4ebd
00000090: 9941 d8bd db1f 53be aa5a 34be 1763 483e
000000a0: a676 07be 2642 62bc b592 8b3c aebe acbd
000000b0: 2c0c d93d 00a7 f93d 1a09 f7bc 9018 6dbd
000000c0: e5e1 c6bd b086 e83d 6c36 fe3d 1638 433c
000000d0: 6cb5 cabd a4be 56bc 106a 803d b88a 653e
000000e0: 4e14 233e 39f9 1cbe 4c67 5a3b a235 f4bd
000000f0: e32b 9c3e 29c9 14be 1215 813d 9a1c 163e
0.26255423 0.023565412 -0.20472959 -0.22693093 0.14602749 0.089516275 0.18664475 -0.07856588
0.15916246 0.16977371 0.21480109 0.15306605 0.25842163 0.03928925 0.11158521 0.03437984
0.056069113 -0.1074525 -0.014262829 -0.05833317 -0.06552183 0.18569085 0.1391946 -0.12980804
-0.1581321 -0.046342 -0.15786813 0.2114768 -0.14258 0.014603104 -0.097650744 0.1662385
0.09599139 0.10766729 0.21294604 -0.050382443 -0.10559387 -0.2061762 -0.1761271 0.1956905
-0.13228855 -0.013809716 0.017037729 -0.08434807 0.10598025 0.12190056 -0.030155707 -0.057884753
-0.09711055 0.113538146 0.12412724 0.011915227 -0.09897885 -0.013106976 0.0627023 0.22416198
0.15925714 -0.15329446 0.003332573 -0.11924292 0.30502233 -0.14529862 0.06302847 0.14659348

lstm.bias_hh_l1 f4 [64]
00000000: 665c 563e 6e73 773e ac89 a4bd 82c0 5b3e
00000010: 1a18 743b 923f 11be 7a38 e5bd 56d7 993e
00000020: f5c7 22be af2e c4bd c330 2f3e 1b9f 43be
00000030: 4a46 52bb 56be 973e 697e 863e 1f1c 953d
00000040: 02e2 793e 222d ccbd 33c1 84bb 940f 17be
00000050: cc02 bf3b 2b16 1e3d b407 e1bd 38ea 9f3b
00000060: b796 0f3c d184 a33b 699a 0d3d 007f 0cbe
00000070: 2c32 193e 85ae 1cbd 90a6 d1bd e695 8ebd
00000080: 0290 acbd 16a5 103e 52d5 9f3d 221a 10bd
00000090: 31dc eebd 9ed9 813e ce67 fcbd 8c71 943d
000000a0: e80a 1c3e 3add 253d eafe 35be bc8a 5fbc
000000b0: 56af 26bd f332 efbd f09c 383e 5dcb 37bc
000000c0: 84d7 d8bd 42fd a8bc ac88 a6bd 2182 35be
000000d0: 04d1 babd 9aa2 4abd 6707 dbbd fc9e 103e
000000e0: 4d8c c33b 1725 403e 3932 e43c e5ce a6bd
000000f0: 8139 033e bd4c 243d a570 b83e 1ec9 f7bd
0.20933685 0.24165127 -0.08034071 0.21460155 0.003724581 -0.14184406 -0.11192413 0.300471
-0.1589659 -0.09579217 0.17108445 -0.19103663 -0.0032085353 0.29637402 0.26268318 0.07280754
0.24402621 -0.09969546 -0.0040513515 -0.14752036 0.005829191 0.03859536 -0.109877974 0.004880216
0.008763961 0.004990198 0.034571085 -0.13720322 0.14960545 -0.038252372 -0.102368474 -0.069621846
-0.08425905 0.14125475 0.078043595 -0.035181172 -0.11663092 0.2536134 -0.12324487 0.0724822
0.15238535 0.04049418 -0.17773023 -0.013643917 -0.040694557 -0.1167964 0.18028617 -0.011217919
-0.10587981 -0.020628575 -0.08131537 -0.17725421 -0.09121898 -0.049471475 -0.10694771 0.14123148
0.005967653 0.18764149 0.02785598 -0.08144931 0.12814905 0.040112246 0.3602344 -0.12098907

fc.weight f4 [16, 16]
00000000: 31ae 8e3c 8cb4 afbd ae25 6c3e 3628 1c3d
00000010: def9 153e 84b2 52bc e3f8 1abe d713 e5bd
00000020: 5b21 1fbe 1827 e4bd 51e0 6fbe a27c 2c3e
00000030: 0e34 023e 72e3 4c3e 1ae8 083e a1c3 6b3e
00000040: 2aab 73be 45cb d83d 8d3c 9dbd f907 3abe
00000050: 9885 02bc 4aa5 36be ca1c 253e da25 d9bd
00000060: bfd6 11be 0497 a5bd 0760 9b3d 2ba0 01bb
00000070: 36ee 2dbd 0706 b6bd 88ce 4f3a d298 03be
00000080: 0b94 01be 6cae adbc e71d ae3c 1b1f b03d
00000090: cd17 74be 6ced 173e 1e6a 1dbe 92f7 c2bd
000000a0: e3bc 26be f32b a8bd 0ace 36be 848f 983d
000000b0: 03ce 00be d2e5 683e cd80 a4bd f5d1 82be
000000c0: d4bc 8abc 3fda 8cbd 56b0 193e dfff 03be
000000d0: 3e07 1ebe a2d8 873c 7f00 45be ae31 06bd
000000e0: cf05 51be 7fb1 1ebc e12e 3ebe 6dd0 e0bc
000000f0: 7852 46be b355 273d 253a c23d 3169 543e
00000100: 41cd 1e3e aa71 02be 830e f13d d42f eb3d
00000110: 851e 533e c1fc 4dbe 725c d2bc 2fa7 333e
00000120: b24a fabd ed5d a23e 1b75 50be cee5 debd
00000130: 52f4 95bb 4cb9 083e 25f4 03be f4fc 68be
00000140: 6c6f 433e 7737 3e3e fcf8 6d3e 0fdd ff3d
00000150: ee54 e7bc cb3c 073e b140 d23d 7219 e0bd
00000160: fdbe c9bd 05d8 913e 3252 c83d 8a19 40be
00000170: 2bd9 68be 5867 d33c 3d6c 02be 0337 1cbe
00000180: e811 a9bd c5f4 4fbd 9000 8b3b 39a7 82be
00000190: b434 2f3e 2eac 41be 6be3 533e 1c99 e03d
000001a0: 0ab5 473d d80a a93e e610 27bd 019a 403e
000001b0: 5860 8bbe c3f9 4c3d dde8 26be 8834 3d3e
000001c0: 6152 80be 161d d3bd 2dd5 c73d 6c5e b5bd
000001d0: 0981 55bd c190 03bd 84ae 3f3e dbcd 8bbe
000001e0: 6b90 663e 8582 133e cef4 77be cc9a 473e
000001f0: 7b51 fa3c 615d 223e 8047 98be 5c27 4bbe
00000200: 87db c8bd 3a89 59be 7ffe 6c3e b50e 3f3d
00000210: 7441 4c3e d393 863d f9ff 6cbd e3d7 3dbc
00000220: c490 c7bd 3c9a e83b bde6 323e 2ed1 993c
00000230: 6534 f2bd 41ef 6f3d 0e59 163d ff28 1d3e
00000240: 2284 91be bbd8 3abe 94d1 8f3e b5e0 853d
00000250: 46aa d6bd 9f58 94bd 7bb2 a0bd 26b1 0dbe
00000260: 133e bd3d 9d30 843e d2ed 1b3d 4439 6f3e
00000270: eba1 87be 7d0d a13e bdd1 52be 00f0 5e3e
00000280: cb91 f0bd 54e0 643e 9813 84be 023b 793e
00000290: da7c 553e bf4b 053e 8b3b a23d 1309 21bc
000002a0: 5fa7 483e fe20 c8bc fab0 af3c 5699 27be
000002b0: 2e1e 4c3e b19b a9be 84d0 9f3e e92d c23d
000002c0: 6d9e 6dbe ac3b 083e 3ce9 ca3d 2940 2cbc
000002d0: 2457 c23c f8ea 5cbe c2d7 47be ffa7 3cbe
000002e0: 24a8 23bd 40c0 193e cdc5 e5bd e253 f23d
000002f0: 0308 61bd bd01 4f3c 9e02 713d f4e1 1f3e
00000300: 386f 2a3c a556 333d 6d7c 173e 7b9b 353e
00000310: d913 f0bd 487a 893e 1c90 e6bb 76c5 0e3e
00000320: 6a88 203d db77 a8bc 5806 11bd 39e8 493e
00000330: 48d6 07be 165b 1fbe 3d41 683e 8241 053e
00000340: 5314 773e 9355 62be 8040 3f3e 90e1 e1bd
00000350: d30e 39be 38ac 6d38 c38f ef3d d474 053d
00000360: 06f3 893c 3c28 d83d 81a8 50be a753 37be
00000370: c346 d2bd e865 b93b de79 753e d6eb babd
00000380: 46d1 c0bd d9a1 4dbe 1d8c 72be f52b cabb
00000390: cfb5 883d d983 febd 0312 933d 47ac 34bd
000003a0: b016 9cbd e84d fdbd c473 57bd 36e8 5ebd
000003b0: fc25 a1bd 2ca9 1ebe cc60 543e 5750 b1bd
000003c0: 2c0a db3d 6d4b 14be d126 75bd 5f6a 6cbe
000003d0: 7de3 87be 19a3 c83d 6fae e53d 41c6 91be
000003e0: db85 07be 2cc8 893e c0c7 c33d 1831 2abd
000003f0: bfc4 4dbc 6f8e b5bd 9416 08be 5c7d 213e
0.017417045 -0.085793585 0.23061249 0.038124286 0.14646098 -0.012859944 -0.15134005 -0.11185425
-0.15540068 -0.11140269 -0.23425414 0.16844419 0.1271517 0.20008639 0.1336979 0.23023845
-0.23795763 0.105856456 -0.07677565 -0.18167104 -0.007966422 -0.1783649 0.16124263 -0.10602923
-0.14242075 -0.080854446 0.07586675 -0.0019779305 -0.042463504 -0.088878684 0.0007927199 -0.12851265
-0.1265413 -0.021201335 0.021254493 0.08599683 -0.23837204 0.14836663 -0.15372512 -0.095198765
-0.16282992 -0.08211508 -0.17852035 0.074492484 -0.12578587 0.2274392 -0.08032379 -0.2555081
-0.016935743 -0.06877565 0.15008673 -0.12890576 -0.1543245 0.01658279 -0.1923847 -0.032762222
-0.20412372 -0.009685873 -0.1857257 -0.027443135 -0.19367397 0.040853214 0.094837464 0.20743252
0.15507986 -0.12738672 0.11770346 0.11483732 0.20617111 -0.20115949 -0.025678847 0.17544244
-0.12221278 0.31712285 -0.20357172 -0.108836755 -0.0045762444 0.13351935 -0.12886102 -0.22752744
0.19085473 0.18575846 0.23239511 0.124933355 -0.02823874 0.13206784 0.10266245 -0.10942353
-0.09850881 0.28485122 0.097813025 -0.18759742 -0.22739093 0.025806114 -0.12736602 -0.1525536
-0.082553685 -0.05077054 0.0042420104 -0.25518206 0.17109948 -0.18913338 0.20692222 0.10966703
0.048756637 0.33016086 -0.0407876 0.18808748 -0.27221942 0.05004288 -0.16299768 0.1847707
-0.2506285 -0.10308282 0.09757457 -0.088559 -0.05212501 -0.03212047 0.18718916 -0.27305493
0.22516029 0.14405258 -0.2421448 0.19492644 0.030556431 0.15855934 -0.2974205 -0.19839233
-0.098074965 -0.21243754 0.23143958 0.046644885 0.19946843 0.06571164 -0.057861302 -0.011587116
-0.09744409 0.0070984643 0.17470832 0.018776502 -0.118264 0.05857778 0.036706023 0.1534767
-0.28421122 -0.18246739 0.28089583 0.06537 -0.10481696 -0.07243466 -0.078465424 -0.13837108
0.09240355 0.2581834 0.0380686 0.23361689 -0.2649072 0.31455603 -0.20587821 0.2177124
-0.11746558 0.223512 -0.257962 0.24338916 0.20848408 0.13017176 0.07921513 -0.009828824
0.19595097 -0.024429794 0.021446694 -0.16367087 0.19933388 -0.33126596 0.31213772 0.09481413
-0.23204966 0.13304013 0.09907767 -0.010513344 0.023723193 -0.21574008 -0.19515899 -0.1842346
-0.039955273 0.15014744 -0.11219368 0.118324056 -0.05493928 0.012634692 0.058840387 0.15613538
0.010402493 0.043783803 0.14793558 0.17735092 -0.11722536 0.26851106 -0.007036222 0.13942513
0.039192595 -0.020564964 -0.03540644 0.19717492 -0.13265336 -0.1556209 0.22681136 0.1301327
0.24128847 -0.22102956 0.18676949 -0.11029351 -0.18072061 5.6665594e-05 0.11697342 0.03258212
0.016839515 0.10554549 -0.20376779 -0.17903005 -0.10267403 0.0056579 0.2397227 -0.091270134
-0.09414916 -0.20081271 -0.23686261 -0.006169791 0.06675302 -0.12427492 0.0718117 -0.04410961
-0.07621515 -0.12368375 -0.052600637 -0.054420672 -0.07868573 -0.15494221 0.2074005 -0.08657902
0.106952995 -0.14481898 -0.05985147 -0.23087452 -0.26540747 0.097967334 0.11214911 -0.28471568
-0.13234656 0.26910532 0.09559584 -0.041550726 -0.012559115 -0.08865058 -0.13289863 0.15770477

fc.bias f4 [16]
00000000: aa73 ae3d 5cb4 423e 0a66 33be 7963 893b
00000010: 5b90 6d3e 80dc 593e ad0e 973d 4ed2 13be
00000020: 3c2b e33d c575 7abc 4b1a 87be f0f4 07bd
00000030: 89e7 643e 82f7 6d3d 5115 0c3e f16c ec3d
0.08518155 0.19014114 -0.17519394 0.0041927663 0.23199598 0.2127552 0.07375846 -0.14435694
0.11092231 -0.0152868675 -0.26387247 -0.033192575 0.22353949 0.05809737 0.13680007 0.115442164
