weights/best_hr_encoder.pth (torch, 238044 bytes, 10 tensors)

conv1.weight f4 [64, 2, 5]
000000 26 67 0c 3e 2a 0a fc 3c ea f8 6d be 7f 8c 50 3d
       0.13711223 0.030766565 -0.23239484 0.050915238
000010 21 22 7e 3d ea a9 40 be 3e 1a 74 be 74 43 02 3e
       0.062044267 -0.18814817 -0.23838136 0.12721044
000020 79 97 84 bd f0 db 94 3d e3 8e 01 3d 45 2a bc 3c
       -0.064742036 0.07268512 0.031630408 0.022969374
000030 92 c9 9f 3d 60 6a 09 be cb 0f 52 3d 72 3e 17 3d
       0.07802118 -0.13419485 0.051284593 0.036924787
000040 ba de 09 3c 44 32 b2 be 20 ed d3 bc 19 25 ab 3d
       0.008414919 -0.34803975 -0.025869906 0.08356685
000050 9f 54 cf 3c 94 cc 62 3e f8 71 16 3e 3f eb 65 3e
       0.025308905 0.22148353 0.14691913 0.2245302
000060 ec 07 40 3d ad 94 0e 3e 95 28 b1 bd b9 27 8e 3e
       0.046882555 0.13923903 -0.086503185 0.2776468
000070 dc d6 8d be 86 41 0e bc 24 a3 42 3e 76 21 e9 bd
       -0.27702987 -0.008682614 0.19007546 -0.11383335
000080 87 c0 a5 3e 03 8a 93 3e 42 78 21 bd f7 bd b2 3a
       0.3237345 0.28816232 -0.039421327 0.0013636936
000090 13 49 1f be 00 9b 4f 3d b2 db c4 bc cb 48 a2 3e
       -0.1555522 0.05068493 -0.02403054 0.31696162
0000a0 3f fe 60 3e e3 e1 a3 3c 8a fd 2e be 43 d9 48 bd
       0.21971987 0.020005172 -0.17088905 -0.049035322
0000b0 ef 4a 20 be 21 d2 a4 be 29 5d e0 be 2d 21 9a be
       -0.15653585 -0.32191566 -0.43821076 -0.30103436
0000c0 ba 2e aa be 6f f5 bc be 7c 7c 40 bd f7 da c3 3d
       -0.33238775 -0.36906 -0.046993718 0.095632486
0000d0 c7 d1 e6 bd e9 a4 88 3c ad 26 34 bd 06 f6 33 3e
       -0.112704806 0.016680198 -0.043982197 0.17574319
0000e0 ea 11 57 3e 07 eb 0a 3e 1b 03 01 3e 61 a9 8c be
       0.21002927 0.13566218 0.12598841 -0.27472976
0000f0 ad 26 4e be a9 30 c2 3c 3e b5 9f be d4 cb a1 bd
       -0.20131941 0.023704844 -0.31192964 -0.07900205
000100 da 79 65 3e b5 98 7b 3e 6d 82 39 3e 8d e5 29 be
       0.22409764 0.24569972 0.1811616 -0.16591473
000110 ad 46 44 bd 4e 94 ad b9 cc f9 97 3e af a1 ad 3e
       -0.047918964 -0.00033107627 0.29682767 0.33912417
000120 ce a3 9e 3d aa f8 50 be 79 de 93 be 3f 27 80 3d
       0.07746087 -0.20407358 -0.2888067 0.062574856
000130 ee 1d 49 be 1c f7 bd 3d c4 3c a3 be ad 35 8a 3e
       -0.19640324 0.09275648 -0.31882298 0.26994076
000140 d5 44 b8 bd c4 0b 0e 3d c2 10 97 be 73 18 1e bd
       -0.08997504 0.03467919 -0.29504973 -0.038597535
000150 91 f0 9e be 88 4f bf bd 02 09 03 3e 41 d4 ec 3c
       -0.31042913 -0.09341341 0.12796405 0.028909804
000160 40 29 68 be 0f 76 59 be 3c 47 2b 3d 0f 96 04 be
       -0.22671986 -0.21236442 0.04181598 -0.12947868
000170 98 a1 4b bd 8d 6d 5e 3d 1c f1 92 bd 8b 35 55 3b
       -0.049714655 0.054303695 -0.07174894 0.0032533135
000180 62 55 38 3e ba c5 62 3c b3 1e 7f be 4e ce 88 bc
       0.18001321 0.013841087 -0.24914055 -0.016699936
000190 bb 0e b2 be 3b 59 eb bd 19 36 40 3e 00 bd f8 3d
       -0.34776863 -0.11491629 0.18770637 0.12145424
0001a0 63 ff 7d bc a8 b1 bb 3c 88 e6 38 bc 3f 26 01 bd
       -0.0155027835 0.022911862 -0.011285432 -0.031530615
0001b0 4e bc 38 bd 44 70 90 3c b5 44 1f 3e 19 52 95 bd
       -0.045101456 0.017631657 0.15553553 -0.072910495
0001c0 73 af 2f be 0a 6f 2c 3e 95 3e f7 3d e6 57 29 3e
       -0.17156772 0.16839233 0.120724835 0.16537437
0001d0 d1 ae dd 3d fe a3 59 be f2 13 3f be b5 0f 7c 3d
       0.10824359 -0.21253964 -0.18659952 0.061538417
0001e0 03 e9 48 3e a9 9e 79 be 05 86 55 3e 33 e1 03 be
       0.19620137 -0.2437693 0.20851906 -0.12878875
0001f0 d1 61 df 3d d0 80 95 3e 72 69 66 3d 0f ef af 3d
       0.10907329 0.2919984 0.056252904 0.08590519
000200 53 67 f9 bd 03 54 ae 3d 20 12 f0 bd 94 0e a6 3e
       -0.12177911 0.08512118 -0.11722207 0.32432997
000210 f4 34 99 3e 2d 9c af bc 00 d8 3d 3e 16 a0 58 be
       0.29923213 -0.021436775 0.18539429 -0.21154818
000220 f2 bf 8c bd a0 3d c5 be 9d 85 a2 be de 11 5d be
       -0.06872548 -0.3852358 -0.31742564 -0.21588847
000230 ae 43 f4 bd dd 0c 9f 3d b4 4d 0a be 9d e3 16 bd
       -0.119269714 0.07766125 -0.13506204 -0.036838163
000240 8a e8 8d bd b9 63 a4 3d f5 02 60 3e 88 9c f5 bd
       -0.06929119 0.08026833 0.21876128 -0.119927466
000250 da 53 91 3c c7 6b 3e 3d 1c 1b 82 be 4f 7d 28 bd
       0.017740179 0.046489503 -0.25411308 -0.04113513
000260 30 39 7b 3e cf 85 8b be 03 34 43 bd 87 39 0e be
       0.24533534 -0.27250525 -0.047657024 -0.13889132
000270 14 9b a9 3d e2 37 31 be dd be 29 be 53 ff 96 bd
       0.08281532 -0.17306474 -0.16576715 -0.07372918
000280 db 8f dc bd 90 45 34 bd 82 bc 13 bd 92 8c 15 3e
       -0.10769626 -0.044011652 -0.036068447 0.14604405
000290 51 84 81 bd 32 64 12 3e 2a 63 95 be 51 5c 1b be
       -0.063240655 0.14296034 -0.2917722 -0.15171935
0002a0 c6 16 0b 3d b5 11 0f 3e d2 ca 2f 3b ce b1 63 3e
       0.033957265 0.13971598 0.0026823771 0.22235796
0002b0 e3 67 29 3e e1 b8 2c be 1b 77 5c 3e 27 ea 11 3d
       0.16543536 -0.168674 0.2152981 0.035623696
0002c0 cf ef 27 3e 01 ef 88 be f2 19 69 3d 00 c5 a5 be
       0.16400073 -0.26744846 0.05690951 -0.32376862
0002d0 6f 01 54 3d fd f0 ad 3e c3 c7 05 bd 3b ba 8d 3e
       0.05175918 0.33972922 -0.03266121 0.27681145
0002e0 e2 95 33 3e 90 1f f1 3d 64 44 cf bd f8 17 2d bd
       0.17537645 0.11773598 -0.10120466 -0.042259187
0002f0 41 77 82 3d 5d 1d 3f be 53 87 98 3e 60 0d 0a 3e
       0.06370402 -0.18663545 0.29790744 0.13481665
000300 96 f1 97 3e 2b ab de bd 0c 66 64 3d f2 6e 63 3e
       0.29676503 -0.108724914 0.055761382 0.22210291
000310 07 ab 20 3d b6 bd 60 3d 67 3c 71 3e 56 ef 57 3e
       0.039225604 0.054868422 0.23558198 0.21087393
000320 8e 2a b9 bd 02 aa 93 3d 81 60 4a 3e a8 b5 79 be
       -0.0904132 0.07210161 0.19763376 -0.24385703
000330 a9 e3 33 bd b3 56 80 be 19 bd bd 3e ed 73 05 3e
       -0.043918286 -0.25066146 0.37058333 0.13032503
000340 f9 ed 82 3e 7e d7 3a be 2f 0d 8b 3e cb 3e 1c 3e
       0.25572184 -0.18246266 0.27158496 0.15258329
000350 19 18 71 3e fd 01 8c be f4 30 6d 3d 0d de 91 be
       0.23544349 -0.27345267 0.057908013 -0.28489724
000360 ec 7b 0b 3e 0e 1d 8a 3c 4c a2 7b 3e 37 a3 4e be
       0.13621491 0.016859557 0.2457363 -0.20179449
000370 bc b8 89 be 63 77 af bd d3 f8 93 be 3c 9d a9 be
       -0.26898754 -0.08567693 -0.28900775 -0.33127773
000380 e8 cf 48 3c 9d 6b 5d bc ed 02 a5 3c d6 06 70 3e
       0.0122566 -0.013514427 0.020142997 0.23440108
000390 82 74 a4 3e 37 c4 26 3e f6 b6 70 bd ce 61 f0 3d
       0.32120138 0.16285788 -0.058768235 0.11737405
0003a0 a6 87 c7 bd ef c3 a1 3e d9 7d 7e bd b7 dc b7 3c
       -0.0974267 0.31594798 -0.062131736 0.022444112
0003b0 d8 60 ac 3e ee 84 b8 3e 6f aa 91 3e e1 45 6c be
       0.33667636 0.36038917 0.28450343 -0.23073532
0003c0 8c db 2b be c9 ad a0 be e2 2e 48 bd e7 1d bc 3c
       -0.16782969 -0.31382588 -0.048872836 0.022963477
0003d0 4b 0a 33 3e 22 bc 5d be 54 78 c6 bd 70 a8 b1 3d
       0.17484395 -0.21653798 -0.096909195 0.08674705
0003e0 47 21 3a 3e 54 b9 5c 3e 18 fd 3c bd e1 77 a0 bd
       0.18176757 0.21555072 -0.046139807 -0.07835365
0003f0 60 2c 43 be 39 27 95 be 8a ea df 3c 69 d9 dd bc
       -0.19059896 -0.29131487 0.027333517 -0.027081208

conv1.bias f4 [64]
000000 e1 a5 9e be 0f 05 8a 3d bb ef 72 be cf bb 68 be
       -0.3098593 0.06739246 -0.23724262 -0.22727893
000010 64 58 4a 3e e2 af be bd 86 50 91 3e db 6d 6d be
       0.19760281 -0.09310891 0.28381747 -0.23186438
000020 6a 1f 56 bd 35 ba 39 be bc 0f 11 3e f0 dc a7 bd
       -0.052276053 -0.18137439 0.14166158 -0.08196437
000030 7f cb 38 be f4 c9 1c be e4 ca da 3d 53 a5 f7 bd
       -0.18046378 -0.15311414 0.106832296 -0.1209208
000040 3f 4a 0e 3e 94 72 1b 3d 85 79 85 be e3 25 d3 be
       0.1389551 0.037951067 -0.26069275 -0.41239843
000050 da 4b 72 be 10 c5 1b be 83 2d b1 bd 15 41 66 be
       -0.23661748 -0.15211892 -0.08651259 -0.22485764
000060 0f 1e 85 3e 7f f2 c9 3c b5 94 86 be 9e 1d a0 be
       0.25999495 0.024651764 -0.2628533 -0.31272596
000070 15 27 c5 bc b7 14 15 3e f3 7a 08 3d 0e e7 13 be
       -0.024066487 0.14558683 0.03332038 -0.14443609
000080 55 51 57 3e 22 ab ae 3e 2b 09 35 be 7c 59 9b be
       0.2102712 0.3411494 -0.17679279 -0.3034171
000090 c5 35 06 3c 16 73 1b be ca de 52 3e c1 d6 41 be
       0.008191531 -0.1518062 0.205928 -0.18929578
0000a0 8b 61 b2 3e 4d 28 8b 3d 6b a6 7f 3e 79 42 b6 bd
       0.34840044 0.06794796 0.24965827 -0.088993974
0000b0 f8 49 e3 bd 40 d4 1e 3e 36 0b df 3d c5 b1 37 bd
       -0.11098093 0.15510654 0.1089081 -0.04484727
0000c0 ec 8d 74 3e ed bb 34 be 2b a9 76 3e e5 d8 a5 3e
       0.23882264 -0.17649813 0.2408797 0.3239204
0000d0 86 52 21 be 52 78 5a be 94 60 21 be 52 08 b4 bd
       -0.15754136 -0.21334961 -0.15759498 -0.087906495
0000e0 fe 4a bf 3d c4 ac 34 3e 7f ef 6c be 05 cb 8f be
       0.093404755 0.1764403 -0.23138236 -0.2808458
0000f0 f4 c8 dd 3b d0 8b 8f 3d c4 d5 74 be ae f9 44 3e
       0.0067683402 0.07009089 -0.2390967 0.1923587

conv2.weight f4 [64, 64, 5]
000000 8d f1 47 3d 37 f5 f5 bc 23 a1 47 3c 29 b3 96 3c
       0.048814345 -0.030024154 0.012184414 0.018395977
000010 b8 2d e9 bc 04 80 3a 3d bd 3b 1a bd 59 82 c5 bc
       -0.028464183 0.04553224 -0.037654627 -0.024110006
000020 39 c6 4b bb d5 b2 61 3d b8 cc 3d 3d 02 45 f8 3c
       -0.0031093492 0.05510219 0.046337813 0.030306343
000030 40 67 cf bb 69 a0 88 3d 47 f4 62 3d 68 dc 8b 3d
       -0.006329447 0.06671221 0.055408742 0.068291485
000040 6d 40 ad 3d c2 32 3d 3d 2e 94 ed 3c a7 60 69 3d
       0.08459554 0.046190985 0.029001322 0.05697694
000050 de 6f c0 be 9c 30 b8 be 4f 00 e1 be 7f 69 c0 be
       -0.37585348 -0.35974586 -0.43945548 -0.37580487
000060 9d b1 8b be ab 64 54 bd 20 c9 9a bc ec cd 96 bd
       -0.27283946 -0.051853817 -0.018894732 -0.07363495
000070 4d 59 a2 bc d8 40 60 3d a7 53 2f 3d 7a 37 f6 3c
       -0.019817973 0.05474934 0.042804386 0.03005575
000080 ee e4 a5 3c 6c 47 31 3d 5a 7b 38 bc be f5 86 bd
       0.020250764 0.043281004 -0.011259878 -0.0658984
000090 2e c0 f9 bc 34 68 80 bd 30 84 98 bc 2e 05 06 3e
       -0.030487146 -0.06269875 -0.01861772 0.13087913
0000a0 9d 6e 10 3c 1e 76 32 bd ba 59 33 3d 22 2f 48 3d
       0.008815435 -0.043569677 0.04378674 0.048873074
0000b0 c2 59 39 bd 6f a5 19 bd bb 72 24 3c 9e 19 05 bd
       -0.045251615 -0.037511285 0.0100371195 -0.032495134
0000c0 ab cf 8e bc ec c5 93 bc ff 1f 65 bc fe aa df 3c
       -0.017433008 -0.018038712 -0.013984679 0.027303215
0000d0 ef c8 31 bd dc 87 8b bb 8f a5 44 bd 0a 30 d4 bc
       -0.043404516 -0.004258139 -0.04800945 -0.025901813
0000e0 18 14 31 3d f7 85 10 bc 8a b6 8b 3d a9 d0 d8 ba
       0.043232054 -0.008821002 0.06821926 -0.0016541678
0000f0 ef 73 6f bb d8 84 20 bd f9 bb d7 bc c9 82 a1 3c
       -0.0036537608 -0.03918919 -0.02633475 0.019715684
000100 de 34 50 bb 87 68 65 3e c4 86 53 3e c4 66 2b 3e
       -0.0031769793 0.22403155 0.20656878 0.1673842
000110 24 c9 36 3e 47 10 33 3e 56 ab dc 3c c6 a3 3f 3c
       0.17850167 0.17486678 0.026937168 0.0116967615
000120 8e d9 0f bb 9a 1a 11 bd fa c3 42 3c 39 fe 1e bc
       -0.002194974 -0.03542576 0.011887545 -0.009704166
000130 5b c9 e3 bb b1 ef 5c bd 51 5a 29 3d fd c5 ce 3a
       -0.0069514937 -0.053939525 0.041345898 0.0015775558
000140 eb 4c 8d bd 1f 6c 11 bd af 97 cd bc 6e 38 34 bd
       -0.068994366 -0.035503503 -0.025096742 -0.043999128
000150 3c 54 47 bd 5a 3c 91 3d 9a 5d bc bb e8 f3 74 3d
       -0.048664317 0.07091589 -0.005748463 0.05980292
000160 fe 30 f6 bc eb 16 71 3d a5 5e 9b 3d 16 3a da 3c
       -0.030052658 0.058859747 0.075864114 0.026639026
000170 ff 87 2f 3c 9e 22 05 bd e0 19 17 3c f1 59 1a 3c
       0.010713576 -0.032503717 0.009222478 0.009420858
000180 7d 2d b7 bc ff ad d7 3c 1d 6e 09 3c 3c e6 75 bd
       -0.022360558 0.026328085 0.008388069 -0.06003402
000190 17 06 a9 bc 26 b8 3c be 44 c5 80 be d8 a8 6d 3d
       -0.020632787 -0.18429622 -0.25150502 0.05802235
0001a0 50 1f 75 3e 11 dc 94 3c 23 47 aa 3c 05 34 89 3d
       0.23937726 0.018171342 0.020785874 0.06699375
0001b0 da 6e 19 bc 7c 21 84 3d 55 24 a9 3d 53 3f f5 3c
       -0.009364808 0.06451699 0.08258883 0.029937422
0001c0 99 0b f3 3d 7a 09 cd 3d 24 5f 7b 3d 84 40 62 bc
       0.118674465 0.10011573 0.06137003 -0.013809327
0001d0 49 fe c2 bc 9f 17 0c bd b1 c1 a5 bd 86 ed 43 bd
       -0.023802893 -0.034202214 -0.08093584 -0.047833942
0001e0 f4 34 02 bd 3c e8 56 3b 8c d9 0a bd b6 ad 98 3c
       -0.03178878 0.003279223 -0.033898875 0.01863752
0001f0 3b 40 79 bd f4 66 dc 3d 66 46 0c 3e 01 f1 d7 3d
       -0.06085227 0.10761824 0.1369873 0.10544015
000200 0e ae f4 3d 94 77 c5 3d 0b 66 5b 3d b7 33 5d bd
       0.11947261 0.09641948 0.053564113 -0.054004397
000210 14 68 53 bd 03 2b b5 bb fa ac c0 bb f5 03 53 3d
       -0.05161293 -0.005528809 -0.0058799954 0.051517446
000220 2f 8b 21 bc 11 29 9c bc 4f 63 18 bc f3 a4 33 3d
       -0.009859844 -0.01906255 -0.009301021 0.04385848
000230 d8 64 78 3c 63 8d 1d 3d 3b 09 e2 3c da 58 86 3b
       0.015160762 0.038464915 0.027592292 0.0040999474
000240 74 2e 8c 3c b1 ab 67 3d 53 3c 91 3d a2 96 9c 3d
       0.017111994 0.056560222 0.07091584 0.076459184
000250 e5 3b 8d 3d 9c 61 b5 bc be bd 86 bd 84 69 ca bc
       0.068961896 -0.02214127 -0.06579159 -0.024708517
000260 ca 9d a8 bb 4e 2c ac bd 98 67 de 3d 4c d9 89 ba
       -0.005145763 -0.08406888 0.10859603 -0.001051703
000270 a4 24 89 3c 1c 64 29 bd 1e 0e 0a bd 47 83 27 3d
       0.016741104 -0.041355237 -0.03370487 0.04089668
000280 38 16 0d bd 1e 38 5b bc 34 ec 0e 3d fe 98 47 3c
       -0.034445018 -0.013380079 0.03489323 0.012182472
000290 d5 7f 8d 3c de 20 59 3d ce 0e 73 3c 06 20 bf bc
       0.01727287 0.05300986 0.014835073 -0.0233307
0002a0 17 96 52 ba 37 ce 8b 3d a4 68 bf bd 7c 4d 9b bd
       -0.00080332294 0.06826442 -0.093461305 -0.07583138
0002b0 74 bf bd bd 21 b3 1a be 28 02 9d bd 57 e7 58 bd
       -0.092650324 -0.15107395 -0.07666427 -0.052954998
0002c0 d6 1c 7f 3c 83 d7 55 3d b4 92 0e 3d 4d a9 0a 3d
       0.01557084 0.05220748 0.034807876 0.033852864
0002d0 86 26 08 3d 52 6f b5 bc 23 6d 62 3d 02 46 97 3c
       0.033239864 -0.022147808 0.055279862 0.018466
0002e0 bd a6 c8 bc a1 5e 0b bd 2e 18 3f bd b3 c4 e6 bb
       -0.02449357 -0.034025792 -0.04665392 -0.0070424913
0002f0 3f 7e 11 3c 78 42 ed bc 66 b0 2d 3d 79 51 ce 3c
       0.008880197 -0.028962359 0.042404555 0.025185334
000300 b2 43 93 3d df 27 02 bd c8 ee 52 3d 97 27 85 3e
       0.07190646 -0.031776305 0.05149725 0.26006767
000310 41 ac 11 3e f0 10 88 3e 9a 3b b3 3e dd a3 b7 3e
       0.14225866 0.26575422 0.3500641 0.35867205
000320 43 75 f5 bd 50 83 ac bd c2 c0 40 be eb 6e 20 be
       -0.119852565 -0.08423483 -0.18823531 -0.15667312
000330 86 ec 0e bd 11 24 b9 be 03 81 48 be 86 64 a4 be
       -0.034893535 -0.3616033 -0.19580464 -0.32107943
000340 e2 d1 9f be ce eb 85 be b2 b6 72 ba 99 57 91 3d
       -0.31214815 -0.26156467 -0.0009258791 0.07096786
000350 ce f8 a9 3d bc b4 16 bc 3b 94 4f bc ed fd 3c bd
       0.08299409 -0.009198364 -0.012669618 -0.0461406
000360 a2 4d 84 bd 0e 59 5a bc 12 48 81 bd 48 a1 99 3d
       -0.0646012 -0.013326896 -0.063125744 0.07501465
000370 69 5c 7f 3c 91 2d d9 bc 46 e4 63 3d a2 3d 57 bd
       0.015585997 -0.026510986 0.05563762 -0.052549012
000380 f1 42 51 3c a1 00 f1 3c e7 23 cb 3c 06 bd 14 3d
       0.012772308 0.029419245 0.024797393 0.03631308
000390 74 6f 5c bc 6a 0c 57 3d 04 c7 c0 bd aa 01 a4 bc
       -0.013454307 0.052502073 -0.09412959 -0.020020325
0003a0 b0 e9 ac bd b1 d7 57 3c 2c 2a 71 3b f0 03 1b 3d
       -0.0844301 0.013173983 0.0036798818 0.037845552
0003b0 0f 29 a1 3d c2 5f 62 bc c1 69 d1 bb aa 22 ad 3c
       0.078691594 -0.013816776 -0.0063907807 0.021134693
0003c0 bd db 33 3d b4 2a e1 bc c8 f4 03 3d ad 72 ba 3c
       0.04391073 -0.027486183 0.032215863 0.02275976
0003d0 e9 bf 06 bc 0a 06 0a 3d 3d e3 dc bc b4 bd 37 bd
       -0.008224466 0.033697166 -0.026963824 -0.04485865
0003e0 7b 95 60 bd 11 3d 2c bd 52 85 00 be d3 73 30 be
       -0.054830056 -0.042050425 -0.12550858 -0.17231683
0003f0 50 e0 04 be 55 c1 ad bd 65 db 8c 3c 89 c9 fb bd
       -0.12976193 -0.08484141 0.01719446 -0.12294299

conv2.bias f4 [64]
000000 71 8c 8a 3d d6 fd 9c 3b bd 27 d6 bc db f1 11 bc
       0.06765068 0.004791002 -0.026141996 -0.0089077605
000010 5d 1d 3c 3d de 06 a0 3c cf 3a 21 bd 0e 97 4c bd
       0.04592644 0.019534525 -0.039362725 -0.049948744
000020 20 96 d9 bd ae 59 83 bb 23 a5 f4 bc 9e 49 24 3d
       -0.10624337 -0.0040084934 -0.0298639 0.04010927
000030 2e c4 08 bc 8c 3b a0 3c 85 d7 03 bc 4b 65 4e bd
       -0.008347554 0.019559644 -0.008046989 -0.05038957
000040 66 88 8e 3d 7b bc 3d bd fb 50 86 bd 00 03 4d bd
       0.0695961 -0.046322327 -0.065584145 -0.05005169
000050 5e 71 c7 bc bd e1 3c bd 3d 4f e6 3c e6 ce 90 bc
       -0.02434605 -0.04611372 0.028113956 -0.017676782
000060 d6 6f 76 3c 73 c2 3a bd 41 06 8b bc 36 ca 13 3d
       0.015041312 -0.045595597 -0.016970756 0.036081515
000070 49 eb 3a bd b4 9f de 3c 8f 41 0a bd d9 cb 77 3d
       -0.04563454 0.027175762 -0.033753928 0.06049714
000080 cc 05 2e bd 81 fc a3 3c 61 37 5d 3d 89 b6 bb bc
       -0.042485997 0.020017864 0.05400789 -0.022914188
000090 00 75 bd bd 18 52 4c bd fd de 69 bd 3a 45 cd bc
       -0.092508316 -0.04988298 -0.057097424 -0.025057424
0000a0 77 e4 15 3d 3e f9 96 bd 78 7e 3f bd 34 ca 57 3c
       0.036594834 -0.07371758 -0.04675147 0.013170768
0000b0 44 c8 24 bd 90 d6 cc bb 0c 8d 0f 3d 2a 4c 9d bc
       -0.04023005 -0.006251164 0.035046622 -0.019201357
0000c0 fb 2f 38 bd c3 ea 30 3d 73 b5 9e 3d 76 cf 23 3d
       -0.044967633 0.043192636 0.077494524 0.039992772
0000d0 c1 92 2a bd 72 61 3d bd d2 a5 5b bd 5a b7 e4 bb
       -0.04164386 -0.04623551 -0.053624935 -0.006979865
0000e0 de 48 4c bd 7d 5b 88 bd 36 88 fa 39 84 93 11 3d
       -0.04987418 -0.06658075 0.000477852 0.035541072
0000f0 c0 b9 a9 bc 9a 9e 9e 3c bb 16 2b 3d c1 42 4f bd
       -0.020718455 0.019362736 0.041769724 -0.05060077

lstm.weight_ih_l0 f4 [256, 64]
000000 aa 36 e3 3d 1f 78 58 bd d9 99 19 3d 96 82 68 3d
       0.11094411 -0.05284893 0.037500236 0.05676516
000010 36 bf 15 3e 24 0e 2c bd 87 98 dd 3c a9 ab c1 bd
       0.14623722 -0.042005673 0.02705027 -0.0945657
000020 d8 aa 08 bd 70 7a 5d 3d 46 ca b3 3d 31 89 20 3e
       -0.033366054 0.054071844 0.08778815 0.15677334
000030 f6 98 a3 3d bf 43 f0 3d 34 ec 64 3e 39 95 a9 3d
       0.07988159 0.117316715 0.2235573 0.08280415
000040 26 c9 60 bb a2 0b 35 3e 49 80 71 bc 62 b5 ce bd
       -0.0034299581 0.17680219 -0.014740058 -0.1009319
000050 bc 51 a7 3c 36 d5 30 3d 24 19 b0 bd 8e 51 f6 3d
       0.020424716 0.043172084 -0.08598545 0.12027274
000060 0e 86 fb bd 0c b8 31 3e 1b 8c b6 bd 05 d9 29 bd
       -0.12281428 0.17355365 -0.08913442 -0.04146673
000070 99 a1 c2 3b aa 4a 5f 3d 51 14 4e 3e 5b bd 48 bc
       0.005939674 0.054514565 0.20124938 -0.012252177
000080 24 f0 19 3d 15 4e 74 3d b6 6b 24 3e 3c 8f 4a 3b
       0.03758253 0.059644777 0.16056713 0.0030908128
000090 d8 bf 08 3d b2 03 03 bd d3 ec 8f 3d 16 40 c0 3d
       0.03338608 -0.031985946 0.070275925 0.093872234
0000a0 02 d5 cb bc f8 c9 16 3e eb c5 94 bc e0 db df 3d
       -0.024881843 0.14725482 -0.01816078 0.1093061
0000b0 60 1e d0 bb 03 2b 69 3d 2b a1 bc bd d5 9d 24 3e
       -0.006351277 0.056925785 -0.09210428 0.16075833
0000c0 9d 5f 3a 3c 96 28 0d 3e 61 c6 69 3d 90 4a 34 be
       0.011375335 0.13785014 0.057073954 -0.17606568
0000d0 60 a1 06 be bb 88 ef 3d f3 14 ce 3c 20 93 f3 3d
       -0.13147497 0.11696001 0.025156474 0.11893296
0000e0 3c 66 24 bd 86 3f 10 bc f0 3b a9 bc 1f c9 06 bd
       -0.04013656 -0.008804208 -0.020658463 -0.032906648
0000f0 e2 93 b5 3d e8 5c 67 3a 8b 83 fb 3d 3f 10 33 3e
       0.08866097 0.0008825795 0.12280949 0.17486666
000100 06 f8 7f 3d 47 0c 1e bd d7 84 6f 3d 45 5a 31 bd
       0.062492393 -0.038585927 0.058476295 -0.04329898
000110 04 20 66 3d f0 27 eb 3c 6c 60 66 3e 5e 0a 6d bd
       0.056182876 0.028705567 0.2249772 -0.057871215
000120 19 9e 9a bd e9 25 06 bd 65 8b cd 3d 6d b5 8b 3e
       -0.07549686 -0.032750998 0.10036353 0.27286854
000130 41 0e 8d 3e 37 27 df bd 6c 46 4a 3e 3b de a7 3d
       0.27549937 -0.108961515 0.19753426 0.08196684
000140 6f c6 ef 3b 90 b0 37 3e 94 5f 9e 3d 0a 62 39 bd
       0.0073173563 0.17938447 0.07733074 -0.045259513
000150 3b 23 f4 bd 4a af 91 bd 5d e3 7e bd b1 19 08 3e
       -0.11920782 -0.07113512 -0.06222855 0.1329105
000160 46 c4 4f 3c 4d 5b 70 3e d7 2b 24 bd ec 1f 1f be
       0.012681073 0.23472328 -0.04008087 -0.15539521
000170 ad a8 da bd 93 b3 bd 3d 4c cc a3 3d 1e 65 b2 bd
       -0.106767036 0.09262767 0.07997951 -0.08710693
000180 93 5e 6f 3d ad ac 20 be dd 2e 3e 3e c4 ee 8c 3d
       0.058439802 -0.1569087 0.18572564 0.068814784
000190 73 00 32 3e 2b 1d 4a bc d7 c0 de 3e ab e4 75 3e
       0.17382984 -0.012336056 0.435065 0.24013011
0001a0 f8 2a 15 3e 90 98 6b 3d 68 b9 57 be 01 47 db 3d
       0.14567173 0.05751854 -0.2106682 0.10706902
0001b0 70 ee 23 bc 94 7a 8c 3d 3b 19 0e 3e 0c 82 14 bc
       -0.010005578 0.068593174 0.13876812 -0.009064209
0001c0 18 4a a4 3d 9d e2 3e 3e 3e 7b 50 be 89 5a 6e be
       0.08021945 0.18641134 -0.20359513 -0.23276724
0001d0 4f 64 d2 bd 68 35 d9 bd a7 56 dd 3d 2c 53 47 bd
       -0.102730386 -0.106058896 0.10807543 -0.048663303
0001e0 27 d2 19 3d 2a ed 19 3b a2 ce c7 3d 35 c0 2e 3e
       0.037553933 0.0023487308 0.09756209 0.17065509
0001f0 57 d4 4c 3e 82 9e a5 bc 47 4c b5 3e a3 96 a2 3e
       0.20002876 -0.020217184 0.35409757 0.31755552
000200 64 2c 39 3d 4b c6 d0 3d b5 bd 3c bd 15 b0 e0 bd
       0.04520835 0.101940714 -0.046079356 -0.10971085
000210 ba bf a1 3d 99 82 6d bc ce 42 38 bd 77 94 ba 3d
       0.07897897 -0.014496469 -0.044985585 0.09110349
000220 80 7a e7 3d f1 57 8d bd d2 47 b4 bd 74 c6 0d 3e
       0.11302662 -0.06901539 -0.08802761 0.13845235
000230 87 f7 53 bd 55 60 b4 3d 24 f5 8f bd 16 f2 ce 3c
       -0.051749732 0.088074364 -0.07029179 0.02526192
000240 75 58 25 be aa e2 0b be 6c c8 8f bd de c4 57 bd
       -0.16147025 -0.13660684 -0.07020649 -0.05267798
000250 3f 20 bf bd 7b 09 8d 3d fe 72 2c be 5f 4b e7 bd
       -0.09332322 0.06886574 -0.16840741 -0.11293673
000260 66 f9 77 3d de 97 95 bd 88 3a 38 3d 87 ee f9 3d
       0.06054058 -0.07304357 0.044977695 0.122036986
000270 80 b6 56 be 07 ba c2 3d 47 b2 79 3d fb 42 8f 3e
       -0.20968056 0.09508138 0.060961034 0.2798079
000280 aa 82 72 bd 61 97 80 3e 0e 3c 4e 3e 44 2e af bd
       -0.059206642 0.25115493 0.20140097 -0.08553746
000290 35 fe 0c 3e 94 e2 f7 3d e4 b7 c9 bd dc 10 25 3c
       0.13768847 0.12103763 -0.098495275 0.01007482
0002a0 65 0f 1d 3b d7 2a 03 3e 6e 6d a8 bc 54 ee a5 3d
       0.0023965475 0.12809311 -0.020559993 0.08102098
0002b0 fe b2 a8 3d f8 8d 04 3e 3f 6a 91 3d c8 1e ad 3d
       0.08237265 0.12944782 0.07100343 0.08453137
0002c0 ef bf da 3c 43 e3 73 bd 29 25 b1 3d 01 e0 2a 3e
       0.02670285 -0.059542906 0.08649666 0.16687013
0002d0 4d af 87 3d 52 46 88 bd 98 f3 3a bd 53 67 f3 bd
       0.06625233 -0.066540375 -0.045642465 -0.11884942
0002e0 5c ce b9 bd a6 2d b8 bd 42 7f 26 3e f3 43 77 be
       -0.09072563 -0.08993082 0.16259483 -0.24147014
0002f0 e3 ae 8f bd 04 a4 71 be 7e 47 3b be d5 2b a5 be
       -0.07015779 -0.23597723 -0.18288991 -0.32260004
000300 21 51 97 bd a1 83 ea bd 61 52 06 3d 75 e6 60 3d
       -0.07388521 -0.114508875 0.032793406 0.05490728
000310 a4 79 f3 3d 26 4b 2c 3c 6c b9 1e be 8e 97 bd 3d
       0.118884355 0.010515964 -0.1550042 0.092574224
000320 a8 20 01 be 2d 85 0e bd 32 1f c1 3d b8 95 19 bd
       -0.12610114 -0.034794975 0.09429778 -0.0374963
000330 fb 72 3f 3d ba 50 b1 bd ce 35 75 bd d2 3e f6 bc
       0.046740513 -0.086579755 -0.059865765 -0.030059252
000340 2a 19 db 3d f2 fc 5f bd 12 e1 c8 3d 46 3c db 3c
       0.10698159 -0.054684587 0.09808554 0.026762139
000350 e5 7d 21 3e 58 c3 86 3b 6b 78 91 3c 76 a0 ab 3d
       0.15770681 0.0041126423 0.017757615 0.08380215
000360 4f 7e 55 3e bf 44 3c 3d 69 4f f6 bd 75 be d3 bd
       0.20848964 0.045964 -0.12026865 -0.10339061
000370 89 cd 18 3e 16 89 be bc c7 c2 23 bc b9 2d 46 3e
       0.14922155 -0.023258727 -0.009995169 0.1935338
000380 0d b2 ef 3c 54 e5 02 3e e2 7e 23 bd 25 4c 16 bd
       0.029259706 0.12782794 -0.039915927 -0.03669371
000390 0d 63 4b 3c 91 b5 e8 3d 10 7f 69 be ac c5 2f be
       0.012413752 0.11362756 -0.22802377 -0.1716525
0003a0 29 fa 34 bd cf b6 99 bd c6 db 80 3d ee eb 22 bd
       -0.044183884 -0.07505571 0.062919185 -0.03977578
0003b0 e0 0b 35 3d d7 cc e3 3b 9e 19 c0 bd 77 89 33 bd
       0.044200778 0.006951909 -0.09379886 -0.04383227
0003c0 10 53 b2 bc 4e cd dc bd 51 7f 4e 3e 14 3e 9c 3d
       -0.021768123 -0.10781346 0.20165755 0.07629028
0003d0 8d b8 c6 bd c0 b0 84 bc c7 5f bf 3d 6e 5e e0 3d
       -0.09703169 -0.016197562 0.0934444 0.10955511
0003e0 02 c5 6d bd f9 bf e0 bd 72 3a 17 be 0c b0 2c 3d
       -0.05804921 -0.10974116 -0.14768389 0.04216008
0003f0 07 41 20 bd 98 79 63 3d b7 b5 26 be b3 e7 56 3d
       -0.039124515 0.055535883 -0.16280256 0.05246706

lstm.weight_hh_l0 f4 [256, 64]
000000 3b 03 91 3d 02 51 67 bd 4b 56 ac bd a1 e1 c2 bd
       0.07080694 -0.05647374 -0.084148966 -0.095156915
000010 2c 50 d2 3d 81 0c 30 3e d0 45 99 bc 2d 60 d6 bd
       0.10269198 0.1719227 -0.018710047 -0.10467563
000020 02 c3 20 be e4 66 29 3c c5 86 a5 bd e8 09 8e bd
       -0.1569939 0.010339472 -0.08082346 -0.06935483
000030 09 0c 0d be d2 bb 22 3d ac 12 3c bb 8d 6d ec 3d
       -0.13774122 0.0397299 -0.0028697653 0.11544333
000040 cb 16 3f 3d 20 ca 18 be 5c eb 53 bd a4 84 8e bb
       0.046652596 -0.14920855 -0.051738128 -0.004349308
000050 63 82 c3 3d 56 17 88 3d f2 a1 10 be a7 94 00 be
       0.09546354 0.06645076 -0.14124277 -0.12556706
000060 a1 58 e5 bb d0 dd 39 be d2 bc 3a 3d eb a2 34 be
       -0.006999091 -0.18151021 0.04559023 -0.17640273
000070 42 ac 04 bb bd cb 0e 3c 0b 8e f4 bd a4 11 91 bc
       -0.0020244275 0.008715567 -0.11941155 -0.017708607
000080 43 71 96 3c be 97 48 3d f3 d7 91 3c 2c cd 68 bd
       0.018364554 0.048972838 0.017803168 -0.056836292
000090 5d e1 8c 3d 32 c9 c2 3d 21 ed 51 bc 17 f7 22 3d
       0.06878922 0.09511031 -0.012812884 0.039786424
0000a0 64 08 c5 3c e1 7a 6d 3c f9 6d 04 bd 0a f6 02 bd
       0.024051853 0.014494629 -0.03233144 -0.031972922
0000b0 f4 53 67 bd 6b 29 1c bd 5a 94 02 be 67 8c c3 3c
       -0.05647655 -0.038125437 -0.12751904 0.02387066
0000c0 00 56 56 bc 4d 22 80 bd 54 68 17 be 9c a5 b2 bd
       -0.013082027 -0.06256542 -0.14785892 -0.08722994
0000d0 f8 c6 9e bc 96 1b f3 3d 02 68 98 bc b3 cb eb 3d
       -0.019381985 0.11870496 -0.018604282 0.11513462
0000e0 7e 1d 4d 3d 96 c8 17 3d d2 62 f8 bc ee 94 e0 3d
       0.050076954 0.037056528 -0.030320559 0.10965906
0000f0 7f b6 0c 3e 7a 66 69 be a2 ee b7 bd 22 5e 21 3d
       0.13741492 -0.22792998 -0.089810625 0.039396413
000100 7f d9 41 3e d1 22 68 bd 9e 3c ee 3d 6c 50 21 3e
       0.18930624 -0.05667383 0.116326556 0.15753335
000110 12 53 fd bd 63 5c 5e 3d 4d 9a 2d be a0 ec 87 3e
       -0.1236936 0.054287326 -0.16953392 0.26547718
000120 e3 69 fa bc 89 f4 97 bd c8 38 0a be 1f 11 58 bd
       -0.030568069 -0.07419688 -0.13498223 -0.052750703
000130 b4 f1 4e 3e d9 5c 36 be c9 0c 7a bd 54 69 13 be
       0.2020939 -0.17808856 -0.06104735 -0.14395648
000140 56 bd 40 3e 90 a9 e0 3d 5f f3 51 bd e4 fc 76 3d
       0.18822226 0.109698415 -0.051257487 0.06029977
000150 db fe 5a be fb ea 3c 3e 07 de 8f be 1a 2f 35 3d
       -0.21386282 0.18449013 -0.2809908 0.044234373
000160 fa c3 5e 3e 54 16 37 3e 47 92 40 bc b5 66 0a be
       0.21754447 0.17879611 -0.011753625 -0.13515742
000170 cb 58 b8 bd 93 fd 3b bd 67 df c6 3e 06 2e 9a be
       -0.09001311 -0.045896124 0.38842317 -0.30113238
000180 f4 47 c3 bd cb 77 73 bd 79 07 5c be 7b 2b 16 be
       -0.09535208 -0.059440415 -0.21487226 -0.14665024
000190 29 35 be bd 5f fe 44 bc 29 54 99 3e 37 98 e1 bc
       -0.09287483 -0.012023537 0.29947022 -0.027538402
0001a0 27 76 33 be cd 2a 27 3e 51 a7 1b be 57 6d d0 3d
       -0.1752554 0.16324921 -0.15200545 0.10177105
0001b0 3d 5f 8f bb f2 22 67 ba a2 e2 64 3d 4b f1 ec bd
       -0.004375367 -0.0008817158 0.055880196 -0.115694605
0001c0 32 83 e2 3d 59 0d bf bd e3 92 f0 bd 92 26 8d be
       0.1106018 -0.09328718 -0.117467664 -0.2756849
0001d0 7a bb d9 bc a9 e6 62 3e 3d e5 5c 3e 44 bf 17 bd
       -0.026578654 0.22158302 0.21571822 -0.03704764
0001e0 5c b3 92 3c 17 a9 6d 3e f7 ba ac 3d 24 71 bb 3e
       0.01790779 0.23209034 0.08434098 0.36609757
0001f0 63 6b 57 3e b3 82 0b 3e 98 04 50 3d ef 2c 1f 3d
       0.21037059 0.13624077 0.05078563 0.03886121
000200 bb 87 ba 3d a2 41 c9 bc e1 b7 2b be 5b 6a 1d 3e
       0.0910792 -0.024567429 -0.16769363 0.15372603
000210 ab a1 8b 3d 5f 79 db bb 96 ce a4 3d d9 ed 2d bd
       0.06817945 -0.006697818 0.08047216 -0.042463157
000220 d1 0a 99 bd 16 6e 8d bd a8 2a 81 be 4b a2 47 be
       -0.07472766 -0.06905763 -0.25227857 -0.19495504
000230 bc db d3 bd 5b 7d 3c be 27 01 34 bc af 32 46 3d
       -0.103446454 -0.18407194 -0.010986603 0.04838818
000240 15 40 65 be e7 66 02 be b7 57 32 3e de f3 43 bb
       -0.22387727 -0.12734567 0.17416273 -0.0029899995
000250 c3 57 ab 3d e6 d4 fe 3c 4f 21 c9 bd 95 d2 a3 3c
       0.083663486 0.031107377 -0.09820806 0.019997874
000260 0d c5 06 be 3a a4 89 3d fe 7a c2 bd b4 2a 87 3e
       -0.13161106 0.06720777 -0.09496115 0.26399767
000270 0c d5 03 3b 2a ac 33 3e c3 e1 c2 bc 79 e0 b1 bd
       0.0020116 0.17546144 -0.023789292 -0.08685393
000280 f0 5f 6b 3d 71 56 34 3d b1 55 78 bd 92 a8 c3 bd
       0.05746454 0.04402775 -0.060628597 -0.095536366
000290 42 3e 59 3e db f8 2f bd 5f e0 90 bd 9b 09 be bd
       0.21215156 -0.042961936 -0.070740454 -0.09279176
0002a0 a4 b6 37 be 32 20 f5 3c a7 49 6a 3e ed 24 04 be
       -0.17940766 0.029922578 0.22879659 -0.12904711
0002b0 92 a3 da 3c 14 f2 4b be 93 95 33 be 35 6a 08 be
       0.026689325 -0.19916564 -0.17537527 -0.13321765
0002c0 9b ea 3b 3e 24 05 a7 bc 6c f6 f3 bd 1f 8c a5 bc
       0.18351214 -0.020388193 -0.119122356 -0.020208417
0002d0 b8 f8 02 3d b3 fc 8d 3d 78 e8 9f 3d de c0 ad 3d
       0.031975478 0.06932964 0.07808012 0.08484052
0002e0 ca 38 0b 3e e2 6f a3 3d b3 a8 80 be 28 75 28 be
       0.13595882 0.07980324 -0.25128707 -0.16450942
0002f0 fc ee aa 3d ff 7e a7 bd 85 d3 d7 3c c8 19 83 3b
       0.08346364 -0.081785195 0.026345978 0.004000876
000300 4a 63 a8 bb 87 09 14 3d 7a 5a a2 3d 6e 3a fe bd
       -0.0051387893 0.0361419 0.07927413 -0.12413488
000310 31 5d 04 3e bf b8 94 3e d0 8b 17 bd f0 ba d7 3d
       0.12926175 0.290472 -0.03699857 0.105337024
000320 7e c8 11 3e fe b5 06 be 70 e6 9a bd 2a e8 0d bd
       0.14236638 -0.13155362 -0.07563484 -0.034645237
000330 49 f2 46 bb 9f ef a1 3c 65 be b2 bd 8b 21 17 3d
       -0.0030356816 0.01976758 -0.08727721 0.036897223
000340 31 0d d5 bd 77 88 93 bc 03 18 0c 3d 82 09 d1 3d
       -0.10402907 -0.018009407 0.034202587 0.102068916
000350 4e 0a d4 3d c7 e3 06 3e a5 e7 70 bc 16 f7 76 bd
       0.10353528 0.13172828 -0.014703666 -0.060294233
000360 b5 0d 53 bd 70 d4 10 3e 50 0a fd bd c9 e4 14 3d
       -0.051526744 0.14143538 -0.123554826 0.036351
000370 21 93 0f 3e 5b c1 94 3d 48 3d 91 ba 23 d9 19 3e
       0.14020969 0.07263442 -0.0011080885 0.15024237
000380 74 17 85 3d 46 4a b4 3c fd c8 24 bd a3 72 37 be
       0.06498614 0.022008073 -0.04023074 -0.17914824
000390 4e 15 03 3e 59 dc 17 3e d6 bf 07 3b 6e 60 02 be
       0.12801096 0.1483015 0.0020713708 -0.12732098
0003a0 48 27 f3 3d c5 58 31 3e cf 6b 85 3d 38 7b 38 be
       0.11872727 0.17319019 0.065147035 -0.18015754
0003b0 27 11 ec 3d 15 91 c8 3d 1d ba 15 3e b0 11 d5 3d
       0.11526709 0.09793297 0.14621778 0.10403764
0003c0 1c 19 1f 3c 66 36 57 3d 73 c8 23 be 25 57 53 3d
       0.009710576 0.052542113 -0.15994434 0.05159678
0003d0 fc 47 03 3d 33 f6 ab bc 53 99 88 3c 17 14 1f 3c
       0.03205107 -0.02099142 0.016674673 0.00970938
0003e0 6a 57 43 3d 61 97 3c bd c3 a4 d6 3d 80 d0 37 bd
       0.047690786 -0.046042804 0.104806446 -0.044876575
0003f0 2a a3 06 bc 64 19 d4 bd ec 22 62 bc dc 1e b1 3d
       -0.008217612 -0.103564054 -0.013802271 0.08648464

lstm.bias_ih_l0 f4 [256]
000000 70 dd 76 3d 3c fa 67 bd 2c 50 10 bb 57 1c 56 3d
       0.060269773 -0.056635126 -0.0022020442 0.05227312
000010 d1 50 22 3d f7 d1 b6 bd c7 61 b2 3d e7 60 da bd
       0.039627854 -0.08926766 0.08710056 -0.10663014
000020 5f 86 39 3e 2f 23 39 3e 4f 52 ec 3d 22 32 4b bb
       0.18117665 0.18079828 0.115391366 -0.0031005223
000030 1d e4 0f 3e 5c 58 37 3d ce 89 09 3e 53 21 9b bd
       0.14051862 0.044762 0.13431475 -0.075747155
000040 77 a3 0d 3e 5a cb db 3c f1 ea 2e 3e f3 c2 dd 3d
       0.13831888 0.026830364 0.1708181 0.10828199
000050 99 f6 71 3e ed 8b 96 bd d2 e8 d2 bc 39 5b f5 3a
       0.23629226 -0.073509075 -0.025745783 0.0018719203
000060 2d c1 38 bd 48 0e d5 bc 9a 5d 7f 3d 2f 73 e3 3d
       -0.0451061 -0.026007786 0.062345125 0.11105954
000070 92 b6 20 3e 3a 02 12 bd 2c 0c 9c bc c5 be d8 bc
       0.15694645 -0.035646655 -0.019048773 -0.026458154
000080 50 59 8c bd 1b 0c e3 bd b5 18 8e bd 3d a1 a8 3a
       -0.068529725 -0.11086293 -0.06938306 0.0012865436
000090 b1 b5 2c 3b 3b b3 ba 3b 4e 06 c0 bd bf 91 8d 3d
       0.0026353414 0.0056976355 -0.093762025 0.069125645
0000a0 46 ee 96 3d 25 c7 85 3d 82 8b e5 bd 9b 13 4e 3d
       0.07369666 0.065321244 -0.1120825 0.050311666
0000b0 61 f3 fa 3d 37 07 f3 3d fc 61 13 3e 08 51 be bc
       0.12253452 0.118666105 0.14392847 -0.023231998
0000c0 a0 e8 16 3e ed d1 60 3a fb ad 69 3d 07 54 2b 3e
       0.14737177 0.0008576203 0.057050686 0.16731273
0000d0 44 8e af bd b2 ca a3 3d a2 c2 ab bd 50 6a aa bd
       -0.08572057 0.079976454 -0.08386733 -0.08321059
0000e0 96 f8 f8 3d 86 d2 31 3d d8 9e f3 3d ef 53 33 3d
       0.12156789 0.04341366 0.118955314 0.043781217
0000f0 3d 5e 1a 3d 6e 51 a4 bd 23 16 60 bc ef dc d2 bd
       0.03768753 -0.08023344 -0.013677153 -0.10296046
000100 2a 4b 0d 3e 3e b4 1a 3d 33 ad 00 bc 11 9a 0e 3e
       0.13798204 0.03776955 -0.007853794 0.13925959
000110 5b da 11 ba 93 58 26 3e a9 cd 07 bd e1 8d 34 3d
       -0.00055638485 0.16244726 -0.033155117 0.04408062
000120 84 e7 9b 3d 19 92 c3 3d 1a 85 a4 3d 17 31 1e bd
       0.076125175 0.0954935 0.080331996 -0.038621034
000130 6b a3 28 3e 6f f8 91 bc 6a fd 09 3e 68 0a 78 3d
       0.16468589 -0.017818658 0.13475576 0.0605568
000140 87 17 b9 3d c3 10 67 bd 35 c4 aa 3d 5a 57 ff 3c
       0.090376906 -0.05641247 0.08338205 0.031169582
000150 14 34 f3 3d 94 ef a5 bd 85 5d 46 3e 65 d4 9a 3c
       0.118751675 -0.081023365 0.19371612 0.018900106
000160 f3 4f 7d 3d 8f af fb bd 68 c4 2b be b3 6c 78 3d
       0.061843824 -0.122893445 -0.16774142 0.06065054
000170 b9 51 a6 3d 2a 20 12 be b0 92 d8 3d ce 8b 65 3d
       0.08121056 -0.14270082 0.105748534 0.05604153
000180 5d f1 06 3e 4e 38 ce bc 3e 62 27 3c 68 49 bd bc
       0.1317801 -0.025173333 0.010216294 -0.023106292
000190 56 15 c1 bd 27 4a fc 3d 17 8f 1a bd 6f 98 25 be
       -0.09427898 0.12318831 -0.037734117 -0.1617143
0001a0 63 a6 c4 3c 7c 9a ed 3d 0f b5 bc 3d 18 51 ca bd
       0.02400512 0.11601731 0.09214222 -0.09878749
0001b0 e4 8f ba 3d 59 e7 a3 3d e1 71 29 3d b9 d5 fa 3d
       0.09109476 0.080031104 0.04136837 0.122477956
0001c0 75 66 01 3e 2d 15 48 bd 4a 99 fe 3d 52 91 31 3e
       0.1263674 -0.04884832 0.12431581 0.17340592
0001d0 4d 75 0d 3e 80 ac a4 bd af e4 ba 3d 94 9c 66 bd
       0.13814278 -0.08040714 0.09125649 -0.05630167
0001e0 f6 83 98 bd 7d 76 9c 3d 56 1c c7 bc bd 43 73 3c
       -0.074470446 0.07639787 -0.024305504 0.014847693
0001f0 d2 bc 01 3d 1a 78 05 be 88 2f e7 bd fa b8 f0 bd
       0.031674214 -0.13034096 -0.11288363 -0.117540315
000200 d6 d9 95 3d 53 d4 28 bd 5b cd a4 bd f1 db 4f 3d
       0.073169395 -0.041218113 -0.08046981 0.05074686
000210 8f 73 f3 3d 8b c7 0e 3c f2 50 ab bd 3f 2c c6 bc
       0.118872754 0.008714567 -0.083650485 -0.02419102
000220 48 dc 46 bd 91 5b e1 bd df 60 83 3d 87 e5 63 bd
       -0.04854992 -0.11003793 0.06414961 -0.055638816
000230 80 51 03 3d c9 e6 f7 bd 8f f9 1d be 35 6c da 3d
       0.032060146 -0.12104566 -0.1542723 0.1066517
000240 cf 99 b0 3d 7b 8f 30 bd 30 c1 0b 3d df 1b 3a 3e
       0.08623087 -0.043105584 0.034119785 0.18174694
000250 f9 c0 b1 bd de 27 28 3e af f7 3a bd 81 81 51 bb
       -0.08679385 0.16421458 -0.045646366 -0.003196806
000260 c8 0e 06 3e 9f 09 fb 3d 9a 90 fb bd 83 73 90 bd
       0.13091576 0.122576945 -0.1228344 -0.07053282
000270 e5 24 65 3d 0f 6c 65 3d 87 d0 88 bd f8 00 a3 bd
       0.05594339 0.056011256 -0.066803984 -0.07959169
000280 00 5f cc bd bf c0 d8 3d a0 9e 8c 3b 99 94 1e be
       -0.09979057 0.105836384 0.0042913705 -0.15486373
000290 08 b4 7b bd c9 ac a9 bd 24 29 15 3e 54 7a 3c 3c
       -0.061450988 -0.08284909 0.14566475 0.011503775
0002a0 a4 ad 41 3d 1f 2a bd 3d d1 fd 9e 3d 58 cf 51 bc
       0.047284737 0.092365496 0.077632554 -0.012805782
0002b0 ae 23 e2 3d b3 14 b8 bd 52 b0 9a bc 50 61 09 be
       0.110419616 -0.08988323 -0.018882904 -0.13416028
0002c0 61 7e 85 3d 82 0c f5 bd 24 35 cd bc 79 33 b9 bc
       0.065182455 -0.11965276 -0.025049753 -0.022607552
0002d0 de e3 ce 3c 6c fb de 3d 7c 2c e1 3d 60 ea 6d 3c
       0.02525514 0.10887799 0.10994813 0.014521211
0002e0 3e 48 fd bd 5b e4 2e 3d eb ec e0 b9 31 03 07 be
       -0.12367295 0.042698245 -0.00042901127 -0.13184811
0002f0 03 de d1 3c a3 1a e7 bd dc d3 17 be 66 89 26 3d
       0.025618559 -0.112843774 -0.14826912 0.040658377
000300 12 ae a5 3d 89 3e 5e 3d ed a3 08 bd 76 77 01 3e
       0.08089842 0.054258857 -0.033359457 0.12643227
000310 97 be 04 3e 76 f9 08 3e 07 9c 04 3d 8f a2 08 3e
       0.1296333 0.13376412 0.03237536 0.13343261
000320 9c 7b 4a 3e 7c b4 3b 3e c7 61 f4 bc 86 f5 8f 3d
       0.19773716 0.18330568 -0.02983178 0.07029252
000330 92 c1 a1 bd 2b 18 bb 3d 27 7a eb 3d 86 f2 42 bd
       -0.07898249 0.09135469 0.11497908 -0.04759457
000340 df 6f c1 b9 7a 94 59 bc 44 2d a6 bb 68 95 7a bd
       -0.0003689518 -0.0132800285 -0.005071314 -0.06117764
000350 ec 3c 86 3d 40 64 12 bc 0b b8 da 3b 50 e9 a4 bd
       0.06554589 -0.008935034 0.0066747717 -0.08052313
000360 05 59 a2 bd b1 7a 41 3c d3 b8 14 be 86 91 72 bd
       -0.079271354 0.011809037 -0.1452363 -0.059220813
000370 17 bc 2c bd 78 86 05 be 68 40 9c bc c6 cc d4 3d
       -0.042171564 -0.13039577 -0.01907368 0.1039062
000380 b9 d7 a5 bd 1a 01 c2 3d 4d b8 a4 3c f9 ac 93 3c
       -0.080977865 0.09472866 0.020107413 0.018026816
000390 8f 38 ff 3c 55 9b 04 3e 84 3e b6 3d df 6f 05 bd
       0.031154899 0.1294988 0.08898643 -0.03257739
0003a0 3a 9c 1d 3e 61 21 9a 3d e2 c5 6f bd 54 09 ad bc
       0.15391627 0.07525898 -0.058538325 -0.021122612
0003b0 eb 28 89 bd 71 53 27 3e f9 a2 08 3e fc ef 56 3d
       -0.066972576 0.16340424 0.13343419 0.05247496
0003c0 d8 7a 25 3e 0f 07 8c 3d a4 db f9 3d b5 db bf 3d
       0.16160142 0.06837284 0.12200096 0.09368078
0003d0 98 c1 c8 3d b1 06 c5 3d 90 bd e5 bc 8a b5 86 3d
       0.0980255 0.09620417 -0.028044492 0.065775946
0003e0 cd 78 97 bc 25 c2 57 3d ae 19 7a bd 67 5a 95 3d
       -0.01849022 0.052675385 -0.061059646 0.072926335
0003f0 49 f8 04 3e 60 16 1e be 05 2e e3 bd 1b 95 7a 3d
       0.12985338 -0.15438223 -0.11092762 0.061177354

lstm.bias_hh_l0 f4 [256]
000000 cc 96 23 3e 76 ac 38 3d 6d 41 ab bc 95 ba ea 3d
       0.15975493 0.045086347 -0.02090522 0.11461369
000010 51 05 32 3d 9b c3 d0 bd b9 ad 38 3e d6 c7 b6 3c
       0.0434621 -0.10193559 0.1803502 0.022312086
000020 f0 4b 4e 3e 15 32 3f 3e bc dd af bc e2 1f fa 3d
       0.20146155 0.18671449 -0.021468036 0.122131124
000030 8b 78 8b 3d 8f 71 52 3c 22 54 1f 3e ce e6 48 3b
       0.06810101 0.012844457 0.15559438 0.0030655148
000040 43 0d 36 3c 75 87 01 bd 83 ce 4a 3d f0 7f a0 3c
       0.01111156 -0.031623323 0.04951335 0.019592255
000050 0f 61 49 3e 40 79 6d 3d 6d 2c 0e 3e 35 aa 85 3d
       0.19665931 0.05797696 0.13884135 0.06526605
000060 eb 30 02 bc c3 dc 87 bd 2f 64 26 be 8f 5a ec bc
       -0.007946233 -0.06633904 -0.16249155 -0.028851775
000070 75 92 ef 3c 35 37 a2 bd b0 72 36 3d 0c 95 31 bd
       0.02924464 -0.07920686 0.04454297 -0.043355033
000080 85 ef 18 3e bb 2f af bd 92 7d f0 3c 04 e1 15 be
       0.1493512 -0.08554026 0.029356752 -0.14636618
000090 97 44 bb 3d b7 e2 ba bd a0 ed 6c bd 9b 0b c0 bc
       0.09143942 -0.09125274 -0.057843804 -0.023443034
0000a0 e2 24 40 3e 78 38 48 3c f0 a0 70 3d f3 fa fc 3d
       0.1876407 0.012220494 0.058747232 0.12352552
0000b0 ee a5 9e bd 67 9b 1a 3e d2 41 77 bc e7 d2 25 bd
       -0.07746492 0.15098344 -0.015091376 -0.040484335
0000c0 bf e3 59 3d ff 2c b5 bd 84 cd 0b 3e 71 16 f2 3d
       0.05319571 -0.08846473 0.13652617 0.118206866
0000d0 1a f1 44 bd be 8c 8c bd 07 85 a9 3d bb aa 61 3d
       -0.048081495 -0.06862782 0.08277326 0.055094462
0000e0 86 22 c4 3d 61 3a 00 be ba f6 1d 3d 2d cd 29 bd
       0.09576897 -0.1252227 0.038565375 -0.041455436
0000f0 83 e4 fd 3d d4 08 25 3c 31 0c 67 3c c5 97 84 3c
       0.12397101 0.010072906 0.014102028 0.01618565
000100 26 db cf 3d 21 e8 e9 3d c2 a4 0a 3d 79 97 0b 3e
       0.10149221 0.11421228 0.03384853 0.13632001
000110 ee 89 6c 3a 19 f2 52 3d e9 bc ec 3c 45 d7 9a 3d
       0.00090232387 0.051500414 0.028898673 0.07560591
000120 77 14 2a 3e 92 9c 37 3e 24 45 fb 3d 9f 64 03 3d
       0.16609369 0.1793082 0.12269047 0.03207838
000130 63 e9 28 bd 5d 1c 35 3e 83 55 01 bd 88 6e 04 3e
       -0.0412382 0.17686601 -0.03157569 0.1293279
000140 c2 c2 ac 3d af be 85 bc 96 04 7b 3e f0 a1 5d 3d
       0.084355846 -0.016326277 0.24513468 0.054109514
000150 df 9a 7e 3e ac d1 dd 3c ec 21 52 3d f0 31 17 ba
       0.24863766 0.027077518 0.05130188 -0.0005767634
000160 97 6e 18 3c 88 c3 b3 3d aa 96 be bd 42 44 15 3d
       0.00930371 0.08777529 -0.09306081 0.03644205
000170 29 2a ac 3c 98 12 a8 3c 73 11 1a 3e 76 3a 65 bd
       0.021016197 0.020516679 0.15045719 -0.055963956
000180 f5 d5 07 bd 4a 53 a5 bd d0 3b 38 bd 58 18 ff 3d
       -0.03316303 -0.08072527 -0.044978917 0.12455815
000190 96 17 ed 3d f6 b3 66 3d d4 ec ae bc 45 bd 01 bc
       0.11576764 0.056323968 -0.021353163 -0.0079186605
0001a0 cf a6 ec 3d 92 67 2b 3d 44 87 f3 3b b6 50 46 bd
       0.11555254 0.04184682 0.0074318964 -0.048416816
0001b0 2e 10 57 3d de bd 07 bc fa bf 9a 3d 44 1c 04 bd
       0.052505665 -0.008285014 0.07556148 -0.03225352
0001c0 19 05 35 3d b5 51 1f 3c 5e 9a 7f 3c 37 e6 17 bb
       0.044194315 0.00972407 0.015600769 -0.002317799
0001d0 13 3c c9 3d 46 2e 37 3c 37 7d 8c bd 81 40 03 be
       0.098259114 0.011180466 -0.0685982 -0.12817575
0001e0 28 58 b9 bc 48 2e 32 bd 6e 7f 44 3d 34 57 05 3e
       -0.022625044 -0.04350117 0.04797309 0.13021547
0001f0 a4 3e 54 bd b9 e0 8c bd 87 72 d3 3d 8e d8 8d bd
       -0.05181755 -0.068788 0.10324579 -0.0692607
000200 7f 77 0c 3e 09 8e f7 bd d4 29 47 3d f9 9b 86 bd
       0.13717459 -0.12087638 0.048623875 -0.06572718
000210 23 41 12 3e 59 f1 3b 3e 13 e0 0c be b6 3f f5 3d
       0.1428266 0.18353786 -0.13757353 0.119750425
000220 b2 b6 fc bd 9e 2f 8d 3d fc b9 4f bc 54 80 d2 bc
       -0.12339534 0.06893848 -0.0126786195 -0.025695957
000230 1d a9 86 bd 8a ee b4 bd 32 6f 8a bd bf 68 a5 bd
       -0.065752245 -0.0883456 -0.0675949 -0.08076619
000240 4b d9 7b 3d 95 49 da bd f5 a1 3d 3d cc 1d b4 3d
       0.061486524 -0.10658566 0.046297032 0.08794746
000250 c0 b9 b1 3d 68 52 20 3e db 4e b5 3d 8b de 8b 3c
       0.08678007 0.15656435 0.08852931 0.01707389
000260 d6 64 f0 3d d6 49 09 bd 69 0d 10 be 91 b0 07 3d
       0.11737983 -0.03351768 -0.14067616 0.03312737
000270 c2 fc ef bd 47 4a 2d 3d 7a 92 09 bd c6 c5 41 3c
       -0.117181316 0.042307165 -0.033586957 0.011826938
000280 46 8d d9 bd ba 80 73 bd 53 35 a2 bd 2e 40 da 3c
       -0.10622649 -0.059448935 -0.07920327 0.026641931
000290 97 19 85 3d e4 bc 01 be e6 ea c3 bd 57 d2 4b 3d
       0.064990215 -0.12669712 -0.09566288 0.049761143
0002a0 d6 48 77 bd c5 32 64 bd 8f 68 f8 3d 54 95 8c bd
       -0.060372196 -0.05571248 0.12129318 -0.068644196
0002b0 ae 4e 75 3d dd 52 92 3d 91 26 f7 bd fe 19 7e bd
       0.059889488 0.07144711 -0.12067903 -0.062036507
0002c0 e0 ea b9 bd b4 1c c2 3d f8 c5 ce bd 14 8b c9 bd
       -0.09078002 0.09478131 -0.10096353 -0.0984098
0002d0 c0 ff 97 3b 9c fa aa 3d 19 1c f1 bc 23 b2 00 be
       0.004638642 0.08348581 -0.029432343 -0.12567954
0002e0 a5 09 af bc 56 d3 9f 3d bf 98 0f 3d 67 be 5b 3d
       -0.021366904 0.07803981 0.03505778 0.05364838
0002f0 5e 5d b6 bd 41 2f f9 3c 55 3b 17 bd 05 5c fc 3d
       -0.08904527 0.03041804 -0.036921818 0.12322239
000300 00 cb 7b 3d 5c 0f 8e 3d 5e c5 01 3d 0e 59 bb 3c
       0.061472893 0.06936523 0.031682365 0.022869613
000310 91 90 2c 3d e8 7e 1d 3e 94 04 32 3e f0 70 c7 bd
       0.042130057 0.15380442 0.17384559 -0.09738338
000320 c8 fc cc 3d cc 85 2b 3c 1d 8e e7 3d ec 6b 9b bd
       0.10009152 0.010468911 0.11306403 -0.07588944
000330 58 0a 38 3d 08 17 13 3d d3 9e d9 3d 33 0a e4 bd
       0.04493174 0.035910636 0.106259964 -0.11134758
000340 cc e3 e5 3d 2a 45 0a 3e 60 0d 13 3e e3 55 e2 bc
       0.112250894 0.13502946 0.14360571 -0.027628845
000350 e5 d2 d8 3d a9 84 01 3d c1 8f 34 3e 72 b7 79 3b
       0.105871 0.031620655 0.17632963 0.0038103727
000360 e5 76 0e be aa 56 0c be 48 d3 f4 bd 42 e0 a0 bd
       -0.13912542 -0.13704935 -0.11954361 -0.07855274
000370 9d 63 82 3d 2d e4 30 3d 9b 85 09 3e 0e 7e b6 3d
       0.06366656 0.043186355 0.13429873 0.08910762
000380 cc 43 a5 3b 67 36 11 be 2f a6 a4 3d 1b 80 d9 bd
       0.0050434824 -0.14180909 0.080395095 -0.10620137
000390 97 4d a2 bc 30 82 f5 3d b1 3c 06 be 8e 6e cf 3c
       -0.019812388 0.11987722 -0.1310909 0.025321271
0003a0 18 8d 4f 3e 71 3e be bc 0d 6f 3f bd 26 d5 4b bd
       0.20268667 -0.023223134 -0.046736766 -0.04976382
0003b0 f8 8c ea bb 7b 9f 8b 3d 6a 96 dc 3d 02 b6 e9 bd
       -0.007157918 0.06817528 0.10770877 -0.11411668
0003c0 d2 38 11 bc b8 c4 f7 3d 2c f3 10 3c 20 e2 56 bd
       -0.008863645 0.12098068 0.008847039 -0.052461743
0003d0 05 9a 31 3e cb 41 68 bb 1e dc a3 3c 38 ac db bb
       0.1734391 -0.0035439606 0.020002421 -0.0067038797
0003e0 51 82 5c bd c2 59 d4 3d 1d 2c 4a bd 03 bb 28 3e
       -0.053835217 0.103686824 -0.049358476 0.1647759
0003f0 4c 5c a5 3c fc 36 f0 bd b3 1a a2 bd bf f9 94 3d
       0.020185612 -0.117292374 -0.07915249 0.07274198
