weights/best_ppg_emotion_regressor.pth (torch, 9951 bytes, 3 tensors)

mlp.0.weight f4 [32, 64]
00000000: 8e4c 2cbd 3e12 84bc 1a1e 4cbd 631a 163d
00000010: d844 8e3c 7128 22bc 6bad a13b 9775 b33c
00000020: ede0 bc3c 2841 423d f8ce b23c 909c d03c
00000030: ca94 813b 7ee0 5c3d ad50 be3b fe44 b43d
00000040: 1f1f 003c bd70 b53d 2cea 053d 9910 f43c
00000050: ac81 ecbc 6811 b33d fbe4 edbc 7d04 0c3b
00000060: 8944 f6bb 865b fe3c cb5a e33d 6d79 723d
00000070: cb68 863d 30b0 b1bd 3460 99bc 03cc 15bb
00000080: 19bd f73b b879 4abd c3b0 903d 67aa 5a3b
00000090: 2f9e 80bc 11bf a0bc b301 c6bc 9991 e83b
000000a0: 5241 933c 2368 733c 56e3 49bd f9ca 2abd
000000b0: 137f a1bc 51be ddbc 6ec9 3ebd c284 843d
000000c0: dc4d 543d 813f 543d 01d9 803d 837c 8bbd
000000d0: 7b20 9c3d 2a81 7b3d c71b 223d 6859 b9bb
000000e0: 4e43 e5bc d928 65bd d028 253b c4eb 13bd
000000f0: 090e 8abd 8e4a 9ebd 8791 983c a3f1 bd3d
00000100: dacc ef3d ca3b 4a3d 0cf2 c43d 2ccd d93d
00000110: 4a82 02be 11cb 843d f6f9 74bd 2f52 c23d
00000120: 579f c4bb 9930 6a3d dfb5 dcbd 2cd1 ceba
00000130: aef3 65bd 5c93 8c3d d429 89bd 5aea 0cbd
00000140: 0ba9 cdbd aefb c3bd 97ab c13d ee50 fabc
00000150: 0472 143e dace 893b dc89 39bd 1706 323d
00000160: d234 453c a681 1f3d 486a b8bd bf59 da3a
00000170: 77d0 2b3e c572 813d 3f0c a3bb 4219 013d
00000180: be16 8e3d 9d97 ae3d 599f 06bc c6b2 e13d
00000190: c02d 383d d8bc 10bd 7409 403c 4b54 27bd
000001a0: 0cc0 f43d 703b 0d3e 1eca febd 5f0a 993c
000001b0: 979b f73c 74f5 0b3d f690 a23c bb61 95bd
000001c0: 85e9 c1bc 961b 94bd 6e92 95bd 0961 f23d
000001d0: 7b32 603c 30ad 7bbd 7d81 d03c 46cd 94b9
000001e0: 0a8a 0b3e 9a77 c4bd 94b0 e7bd 7c56 d7bc
000001f0: 0238 76bd 980c d0bc 7cbe aebd 0fdd eabd
00000200: 31f7 ecbd d799 a43d 5305 8fbc d538 153e
00000210: d66d cabd 5199 8a3d 3bb4 a0bd 81e7 a6bd
00000220: 4c06 ba3d fa1a 6b3d 09b1 e0bd 0fda de3d
00000230: 1532 84bd c1b4 933d 2783 b0bd be77 b53c
00000240: 117c 85bd f080 cf3d 3127 4b3b 166e fd3b
00000250: c019 abbc f562 93bc ec9f d03d 2249 c43d
00000260: e86b ab3d cdbb 163e b8d1 07bd 1ded d93c
00000270: 2857 0b3e 41c5 67bd 22b2 9c3c 37a0 943b
00000280: 1c14 cd3d 4f29 a3bd 8af1 af3d ccf9 043e
00000290: 446a da3b b21d 0f3d d12a 293c 30e8 09bc
000002a0: af0d 86bc a911 a4bd bb88 c63d 4996 ac3d
000002b0: 7617 723d 1675 02bd 73a6 c0bc 16ff b93c
000002c0: 073b b7bd d0b0 8bb8 249f 00bd 1985 ee3d
000002d0: 4680 b7bd ebd3 2eb9 4b78 383b daa9 3a3d
000002e0: 12e3 013e 5568 07bc ab7c 493d b92e 2c3d
000002f0: 8240 b13d 6293 cc3d 04a0 edbd b441 debd
00000300: b23c 9fbd d18d c3bd 5a1a a5bd 6142 15be
00000310: 6cf0 c33d 8357 563c aa98 afbb 3519 02bd
00000320: b607 3f3c 1d49 ddbc d1e7 803c 37d1 083c
00000330: 6228 cc3d 17ff b13c 9893 9abd eba2 8fbd
00000340: e575 18bd d0e4 60bd b759 e93b 36ba e13d
00000350: 8649 8cbc c5d5 613d 15f4 2fbd 5366 ad39
00000360: 40d1 0bbd 32ae 0bbe d52e a23d 5f52 d83d
00000370: 8b97 813d 17f3 8fbd 9522 8abd f16d 1ebd
00000380: dd4c 7bbd 67f8 4a3d 8d1b 12bc aa3e fdbd
00000390: 6333 90bd 5d46 483b d4df 953b b399 ad3b
000003a0: 09fa c33c 6ebd 8a3d b56e 09bd fa22 b93d
000003b0: 5b4d 4ebd fa51 843d 9c62 2ebd 2eb7 4cbb
000003c0: 93c1 063d 571e c2bd be27 a1bd 10f6 f3bc
000003d0: 6e51 1f3d 10c2 afbd 92b1 14be 22bc b7bd
000003e0: 4072 083d 34f4 5abd 36e1 4cbc 50e3 0a3d
000003f0: 31a1 7c3d ee76 afbd b9e6 973d fe6e c4bd
-0.042065196 -0.01612198 -0.049833395 0.036646258 0.017366812 -0.009897337 0.004934003 0.021906657
0.023056472 0.04742542 0.021827206 0.02546528 0.0039545046 0.05392503 0.005807957 0.08802222
0.00781992 0.08859394 0.032694027 0.02979307 -0.028870426 0.08743554 -0.02903985 0.002136498
-0.0075154942 0.031049501 0.11101302 0.059197832 0.065629564 -0.08676183 -0.018722631 -0.0022857196
0.007560384 -0.049432486 0.070649646 0.0033365728 -0.015700428 -0.019622358 -0.024170732 0.0070974347
0.017975483 0.014856371 -0.04928907 -0.041697476 -0.019713914 -0.027068289 -0.046578817 0.06470634
0.051832065 0.051818375 0.0629139 -0.06810858 0.07623383 0.061402477 0.03957727 -0.00565641
-0.027986195 -0.05594716 0.0025201328 -0.036113515 -0.06740958 -0.07729064 0.01862408 0.09274604
0.11708994 0.049373426 0.09616479 0.106348366 -0.12745014 0.06484044 -0.059808694 0.094883315
-0.00600044 0.057175253 -0.10776877 -0.0015778891 -0.056140594 0.06864044 -0.06697431 -0.034403183
-0.10042008 -0.095694885 0.09456556 -0.030556168 0.14496619 0.004205567 -0.04529749 0.04346284
0.012036519 0.038942 -0.090046465 0.0016658826 0.16778742 0.06320719 -0.004975825 0.03151823
0.069379315 0.08525012 -0.008216702 0.110204265 0.044965506 -0.035336345 0.011721004 -0.040851872
0.119506925 0.13792205 -0.124408945 0.018681703 0.030225558 0.03416963 0.019844513 -0.07294031
-0.023670921 -0.07231824 -0.0730332 0.11834914 0.0136839105 -0.06144446 0.02545237 -0.000283817
0.13626876 -0.09593125 -0.113129765 -0.026286356 -0.060112007 -0.02539663 -0.08532426 -0.11467945
-0.115705855 0.08037155 -0.017458593 0.14572461 -0.09884231 0.06767524 -0.07846876 -0.081496246
0.09083232 0.057398774 -0.10971267 0.10881435 -0.06454865 0.072122104 -0.08618765 0.022151824
-0.065178044 0.10132015 0.0030998702 0.0077340705 -0.020886302 -0.017991522 0.10186753 0.095842615
0.08370191 0.14720078 -0.033158988 0.026602322 0.13607466 -0.0565846 0.01912791 0.0045357007
0.10013601 -0.07966863 0.08590992 0.12985915 0.0066655 0.03494043 0.01032515 -0.008417174
-0.016363947 -0.08011181 0.09694048 0.08427102 0.059104405 -0.031849943 -0.02351687 0.022704642
-0.089468054 -6.6609704e-05 -0.03140177 0.1164648 -0.08960013 -0.00016672879 0.0028147872 0.04557214
0.12684277 -0.008264621 0.04919116 0.042036746 0.08654882 0.099890485 -0.11602786 -0.108523756
-0.077752486 -0.09548534 -0.08061667 -0.14576103 0.09567341 0.013082388 -0.005358775 -0.03176232
0.011659553 -0.027012402 0.015735539 0.008350662 0.0996864 0.021728082 -0.075476825 -0.07013496
-0.037221808 -0.054905713 0.0071212905 0.11021845 -0.017124902 0.055135507 -0.042957384 0.0003307337
-0.034135103 -0.13640669 0.07919089 0.10562586 0.06327733 -0.070287876 -0.06744877 -0.038679067
-0.0613526 0.0495533 -0.008917701 -0.12365468 -0.07041051 0.0030559518 0.0045738015 0.0052978634
0.023922937 0.06774412 -0.033552844 0.090398744 -0.05036674 0.06460948 -0.04257451 -0.0031237113
0.03289945 -0.09478443 -0.07868908 -0.029780418 0.038896017 -0.08581936 -0.14520863 -0.0897143
0.033312082 -0.053455546 -0.012504866 0.03390819 0.06167716 -0.08567606 0.07417054 -0.095914826

mlp.0.bias f4 [32]
00000000: 3d4a 353d d4e9 a23c 1729 a23b d93c 203d
00000010: 7be2 2cbd e219 2fbd 2aff 063e f9a7 a53c
00000020: fb1b fc3d b8fd ae3d d8e9 6c3d 662a a93d
00000030: c0cb ab3d d6da b23d b8b3 7b3a f113 54bd
00000040: 0314 b3bc a2b8 2e3c 9bdc 743d 1890 7dbd
00000050: ad1f 6cbc 2259 a73b 6a30 d4bd 0c88 68bd
00000060: 0fdd b0bd a9fb 74bd 3606 cfbd 77e5 013e
00000070: 85cd bbbd 533e b03b 2c89 c1bc b5f5 f83d
0.044260252 0.019886889 0.004948746 0.03912053 -0.042208176 -0.042749293 0.13183275 0.020221697
0.12310024 0.08544487 0.0578402 0.0826004 0.083884716 0.08733146 0.00096016703 -0.05177683
-0.021860128 0.010664137 0.0597807 -0.061904997 -0.014411849 0.005107061 -0.10360797 -0.05677037
-0.086359136 -0.059810314 -0.101086065 0.1268519 -0.09170059 0.0053785234 -0.023624979 0.1215624

mlp.2.weight f4 [1, 32]
00000000: 415d 7fbd c5dd 35be d51d 30be 2720 e53c
00000010: ff19 d2bd 6f8d 813d 4461 4b3e af11 d9bd
00000020: 1498 9dbd 8087 35bd 83c7 91bd d3b7 3a3d
00000030: 775a 44be 32d3 003e 5e24 2e3e de6e 3fbe
00000040: ec3b dabd 2815 cdbd 2b31 36be 1f94 ccbd
00000050: 2bb2 753d cee1 fbbc bd22 003e e2df adbd
00000060: a540 863d e9f5 043e b3b2 45be 115e a2bd
00000070: 4cd1 453e 1ac7 4c3e 00e6 373d 3fb7 7bbd
-0.062344793 -0.1776038 -0.1719888 0.027969433 -0.102588646 0.063258044 0.19861323 -0.10599076
-0.07695022 -0.044318676 -0.07118132 0.045585465 -0.19175135 0.12580565 0.1700606 -0.18694636
-0.106559604 -0.10013801 -0.17792194 -0.09989189 0.059984367 -0.03074732 0.12513252 -0.08489968
0.06555299 0.12984432 -0.1930645 -0.07928098 0.19318122 0.19997826 0.04489708 -0.061454054
