weights/best_temperature_emotion_regressor.pth (torch, 1914 bytes, 1 tensors)

mlp.0.weight f4 [1, 16]
0	0xbe6bf78e	-0.23043653
1	0xbe576dd5	-0.21037991
2	0xbea66f9e	-0.32507032
3	0xbe9ab72a	-0.30217868
4	0xbd7dad25	-0.0619327
5	0xbe7c460a	-0.24636093
6	0xbdd3de96	-0.10345189
7	0x3e986fcd	0.29772797
8	0xbf00cde3	-0.5031416
9	0x3eb7afef	0.35876414
10	0xbe9a77d9	-0.30169562
11	0x3d94506a	0.072419
12	0x3e970718	0.294976
13	0x3ef8586b	0.48504958
14	0x3eb7fd97	0.3593566
15	0xbede6a2e	-0.43440384
