weights/best_temperature_encoder.pth (torch, 17739 bytes, 10 tensors)

lstm.weight_ih_l0 f4 [64, 3]
0	0x3e6771a1	0.2260194
1	0x3eb73a37	0.35786602
2	0x3d3c1c98	0.045925707
3	0x3edac3f9	0.4272764
4	0x3e558830	0.20852733
5	0xbd4a57ae	-0.049400024
6	0x3dfb0929	0.122576065
7	0x3f103f20	0.5634632
8	0x3eb30735	0.34966436
9	0xbdb17f78	-0.08666891
10	0x3e724e8a	0.23662773
11	0xbe5b60a5	-0.21423586
12	0x3ddebb61	0.108755834
13	0x3f4156e1	0.7552319
14	0x3eb1495f	0.3462629
15	0xbc12777c	-0.00893962
16	0x3eca584d	0.39520493
17	0x3e898051	0.2685571
18	0x3e55b538	0.2086991
19	0x3e1202d9	0.14258899
20	0x3eb1621a	0.34645158
21	0x3b589f30	0.0033053868
22	0x3e80b2cc	0.2513641
23	0x3d71cbd4	0.059032276
24	0x3d8233fb	0.06357571
25	0x3bd7662f	0.0065734605
26	0x3d0fa44e	0.035068803
27	0xbd9f755c	-0.077860564
28	0x3e88bb1e	0.2670526
29	0xbe431c22	-0.190537
30	0x3d8d25a2	0.068919435
31	0x3e3c3887	0.18380938
32	0x3e2383de	0.15968272
33	0x3e815580	0.25260544
34	0x3e0f304e	0.1398327
35	0xbe4051a2	-0.1878114
36	0x3d8096d5	0.06278769
37	0x3ec8243c	0.39090145
38	0x3ecff1ce	0.4061417
39	0x3ed83710	0.4222951
40	0x3ecfc58b	0.405804
41	0x3e86e54b	0.26346812
42	0x3e99e795	0.30059496
43	0x3e555a23	0.20835166
44	0xbb4c25b3	-0.00311504
45	0x3f34a75e	0.7056788
46	0x3f3040aa	0.6884867
47	0x3f06c384	0.52642083
48	0x3da3f570	0.08005798
49	0x3e806d9c	0.25083625
50	0x3e664b17	0.22489582
51	0x3e31c807	0.1736146
52	0x3db499e1	0.088184126
53	0xbea72c03	-0.32650766
54	0x3c864ffc	0.016395561
55	0x3f1191fd	0.56863385
56	0x3e1a8235	0.15088733
57	0x3eaa5171	0.3326526
58	0x3e8cb5f8	0.2748258
59	0x3e42a1ce	0.19007036
60	0x3efbc11f	0.49170777
61	0x3eab6169	0.33472756
62	0x3ee61021	0.4493418
63	0x3cdae09c	0.02671843
64	0x3e28191b	0.16415827
65	0x3ed3f8c6	0.41400737
66	0x3e769391	0.2407973
67	0x3e861261	0.26185897
68	0x3ea79a75	0.3273503
69	0x3e1d9e5d	0.15392442
70	0x3ac8f0a8	0.001533051
71	0x3c2f693d	0.010706243
72	0xbe27a81b	-0.16372721
73	0xbe39ca7b	-0.18143646
74	0x3e0dfb21	0.1386533
75	0x3e703aa6	0.23459873
76	0x3be0c1d7	0.006859045
77	0x3dfce388	0.12348086
78	0x3e065029	0.13116516
79	0x3eee75b2	0.4657417
80	0x3dcc70ac	0.09982428
81	0x3d8d2beb	0.06893142
82	0x3eb1128b	0.3458446
83	0xbebefdbf	-0.37302968
84	0xbdb30f1e	-0.08743118
85	0x3eaf6d39	0.34263018
86	0x3e7dd90f	0.24789833
87	0x3ead61cd	0.3386368
88	0x3ecc0dde	0.3985433
89	0x3ebd16a8	0.36931348
90	0x3e5919af	0.21201204
91	0x3f0d7733	0.5526001
92	0xbe1d8b7a	-0.15385237
93	0x3ee3c7e6	0.44488448
94	0x3f014044	0.50488687
95	0x3f136762	0.57579625
96	0x3e9c3fe2	0.3051749
97	0xbdccd947	-0.1000238
98	0x3e2eaa2e	0.17057106
99	0x3e1811de	0.14850566
100	0x3e78d6b5	0.24300654
101	0xbeb4acfc	-0.35288227
102	0xbd925b6c	-0.071463436
103	0x3ed42a8b	0.41438708
104	0xbd13573a	-0.035971858
105	0xbe98dd63	-0.29856405
106	0xbd494a23	-0.049142968
107	0x3e5d23d1	0.21595694
108	0x3c136718	0.008996747
109	0x3e4d61d0	0.20056844
110	0xbe555e95	-0.20836861
111	0xbe6968d4	-0.22793895
112	0x3e874174	0.26417124
113	0xbe5f31cc	-0.2179634
114	0xbe7b4ba8	-0.2454058
115	0x3e58b20f	0.21161674
116	0xbe44afb6	-0.19207653
117	0x3db1b298	0.08676642
118	0xbe369b26	-0.17832622
119	0x3e573e04	0.21019751
120	0xbdd32100	-0.103090286
121	0x3de854b7	0.11344283
122	0x3dcac38b	0.09900578
123	0x3e31ae50	0.17351651
124	0x3d478eab	0.048720043
125	0x3bcb7fa3	0.006210284
126	0x3e911ea0	0.28343678
127	0x3e9683b9	0.2939737
128	0x3e75be76	0.23998436
129	0xbd2f2352	-0.042758293
130	0x3eb3f163	0.351451
131	0xbe54b107	-0.20770656
132	0x3c84cd7f	0.01621127
133	0xbd3235cd	-0.04350834
134	0x3eb64e40	0.35606575
135	0x3dd3af3a	0.10336156
136	0xbf00ce6d	-0.5031498
137	0x3e061bbd	0.13096519
138	0xbed36b9c	-0.41293037
139	0xbe57698c	-0.21036357
140	0x3e04b275	0.12958701
141	0x3dcd2420	0.10016656
142	0xbe401899	-0.18759383
143	0xbe851fd3	-0.26000842
144	0x3e40817e	0.18799397
145	0x3ef5af53	0.47985324
146	0x3cd3d5e6	0.02585883
147	0x3ecdff60	0.40233898
148	0x3c7ed757	0.015554271
149	0xbe595687	-0.21224414
150	0x3b994ba3	0.004678206
151	0x3f30c0da	0.6904427
152	0x3e449c5c	0.19200271
153	0x3e747810	0.23873925
154	0xbd281f47	-0.041045453
155	0x3e473202	0.1945267
156	0x3d800c66	0.06252365
157	0x3f1346b5	0.57529765
158	0x3ef8d323	0.48598585
159	0x3de37c21	0.1110766
160	0x3e4a46fb	0.1975364
161	0x3e3e2d34	0.18571931
162	0x3ed39a19	0.41328505
163	0x3f0776b3	0.52915496
164	0x3e2e6646	0.17031202
165	0xbd92c44c	-0.07166347
166	0x3dd96a12	0.106159344
167	0x3c43c9b1	0.011949942
168	0xbe6e3e0f	-0.23265861
169	0xbd193cad	-0.03741138
170	0xbeaf01c7	-0.34181044
171	0x3dcd266f	0.10017096
172	0xbe2f20b7	-0.17102323
173	0x3ce77374	0.028253295
174	0x3e5477c2	0.20748809
175	0x3e17ebf4	0.14836103
176	0x3e8c5f5d	0.27416506
177	0x3d055690	0.032553256
178	0x3e6709c9	0.22562326
179	0x3c7648d1	0.015032009
180	0x3da6b058	0.08139104
181	0x3e1ba6e2	0.1520038
182	0x3e6129c6	0.21988592
183	0x3f05a66e	0.52207077
184	0x3f184fa7	0.5949654
185	0x3ef2154a	0.47281867
186	0x3efbbe10	0.49168444
187	0x3f254038	0.64551115
188	0x3eb2dd7f	0.34934613
189	0x3f145508	0.5794225
190	0x3e8edcee	0.2790293
191	0x3e4c242c	0.19935673

lstm.weight_hh_l0 f4 [64, 16]
0	0xbd944b51	-0.07240928
1	0xbc9c65ba	-0.019091476
2	0x3f12f2d3	0.5740177
3	0x3e8e4bc1	0.2779217
4	0xbd006b1a	-0.03135214
5	0x3c3a318c	0.011364352
6	0x3ed59944	0.41718495
7	0x3e53ef43	0.2069674
8	0x3dcab4eb	0.098977886
9	0x3d6f5f1a	0.058440305
10	0x3e456ac1	0.19279005
11	0x3e616160	0.22009802
12	0x3ed198e6	0.40936965
13	0xbe75a03a	-0.23986903
14	0xbe2c80a5	-0.16845949
15	0xbed25f55	-0.41088358
16	0xbe097662	-0.13424066
17	0x3eb588bf	0.3545589
18	0xbe0134c3	-0.12617783
19	0xbdd250d8	-0.10269326
20	0x3efa9ef8	0.4894941
21	0xbde28a97	-0.1106159
22	0x3df28356	0.118414566
23	0x3e3d6656	0.1849607
24	0xbe21f5b1	-0.1581638
25	0xbe43ce6f	-0.19121717
26	0x3dcd56fd	0.10026357
27	0x3e1a6c83	0.15080456
28	0xbd7b916f	-0.061417993
29	0xba3ae9c2	-0.00071301695
30	0xbec9d917	-0.3942344
31	0x3e45ab7e	0.193037
32	0x3edbf78c	0.429623
33	0x3cebe260	0.028794467
34	0x3e876d3e	0.26450533
35	0xbd9ce511	-0.076608784
36	0xbf3018fe	-0.68788135
37	0xbe8f78b6	-0.28021783
38	0xbe20f763	-0.1571937
39	0x3e8bc767	0.2730057
40	0x3e71d54d	0.23616524
41	0x3d262337	0.040560927
42	0x3f91d674	1.1393571
43	0x3d4ba279	0.049715493
44	0x3e7be0bc	0.24597448
45	0xbf1630fe	-0.58668506
46	0xbf853177	-1.040572
47	0xbecae5b4	-0.39628375
48	0x3ee307f1	0.44341996
49	0x3ea3e3ad	0.3200964
50	0xbd3ea7bd	-0.046546686
51	0xbe909e2f	-0.28245685
52	0xbe4ba1b9	-0.19885911
53	0xbea01b30	-0.31270742
54	0x3d912c10	0.070884824
55	0x3e373d45	0.17894466
56	0xbe6649f0	-0.22489142
57	0xbde3cb7f	-0.11122798
58	0x3c8ab0c3	0.01692999
59	0x3e8734a7	0.26407358
60	0x3d95f15b	0.073214255
61	0x3c9d82b0	0.019227356
62	0xbe8a60ed	-0.27027074
63	0x3eceda37	0.4040086
64	0x3eb5cf53	0.35509738
65	0x3ebacc95	0.3648421
66	0x3e219299	0.15778579
67	0xbe8ac936	-0.27106637
68	0xbf1017a5	-0.5628608
69	0xbe825bf6	-0.25460786
70	0xbed8b5ad	-0.42326108
71	0x3dc104fa	0.09424777
72	0xbea0738b	-0.31338152
73	0xbdc6bd68	-0.09704095
74	0x3f54d372	0.8313514
75	0x3d947347	0.0724855
76	0x3e3e70bd	0.18597694
77	0xbd524cdf	-0.05134284
78	0xbf2e2712	-0.68028367
79	0xbdeb8e0a	-0.11501701
80	0x3e2b949e	0.16755912
81	0x3eca7b08	0.3954699
82	0x3ec67cb6	0.38767022
83	0x3da3650d	0.07978258
84	0x3e9dfe02	0.30857855
85	0x3e9880fe	0.29785913
86	0x3f2c99f7	0.6742243
87	0xbdc3f38d	-0.09567938
88	0x3d81e56c	0.06342587
89	0xbea50bae	-0.32235473
90	0x3e6b1e26	0.2296072
91	0x3e2c4ede	0.1682696
92	0xb9366b63	-0.00017396877
93	0xbea67887	-0.3251383
94	0x3da352c6	0.07974772
95	0xbef71039	-0.48254564
96	0x3f0f7167	0.56032413
97	0x3e3f410a	0.18677154
98	0x3ef9ecef	0.48813578
99	0xbec72e9c	-0.38902748
100	0xbdd0808f	-0.101807706
101	0xbe84364b	-0.25822672
102	0xbe4644de	-0.19362208
103	0x3ef094bb	0.46988472
104	0xbe71e6c5	-0.23623188
105	0xbebfdb03	-0.3747178
106	0x3f284289	0.65726525
107	0x3f190a9f	0.5978183
108	0x3ec9372e	0.3929991
109	0xbdb996f5	-0.09061996
110	0xbeab6a92	-0.33479744
111	0x3ead976c	0.33904588
112	0x3e745634	0.23861009
113	0xbd2b6dbe	-0.041852705
114	0x3ce6edce	0.028189566
115	0xbe52337b	-0.2052745
116	0xbe16789e	-0.1469445
117	0x3c84e4c8	0.016222373
118	0xbe88ea5e	-0.26741308
119	0x3e1ba3fb	0.15199272
120	0xbe1dd99b	-0.15415041
121	0x3dbc5669	0.09196169
122	0x3d60c15d	0.054871906
123	0x3e0805e5	0.13283499
124	0x3d958058	0.0729987
125	0xbde0c36d	-0.109747745
126	0xbe4d0d80	-0.20024681
127	0xbe1ec37e	-0.15504262
128	0xbd622477	-0.055210557
129	0x3e852c06	0.2601015
130	0xbd968753	-0.0735003
131	0x3e06a53f	0.13148974
132	0xbeb4e3ea	-0.35330135
133	0x3e10d2d8	0.1414293
134	0xbe30ee40	-0.17278385
135	0x3e2da1d8	0.1695627
136	0xbe88910e	-0.26673168
137	0x3cf6f7d7	0.030147476
138	0xbe1356fe	-0.14388654
139	0x3e9075b2	0.28214794
140	0xbd9c73c0	-0.07639265
141	0x3df49eb5	0.119443335
142	0xbda0d41a	-0.07852955
143	0xbe429794	-0.19003135
144	0x3e8844d3	0.2661501
145	0x3e5b3c29	0.21409668
146	0x3e740f0b	0.23833863
147	0xbeda199a	-0.42597657
148	0x3e4630a0	0.19354486
149	0xbd75c057	-0.059997883
150	0x3e9de29f	0.3083696
151	0x3ea4b9a4	0.32172883
152	0xbe56fe33	-0.20995407
153	0xbe753725	-0.23946817
154	0xbce56b19	-0.02800517
155	0xbda743b9	-0.08167214
156	0xbcb1a58e	-0.021685388
157	0xbee54938	-0.44782424
158	0xbe1fc2a1	-0.15601589
159	0x3e89e0ff	0.2692947
160	0x3e6276b1	0.2211559
161	0x3e97c397	0.2964141
162	0x3eff0f4b	0.49816355
163	0xbe8a9a34	-0.27070773
164	0x3c1877e2	0.009305926
165	0xbe889e38	-0.2668321
166	0x3aa16d3e	0.0012315882
167	0x3e29bda2	0.16576245
168	0xbeb09dc1	-0.34495357
169	0xbdfd60b7	-0.123719625
170	0x3e6f7247	0.23383437
171	0x3e9491c9	0.29017475
172	0x3ec8e917	0.39240333
173	0xbf138fd7	-0.5764136
174	0xbe8e3520	-0.27774906
175	0xbe855333	-0.26040038
176	0x3e72ffdd	0.23730417
177	0x3e911b41	0.28341106
178	0x3ec60276	0.38673753
179	0xbe911e54	-0.2834345
180	0x3ecde148	0.40210938
181	0x3e153bc2	0.14573577
182	0x3eae4931	0.34040216
183	0x3e824322	0.25441843
184	0x3d5a10be	0.053238623
185	0xbc3af2f4	-0.011410464
186	0xbdab5fcb	-0.083678804
187	0x3d801993	0.06254878
188	0xbdb67bec	-0.08910355
189	0xbe7990c1	-0.24371625
190	0xbe7c5ea7	-0.24645482
191	0x3da7fe23	0.082027696
192	0x3e6929bd	0.22769828
193	0xbd292a9f	-0.041300412
194	0x3ecd0cd7	0.4004886
195	0x3d8da1d0	0.06915629
196	0x3da89b07	0.08232694
197	0x3d8d9442	0.069130436
198	0x3dc4a9d8	0.096027076
199	0x3e856ccd	0.2605957
200	0xbe17f07c	-0.14837831
201	0xbe532274	-0.20618612
202	0x3eb653b6	0.3561074
203	0x3d8558ee	0.065111026
204	0x3e61b56b	0.22041862
205	0xbe17bcb5	-0.1481808
206	0xbe94d803	-0.29071054
207	0xbf07d145	-0.53053695
208	0x3f131d7d	0.5746687
209	0x3eb96ad0	0.36214304
210	0x3edbe7d7	0.42950317
211	0xbec56838	-0.38556075
212	0xbec6ca7a	-0.38826352
213	0xbec9a837	-0.3938615
214	0xbf1516e6	-0.58238065
215	0x3ee1a391	0.44070104
216	0xbf1cc241	-0.6123391
217	0xbee30d2f	-0.44345996
218	0x3f084ef5	0.5324548
219	0x3ef80c72	0.48446995
220	0x3f00cf02	0.5031587
221	0xbef4c9a1	-0.4781008
222	0xbf7d5538	-0.9895816
223	0x3e9e3015	0.3089606
224	0x3eba948d	0.3644146
225	0x3f0d341f	0.55157655
226	0x3ebb1ddb	0.36546215
227	0xbe3d8387	-0.18507205
228	0x3da15a6b	0.07878574
229	0x3ce7b9ea	0.028286893
230	0x3eddfdef	0.43357798
231	0x3f03b98c	0.51455
232	0xbe31674e	-0.17324564
233	0xbee909d1	-0.45515302
234	0x3eec61b1	0.46168283
235	0x3e87b79c	0.2650727
236	0x3e3a5307	0.18195735
237	0xbf39d7d7	-0.7259497
238	0xbeaf4f0c	-0.34239995
239	0x3ee28a36	0.44246072
240	0x3ee5bbbe	0.44869798
241	0x3f2ce64e	0.6753892
242	0x3f634658	0.8877921
243	0xbf531359	-0.824514
244	0x3e5d4a9e	0.21610495
245	0xbe8e932c	-0.27846658
246	0x3d363cd7	0.044491615
247	0x3f22bcbf	0.63569254
248	0xbf4925ee	-0.785735
249	0xbf84e2ed	-1.0381752
250	0x3f690054	0.91016126
251	0x3f986d46	1.1908348
252	0x3f5f9506	0.87336767
253	0xbf1f6ef2	-0.62278664
254	0xbf1840f6	-0.5947412
255	0x3edb1c8b	0.42795214

lstm.bias_ih_l0 f4 [64]
0	0xbd71399a	-0.058892824
1	0xbd2099d4	-0.039209202
2	0x3eb7b19c	0.35877693
3	0x3e387198	0.18012083
4	0x3e38b960	0.18039465
5	0x3e6f5114	0.23370773
6	0x3e6eeb1b	0.23331873
7	0xbe2295a2	-0.15877393
8	0xbc56f446	-0.013119763
9	0xbd890d47	-0.066919856
10	0x3ecf7613	0.4051977
11	0x3ce1f1da	0.027581144
12	0xbdb9af6a	-0.09066661
13	0x3ea4d6bc	0.3219508
14	0x3ec9c587	0.39408514
15	0x3f3740b3	0.715831
16	0xbe260974	-0.16214544
17	0x3eb02940	0.3440647
18	0x3dbd3f70	0.09240615
19	0x3ea7b38a	0.32754165
20	0x3eed16b9	0.463064
21	0x3ee20215	0.44142213
22	0xbd88bc23	-0.06676509
23	0xbe386764	-0.1800819
24	0x3e1a3f9a	0.15063325
25	0x3de0bd8b	0.109736525
26	0xbe00caa0	-0.12577295
27	0x3d1a39b1	0.037652675
28	0x3dcd73af	0.100318305
29	0x3de676d9	0.11253137
30	0x3cb67bb3	0.022275781
31	0x3ec6afa7	0.38805887
32	0xbd9c9683	-0.07645895
33	0x3e83c7a3	0.25738248
34	0x3de5879c	0.11207506
35	0xbe3e4abd	-0.18583198
36	0xbe368148	-0.17822754
37	0xbcb2ca88	-0.02182509
38	0x3e2cf2c1	0.16889478
39	0x3e6e2f80	0.23260307
40	0xbe386e04	-0.18010718
41	0xbe84469e	-0.25835127
42	0xbe152840	-0.14566135
43	0x3e6439cd	0.22287674
44	0x3dda8d05	0.106714286
45	0xbe109990	-0.1412108
46	0x3e69a218	0.2281574
47	0x3e67cd5a	0.22636929
48	0xbe066797	-0.13125454
49	0x3e02f381	0.12788202
50	0x3eacdc5e	0.33761877
51	0xbd3b8612	-0.045782156
52	0x3ee92817	0.455384
53	0x3e92d8a4	0.2868091
54	0x3e98c1b6	0.2983529
55	0xbe0207a3	-0.12698226
56	0xbcaab191	-0.020836623
57	0x3dfd4b6f	0.123679034
58	0x3eac30d2	0.33630997
59	0x3e17a9ec	0.14810914
60	0xbdc10620	-0.094249964
61	0x3b468b06	0.0030295267
62	0x3ee4ab90	0.44662142
63	0x3ecfcb5a	0.40584832

lstm.bias_hh_l0 f4 [64]
0	0x3e64135e	0.22273013
1	0x3ec7c599	0.39017943
2	0x3e9664f9	0.2937391
3	0xbc8f03d4	-0.01745788
4	0x3e194f6e	0.14971706
5	0x3e098ab6	0.1343182
6	0x3e57b51e	0.21065184
7	0x3e5af272	0.21381548
8	0xbc79cfb9	-0.015247279
9	0x3e044fae	0.1292102
10	0x3dd7f9f9	0.105457254
11	0x3ec649ba	0.38728124
12	0x3d917476	0.07102291
13	0x3eff49ff	0.49861142
14	0x3f035879	0.51306874
15	0x3f257c12	0.6464244
16	0xbd2ff07c	-0.042953953
17	0x3da2145a	0.07914038
18	0x3ea10161	0.31446365
19	0x3e02a41f	0.1275792
20	0x3e6690cc	0.22516173
21	0xba2f1efc	-0.0006680337
22	0x3e92fddc	0.28709304
23	0x3d0ad33b	0.03389285
24	0x3dc7d757	0.0975787
25	0x3ea5399e	0.3227052
26	0x3e9cc53a	0.30619222
27	0xbd827db1	-0.0637163
28	0xbda483b0	-0.0803293
29	0x3ecee6af	0.40410373
30	0x3e04bed7	0.12963425
31	0x3eb0e555	0.34549966
32	0x3d6baae5	0.057536025
33	0xba87a6f5	-0.001034944
34	0xbe238b8d	-0.15971203
35	0xbc9efaa3	-0.019406622
36	0x3dfdeebb	0.1239905
37	0xbe684572	-0.22682741
38	0xbd695c80	-0.05697298
39	0x3df95eaf	0.121762626
40	0xbe565976	-0.20932564
41	0xbea5a028	-0.32348752
42	0xbe46d913	-0.19418745
43	0x3dad92d2	0.084752694
44	0x3e1f1f88	0.15539372
45	0x3d9fd8f1	0.0780505
46	0xbd99a1d9	-0.07501573
47	0x3e0a9af7	0.13535677
48	0xbe31dc1b	-0.1736912
49	0x3da89b3c	0.082327336
50	0x3e7dcad7	0.24784409
51	0xbcb00cb4	-0.021490432
52	0x3ec0a678	0.37627006
53	0xbdbf28e7	-0.093339734
54	0x3e614e12	0.22002438
55	0xbe649819	-0.22323646
56	0x3d88a055	0.06671206
57	0x3ea35c1c	0.3190621
58	0x3df8772c	0.12132105
59	0x3ed0c77b	0.40777192
60	0x3e1408a6	0.14456424
61	0x3e842711	0.25811055
62	0x3f0cac7c	0.5495069
63	0x3f35f680	0.71079254

lstm.weight_ih_l1 f4 [64, 16]
0	0x3d528ea2	0.051405556
1	0x3e3170db	0.17328207
2	0xbe110c37	-0.14164816
3	0xbecc4752	-0.39898163
4	0x3e144ae7	0.14481698
5	0x3b4fcbf6	0.0031707264
6	0x3e0d6a89	0.13810171
7	0xbe111040	-0.14166355
8	0xbd343db7	-0.04400417
9	0xbe0bb9cb	-0.13645093
10	0xbd3d5958	-0.046227783
11	0x3e0b1682	0.13582805
12	0x3dcee435	0.10102121
13	0x3d14af79	0.036300156
14	0xbe7f3c87	-0.24925433
15	0x3e5159fa	0.2044448
16	0x3beeb9de	0.0072853407
17	0x3edac2e0	0.42726803
18	0x3e4cf415	0.20014985
19	0xbe1761c3	-0.14783387
20	0x3f6be150	0.92140675
21	0x3ed911d2	0.42396408
22	0x3e9227bb	0.28545937
23	0xbe01a3ec	-0.12660187
24	0xbe814174	-0.2524525
25	0xbe5179a9	-0.20456566
26	0x3de9a0d3	0.11407628
27	0x3f277027	0.65405506
28	0x3ea88db2	0.32920605
29	0xbf0b4807	-0.5440678
30	0xbe6010d8	-0.21881425
31	0xbd5bd569	-0.05367032
32	0x3ea5fac3	0.32417879
33	0x3e57c428	0.21070921
34	0x3d7b4adf	0.0613507
35	0xbee592c9	-0.4483855
36	0x3df07d0e	0.11742602
37	0x3dcc1a94	0.09966007
38	0xbdd7206a	-0.10504229
39	0x3e39a9ee	0.1813123
40	0xbe8dcaca	-0.27693778
41	0xbdb4ba71	-0.088246234
42	0x3df8d561	0.12150074
43	0x3de717c1	0.112838276
44	0x3e361306	0.17780694
45	0xbe00976c	-0.12557763
46	0xbe512058	-0.20422494
47	0x3e243db7	0.16039167
48	0x3ea4b1a4	0.3216678
49	0x3f0c5f14	0.5483258
50	0x3f0057c5	0.50133926
51	0xbf097a8b	-0.5370261
52	0x3e8c2ebb	0.27379403
53	0xbec6529a	-0.38734895
54	0x3edba355	0.4289805
55	0x3e664b98	0.22489774
56	0xbed72105	-0.4201738
57	0xbe833fe8	-0.25634694
58	0x3f8bf311	1.0933553
59	0x3f0ea565	0.5572112
60	0x3e87d8fe	0.2653274
61	0xbf36de18	-0.7143264
62	0xbcda023c	-0.026612394
63	0xbf1a810c	-0.6035316
64	0x3d991052	0.07473816
65	0x3efb9a42	0.49141127
66	0x3ebb1884	0.3654214
67	0xbb38e3e4	-0.0028212005
68	0x3ea5d5ca	0.3238967
69	0x3e20c2d8	0.15699327
70	0xbd30c906	-0.04316046
71	0x3da369b3	0.07979145
72	0xbd8b85ff	-0.06812667
73	0x3d1950ac	0.03743045
74	0x3ef0857b	0.46976838
75	0x3ef7cb40	0.48397255
76	0xbd00f650	-0.031484902
77	0xbd588133	-0.05285759
78	0xbec182b3	-0.37795028
79	0x3e45e602	0.19326022
80	0xbde1812a	-0.11010964
81	0x3e122c98	0.14274824
82	0x3d9a735e	0.07541536
83	0xbe829195	-0.25501695
84	0x3e6ae980	0.22940636
85	0x3eb17198	0.34656978
86	0x3e900136	0.28125924
87	0x3e29f7f3	0.16598491
88	0xbd901871	-0.07035912
89	0xbd90cf91	-0.0707084
90	0xbcbdd228	-0.0231715
91	0x3d0c34a8	0.034229904
92	0x3e751b12	0.23936108
93	0xbe25745b	-0.16157667
94	0x3e78ea22	0.24308065
95	0x3dcefb19	0.10106487
96	0xbe0015c6	-0.12508306
97	0x3ea21aa9	0.31660965
98	0x3d78e93a	0.060769297
99	0xbdb827b4	-0.08991948
100	0x3daed4df	0.08536696
101	0xbd03a387	-0.032138374
102	0x3e26a329	0.16273178
103	0x3af9b026	0.0019049689
104	0x3e4e7828	0.20163023
105	0xbe8de2cc	-0.27712095
106	0x3e942ae2	0.28938967
107	0x3e297fd1	0.16552664
108	0xbdf4ffc0	-0.11962843
109	0xbf2b646d	-0.6695011
110	0xbdb794e7	-0.08963948
111	0xbe808413	-0.25100765
112	0x3e9460f3	0.28980216
113	0x3f09cb48	0.5382581
114	0x3b64653b	0.0034850377
115	0xbf024bd9	-0.50896984
116	0x3e410dce	0.18852922
117	0x3d0bc412	0.034122534
118	0x3e05990e	0.13046667
119	0x3e9443b5	0.28957906
120	0xbeb64644	-0.35600483
121	0xbe26097b	-0.16214554
122	0x3e3aef14	0.18255264
123	0x3df1e306	0.118108794
124	0x39f2d9d3	0.0004632013
125	0xbd8b13bb	-0.06790873
126	0xbd9ab97e	-0.07554911
127	0x3ef08fc8	0.46984696
128	0x3e189d27	0.14903699
129	0xbd6a1794	-0.057151392
130	0x3ee96719	0.4558647
131	0x3dc6126b	0.09671482
132	0x3ede694f	0.4343972
133	0x3f1109fc	0.5665586
134	0x3ebd0c8a	0.3692363
135	0x3e7b948d	0.24568386
136	0xbe2213ae	-0.1582782
137	0xbe7ba3d8	-0.2457422
138	0x3e4166ca	0.18886867
139	0x3e1e80b8	0.1547879
140	0x3cac31f3	0.021019911
141	0x3d8badb9	0.06820244
142	0x3eb916eb	0.36150298
143	0x3e813a01	0.25239566
144	0xbe7255a0	-0.23665476
145	0x3f07e8ac	0.53089404
146	0xbdd74993	-0.1051208
147	0xbe7c1af5	-0.24619658
148	0xbeaaedcf	-0.3338456
149	0xbd614cfe	-0.055005066
150	0xbef5cff7	-0.48010227
151	0x3ea06a85	0.31331268
152	0xbeea56f3	-0.45769462
153	0xbe989fd4	-0.2980944
154	0x3e5389df	0.20658062
155	0x3e6e5596	0.23274836
156	0x3e009d0d	0.1255991
157	0x3e642e7d	0.22283359
158	0x3ed5f6ea	0.41789943
159	0x3e373917	0.17892872
160	0x3ef2ec8a	0.4744609
161	0x3ea050aa	0.31311542
162	0x3e7d7d1c	0.24754757
163	0xbea629f4	-0.32453883
164	0x3d8b6e01	0.06808091
165	0xbcae5aa4	-0.021283455
166	0x3eb4d46a	0.3531831
167	0x3e48b38d	0.19599743
168	0xbe91ad53	-0.28452548
169	0xbd6f9f90	-0.05850178
170	0x3eb1505e	0.34631628
171	0x3d1cd252	0.038286515
172	0x3e81001a	0.2519539
173	0xbead413c	-0.33838832
174	0xbf2cd3b6	-0.67510545
175	0xbe77cdc0	-0.24199581
176	0x3cd021d6	0.02540676
177	0x3e0717fc	0.13192743
178	0x3df2c792	0.11854471
179	0xbeb73e16	-0.35789555
180	0xbe7b1de1	-0.24523117
181	0x3dea6d0c	0.1144658
182	0xbe94a8f2	-0.29035145
183	0x3eae8dca	0.3409255
184	0xbedc3ac7	-0.43013594
185	0x3d8f8e8d	0.07009611
186	0x3eaf62f1	0.34255174
187	0x3e92126e	0.28529686
188	0x3e02347c	0.12715334
189	0xbca8f19f	-0.020623026
190	0xbeb9c73c	-0.36284816
191	0x3ea1bee6	0.31590956
192	0x3ea17a0e	0.31538433
193	0x3eb80e16	0.35948247
194	0x3db61100	0.08889961
195	0xbf05f0c4	-0.52320504
196	0xbea2bf04	-0.31786358
197	0xbe362f78	-0.17791545
198	0xbd56c85d	-0.052437175
199	0x3ed9327b	0.42421326
200	0xbef9d381	-0.48794177
201	0x3d1b0300	0.037844658
202	0x3f2205ad	0.6328991
203	0x3de52cc7	0.11190181
204	0x3e0e3ba5	0.1388994
205	0x3ac5e8fd	0.0015099343
206	0xbecc3a56	-0.39888257
207	0x3eba739a	0.36416322
208	0x3ec15587	0.37760565
209	0x3e9f662f	0.31132647
210	0x3f13f6f1	0.5779868
211	0xbe2a2a17	-0.16617619
212	0x3ea2a0bd	0.3176326
213	0x3e00d61a	0.12581673
214	0x3eddef97	0.43346855
215	0xbd91bc00	-0.07115936
216	0x3e7f25ab	0.24916713
217	0x3e8a2db2	0.26987988
218	0x3f24252e	0.6411923
219	0x3ed99025	0.42492786
220	0x3ea0cd56	0.3140666
221	0xbd6addb5	-0.057340343
222	0x3cda5eef	0.026656596
223	0xbf7071aa	-0.9392344
224	0xbe2d0e2d	-0.16899939
225	0x3f82836f	1.019636
226	0x3e9c874f	0.30571982
227	0xbee7bf36	-0.4526307
228	0x3f5b28c1	0.8560906
229	0xbe7eecb4	-0.24894983
230	0x3ef58cca	0.47958976
231	0x3ee9ac4b	0.45639262
232	0xbed162f6	-0.40895814
233	0xbf3ce8e7	-0.7379288
234	0x3e33dd91	0.1756499
235	0x3f2357ca	0.6380583
236	0x3d66d5cc	0.056356236
237	0xbf2ead44	-0.6823313
238	0xbe4401b0	-0.19141269
239	0x3ee2510c	0.4420246
240	0x3e448546	0.19191465
241	0x3cfff81a	0.031246234
242	0xbdb09be4	-0.08623484
243	0xbceb5943	-0.028729087
244	0x3e3375d2	0.17525414
245	0x3d4a929c	0.049456224
246	0xbdcef93f	-0.10106134
247	0x3ed6e304	0.41970074
248	0x3de82d81	0.11336804
249	0x3d965192	0.07339777
250	0x3eebbd18	0.46042705
251	0xbdb24d8e	-0.08706199
252	0x3e927aa2	0.28609186
253	0xbc746127	-0.014915741
254	0xbef9aa6e	-0.4876284
255	0x3e1ade72	0.15123919

lstm.weight_hh_l1 f4 [64, 16]
0	0xbe270a09	-0.16312422
1	0x3da9e86c	0.08296284
2	0xbc98e510	-0.018663913
3	0x3e4c95bf	0.19978999
4	0xbdf7913a	-0.12088247
5	0x3dbce75e	0.09223817
6	0x3d890b4b	0.06691607
7	0xbe512ebb	-0.20427983
8	0x3c85f275	0.016350964
9	0x3e3fc85f	0.1872878
10	0xbe9f98db	-0.31171307
11	0x3e4e5ec2	0.20153335
12	0x3ccb69e8	0.024830773
13	0x3c6560f7	0.014000169
14	0xbe1cbc2c	-0.15306157
15	0xbe2ddb2f	-0.16978143
16	0xbee92c75	-0.4554173
17	0xbe955f43	-0.2917424
18	0xbe8839a2	-0.2660647
19	0x3d16a523	0.03677858
20	0xbe739263	-0.23786311
21	0xbe4134eb	-0.18867843
22	0x3c15ac27	0.009135283
23	0xbdcea4a1	-0.10089994
24	0x3ea364fa	0.31912977
25	0xbe5f3497	-0.21797405
26	0x3e084469	0.13307346
27	0xbddb9b8c	-0.107230276
28	0x3eba9938	0.36445022
29	0x3d65dfb9	0.05612156
30	0x3f1f78b9	0.62293583
31	0xbf12e43b	-0.573795
32	0xbe95eadd	-0.2928075
33	0xbeed0eab	-0.46300253
34	0xbeb77e8f	-0.35838744
35	0x3f0d4d83	0.551964
36	0xbea40bff	-0.32040402
37	0xbea0c267	-0.31398317
38	0x3db759b6	0.08952658
39	0x3d373aa0	0.044733644
40	0x3e660fab	0.22466914
41	0xbeb62413	-0.35574397
42	0x3e49d0cc	0.19708556
43	0xbf0820bb	-0.5317494
44	0x3edd4dd2	0.43223435
45	0xbe510654	-0.2041257
46	0x3e91db58	0.28487659
47	0x3d66766d	0.056265283
48	0xbf0df0ad	-0.5544537
49	0xbedccabd	-0.43123427
50	0xbee16c11	-0.4402776
51	0xbd90f03d	-0.07077072
52	0xbf06901e	-0.52563655
53	0xbeea8a15	-0.45808473
54	0xbc8e4756	-0.017368
55	0xbe2042f2	-0.15650538
56	0x3e924d35	0.2857453
57	0xbed2d1d2	-0.41175705
58	0x3d7b4ace	0.061350636
59	0xbe3de22a	-0.18543306
60	0x3ed4d36b	0.4156755
61	0x3d87f2ec	0.066381305
62	0x3ea7bd6a	0.327617
63	0xbe71d5e7	-0.23616754
64	0xbeeb1e9f	-0.459218
65	0xbd16fbbb	-0.036861163
66	0x3d33ec6a	0.043926634
67	0x3e3c7439	0.1840371
68	0xbbd30c28	-0.006440658
69	0xbdb816de	-0.089887366
70	0xbc366b40	-0.011133969
71	0xbd82cf49	-0.06387193
72	0x3eecace5	0.46225658
73	0x3dd57ab6	0.10423796
74	0x3a57edf5	0.00082370575
75	0x3e23608c	0.15954798
76	0xbc8a832c	-0.01690825
77	0xbe8253fa	-0.25454694
78	0x3eb8bf09	0.36083248
79	0xbeb894db	-0.36051068
80	0xbd70a59d	-0.05875169
81	0x3e1a881b	0.15090983
82	0x3d6ab411	0.05730063
83	0x3e8cf5f6	0.27531403
84	0x3cfc37b3	0.030788278
85	0xbdece993	-0.11567988
86	0xbef2c2ed	-0.47414342
87	0xbdf1236d	-0.11774335
88	0x3ea17218	0.3153236
89	0xbcf2b03b	-0.029625049
90	0xbe64b614	-0.22335082
91	0x3e091ba2	0.13389447
92	0xbdae199c	-0.08500978
93	0xbe595d2f	-0.21226953
94	0xbe6b1b16	-0.22959551
95	0xbe28c356	-0.16480765
96	0xbeec10b6	-0.461065
97	0xbdb2aa17	-0.08723848
98	0x3d8e9ba2	0.06963278
99	0x3d007ea7	0.031370785
100	0x3cb3c956	0.02194659
101	0x3daa123f	0.083042614
102	0xbe5f9a73	-0.21836261
103	0xbcf6c78a	-0.030124445
104	0x3e809634	0.25114596
105	0xbe8037bd	-0.25042525
106	0xbf094202	-0.53616345
107	0x3e755328	0.23957503
108	0xbd6acad9	-0.057322357
109	0xbeb2cb2d	-0.34920636
110	0x3df468d2	0.119340554
111	0x3d0dfe8a	0.034666575
112	0xbe1cc4fb	-0.15309517
113	0xbee928fe	-0.45539087
114	0xbcea68e5	-0.02861447
115	0x3e78aab0	0.24283862
116	0xbe3ffc84	-0.18748671
117	0xbed2eda5	-0.41196933
118	0xbd8a8eb7	-0.06765502
119	0xbebdfdb2	-0.37107617
120	0x3ec8de9f	0.39232346
121	0xbd784e1d	-0.06062137
122	0xbe93107c	-0.28723514
123	0xbe9c7087	-0.30554602
124	0x3ed65535	0.41861883
125	0xbeacef01	-0.33776096
126	0xbd3bbcc8	-0.045834333
127	0x3c3dfd93	0.011596101
128	0x3d7eaaa2	0.062174447
129	0xbda4448a	-0.08020885
130	0xbe5c4705	-0.21511467
131	0x3ee93bf4	0.45553553
132	0x3d872180	0.065981865
133	0xbe95e9a3	-0.29279813
134	0x3e8d114d	0.27552262
135	0x3db3865c	0.087658614
136	0xbc908502	-0.017641548
137	0xbdb9b29e	-0.09067272
138	0x3e3d4457	0.18483101
139	0x3dfc00aa	0.12304814
140	0xbd472357	-0.048617687
141	0x3e38b7d3	0.18038873
142	0x3e1e22e5	0.15442999
143	0xbf17da77	-0.59317726
144	0xbe2fc910	-0.17166543
145	0x3de30f01	0.11086846
146	0xbef54555	-0.4790446
147	0xbd82ac30	-0.063804984
148	0xbed6565b	-0.4186276
149	0xbeea24e8	-0.45731282
150	0x3edba0f1	0.42896226
151	0xbda8a439	-0.08234448
152	0x3ec6eda8	0.38853192
153	0xbead1428	-0.3380444
154	0x3ec58167	0.3857529
155	0xbe811724	-0.25212967
156	0x3e827bf9	0.2548521
157	0xbe6058b3	-0.21908836
158	0x3e7e7660	0.24849844
159	0xbd9957db	-0.0748746
160	0xbe3a2257	-0.18177162
161	0xbf2e765b	-0.68149346
162	0x3df4b212	0.11948027
163	0x3e356616	0.17714724
164	0xbe83f333	-0.25771484
165	0xbe92ed27	-0.28696558
166	0xbe8c0be8	-0.27352834
167	0xbeb76139	-0.35816363
168	0xbd98d0aa	-0.074616745
169	0xbef0e9aa	-0.47053272
170	0xbb2f75b7	-0.0026773044
171	0xbe9f8675	-0.3115727
172	0x3e7f2655	0.24916966
173	0xbe768bcc	-0.24076766
174	0x3eca6616	0.3953101
175	0x3c42244c	0.011849474
176	0x3ec0c1a7	0.37647745
177	0xbc00485b	-0.007829751
178	0xbdfe59b1	-0.12419451
179	0x3f458b97	0.7716612
180	0x3e3c5662	0.18392327
181	0xbb4eda31	-0.0031563158
182	0xbd5429cc	-0.051797673
183	0x3dbe82ce	0.09302293
184	0x3e7cf328	0.24702132
185	0xbdb13292	-0.08652224
186	0x3e965c0b	0.29367098
187	0x3df27110	0.11837971
188	0xbe19a366	-0.15003738
189	0xbe5236c8	-0.2052871
190	0x3e4b4f9d	0.19854589
191	0xbdcd008d	-0.10009871
192	0x3dc82606	0.097728774
193	0xbdaadbf9	-0.08342738
194	0xbe231ff8	-0.15930164
195	0x3eef31bc	0.46717632
196	0xbe64a425	-0.22328241
197	0xbee515f8	-0.44743323
198	0xbe3e6986	-0.18594941
199	0x3e7f9947	0.24960814
200	0x3e8dbf73	0.27685127
201	0xbefc16bb	-0.49236092
202	0x3e2375d2	0.15962914
203	0xbe9c83b2	-0.30569226
204	0xbcebcd25	-0.028784344
205	0xbe8cdec5	-0.2751371
206	0x3e5c892e	0.21536705
207	0x3dfcfec1	0.12353278
208	0xbf13ebf6	-0.5778192
209	0xbdd568cf	-0.10420381
210	0xbe1c9ef5	-0.15295012
211	0xbd0a3b8a	-0.033748187
212	0x3e205a21	0.15659381
213	0xbddb3b72	-0.10704698
214	0x3da92c95	0.082604565
215	0x3e122bef	0.14274572
216	0x3ec36051	0.3815942
217	0x3d6ece37	0.05830213
218	0xbe9c39bd	-0.305128
219	0x3e404ce3	0.1877933
220	0xbe3d8663	-0.18508296
221	0xbe10d24c	-0.14142722
222	0xbcc0e58d	-0.023546958
223	0xbf50ff0a	-0.8163916
224	0xbe728f74	-0.23687536
225	0xbe6772d6	-0.226024
226	0xbefaaa6d	-0.4895815
227	0x3d47c82a	0.048774876
228	0xbf131ca6	-0.5746559
229	0xbf79bb1f	-0.9755115
230	0xbc21902e	-0.009861035
231	0xbef034f7	-0.4691541
232	0x3f5e19ae	0.86757934
233	0xbf0111cf	-0.504178
234	0x3f31405a	0.6923882
235	0xbf770758	-0.9649558
236	0x3f28bd2f	0.6591367
237	0x3eb8d66b	0.36101088
238	0x3f8cfa56	1.1013896
239	0xbee1f41b	-0.4413155
240	0x3c5f53bb	0.013630803
241	0x3d567df2	0.052366205
242	0xbe2a84a1	-0.16652156
243	0x3ec42fcd	0.3831772
244	0xbe29c64d	-0.16579552
245	0x3c65ab06	0.014017826
246	0xbea5c909	-0.3237994
247	0xbdfdef07	-0.123991065
248	0xbe0a130e	-0.13483831
249	0xbdc952e3	-0.098302625
250	0x3de82d2c	0.11336741
251	0xbd8f7b35	-0.07005922
252	0x3e2e16f1	0.17000939
253	0xbebfa565	-0.37430874
254	0x3eb07aa2	0.3446856
255	0x3dff5d28	0.1246894

lstm.bias_ih_l1 f4 [64]
0	0xbe564793	-0.20925741
1	0xbe34f870	-0.17672896
2	0x3e671f8d	0.2257063
3	0x3dd11db8	0.102107465
4	0xbda28277	-0.079350404
5	0x3ebb6dbd	0.3660716
6	0xbc878888	-0.016544595
7	0x3e15f940	0.14645863
8	0xbc8ff153	-0.017571127
9	0x3eb075b6	0.34464806
10	0x3da8839f	0.0822823
11	0x3ef4fb31	0.47847894
12	0x3ebacc69	0.36484078
13	0x3d1fd402	0.039020546
14	0x3f1a36e7	0.60240024
15	0x3e00ec08	0.12590039
16	0xbe9ae986	-0.3025629
17	0xbd83ff08	-0.06445128
18	0x3ea679c8	0.32514787
19	0x3d9272d8	0.07150811
20	0xbd59d1d7	-0.053178634
21	0x3dc0eeb9	0.09420533
22	0xbe3deee7	-0.18548165
23	0x3d30d9ce	0.043176465
24	0x3dad093c	0.08449027
25	0x3ea930a8	0.33044934
26	0x3d57f2dc	0.052721843
27	0x3e67857f	0.22609518
28	0x3ea35d68	0.319072
29	0x3e6b82c3	0.229991
30	0x3e6bb918	0.23019826
31	0xbd575399	-0.05256996
32	0x3db8a9e5	0.0901678
33	0xbe631d29	-0.22179092
34	0xbe94fcee	-0.2909922
35	0x3dfb526f	0.12271582
36	0xbe42a703	-0.19009022
37	0xbe2fc432	-0.17164686
38	0xbde646bb	-0.112439595
39	0x3e022fea	0.1271359
40	0x3e60bb0b	0.21946351
41	0x3e5805f0	0.21096015
42	0x3e724431	0.23658825
43	0xbea47d5b	-0.3212689
44	0x3dfc310a	0.12314041
45	0xbddd39a0	-0.10802007
46	0xbd9d542d	-0.07682071
47	0x3d49cc5a	0.04926715
48	0xbdeaed2d	-0.11471019
49	0x3d9ffd39	0.0781197
50	0x3ea85447	0.328768
51	0x3d8e25cb	0.06940802
52	0xbd8db751	-0.069197305
53	0xbd8f47fa	-0.0699615
54	0x3de53dc0	0.111934185
55	0x3ec80cbc	0.39072216
56	0xbd5fab97	-0.054607
57	0x3ec67205	0.38758865
58	0x3e8347a2	0.2564059
59	0x3e7b8ec9	0.24566187
60	0x3ed60e38	0.41807723
61	0xbe0ac86f	-0.13553022
62	0x3e497b4f	0.19675945
63	0xbe1b2607	-0.15151225

lstm.bias_hh_l1 f4 [64]
0	0xbb24959d	-0.002511359
1	0xbda8faf0	-0.082509875
2	0x3ec4717a	0.38367826
3	0x3e96a877	0.29425403
4	0x3e2bd325	0.16779764
5	0x3eac7309	0.33681515
6	0x3e47afa8	0.19500601
7	0x3eee22e8	0.46511006
8	0x3de55366	0.111975476
9	0x3ed8bfc3	0.42333803
10	0x3d146c0d	0.036235858
11	0x3efa949a	0.489415
12	0x3e939902	0.28827673
13	0x3eb59c73	0.35470924
14	0x3f401852	0.7503711
15	0x3e3521bb	0.17688648
16	0x3c8f2271	0.017472478
17	0xbe207bb8	-0.15672195
18	0x3ebccacc	0.36873472
19	0xbc853d2a	-0.016264517
20	0xbcf18987	-0.029484523
21	0x3d6d2735	0.05789872
22	0xbdc0e09c	-0.09417841
23	0xbabfe57c	-0.0014640535
24	0x3e10d303	0.14142995
25	0x3dd4e7fd	0.10395811
26	0x3ea3bbc9	0.31979206
27	0xbd868af3	-0.06569471
28	0x3d95a2fa	0.07306476
29	0x3d1fec0e	0.03904348
30	0x3eea8da3	0.45811185
31	0xbe1d7814	-0.15377837
32	0xbe2b32cb	-0.16718595
33	0x3e3cebc1	0.18449308
34	0xbdca026a	-0.09863742
35	0x3e54aa4c	0.20768088
36	0xbc3f45c2	-0.011674346
37	0xbe69c7e0	-0.22830153
38	0xbdddf64d	-0.10837994
39	0xbe05b749	-0.13058199
40	0x3e18c52a	0.14918962
41	0xbe03782a	-0.12838808
42	0xbdd5eef1	-0.10445965
43	0xbe6d9259	-0.23200358
44	0x3ea1a087	0.31567785
45	0xbe6d5edf	-0.23180722
46	0x3e49ecde	0.19719264
47	0xbd84a4de	-0.064767584
48	0xbd1fc0f0	-0.03900236
49	0xbdd97b34	-0.10619202
50	0x3e8c2530	0.27372122
51	0x3e74b9d3	0.23899011
52	0xbdc849f3	-0.0977973
53	0xbdadccc3	-0.08486321
54	0x3dace89a	0.08442803
55	0x3e0333e3	0.12812762
56	0x3b808fff	0.0039234157
57	0x3ea0548d	0.31314507
58	0xbdb0d8f7	-0.08635133
59	0xbc6501f6	-0.013977518
60	0x3d6faa23	0.058511864
61	0xbdfcd5fc	-0.12345502
62	0x3dc69a16	0.09697358
63	0x3e11f70b	0.14254396

fc.weight f4 [16, 16]
0	0xbe51ca12	-0.2048724
1	0xbe17d2e1	-0.14826538
2	0xbda5bfba	-0.080932096
3	0xbeb00867	-0.3438141
4	0xbe2daf65	-0.16961439
5	0x3c6e99ce	0.014563037
6	0xbde4973c	-0.11161658
7	0x3e55c79d	0.20876928
8	0x3e8256b7	0.25456783
9	0xbc7fa3af	-0.01560299
10	0xbe5cd212	-0.2156451
11	0xbe14487d	-0.14480777
12	0x3e32d6d5	0.17464764
13	0x3e816ac8	0.2527678
14	0x3eb72141	0.35767558
15	0xbe15238b	-0.1456434
16	0x3df81881	0.12114049
17	0x3d251d7a	0.040311314
18	0xbe14cd0d	-0.14531346
19	0xbe7c3a69	-0.24631657
20	0xbe22898f	-0.15872787
21	0xbe92a3ce	-0.28640598
22	0xbce561c2	-0.028000716
23	0x3d13afe2	0.036056407
24	0x3e05c6ad	0.1306407
25	0x3e9e16e5	0.30876842
26	0xbedcefb4	-0.4315163
27	0xbe4c7b33	-0.19968872
28	0x3d83b63b	0.06431242
29	0xbd2fa7b2	-0.042884536
30	0x3e449973	0.19199161
31	0xbc88480b	-0.016635915
32	0xbe7c00d5	-0.24609692
33	0xbe98587f	-0.29755017
34	0xbe80421c	-0.25050437
35	0xbe91a75c	-0.28447998
36	0xbe3222bf	-0.17396067
37	0xbe787278	-0.24262416
38	0x3cfc89f8	0.030827507
39	0x3e513673	0.20430927
40	0xbe18019b	-0.14844362
41	0x3ec8ccfe	0.39218897
42	0xbedc310d	-0.43006173
43	0xbe3dcad1	-0.185344
44	0xbd94d814	-0.07267776
45	0xbe2a57e9	-0.16635098
46	0x3dfab8b5	0.12242261
47	0xbdefb1f7	-0.11703866
48	0x3e21239f	0.15736245
49	0x3d7e28d2	0.062050648
50	0x3d0a9e59	0.03384242
51	0xbead81dc	-0.33888137
52	0x3e4d7f60	0.20068121
53	0xbd85fd7e	-0.065424904
54	0xbd698b5f	-0.05701768
55	0xbdb74ef4	-0.08950606
56	0xbda529c2	-0.08064605
57	0x3ece217d	0.40259925
58	0xbe70b120	-0.23505068
59	0xbd071601	-0.03297997
60	0x3daf5798	0.08561629
61	0x3d858995	0.06520382
62	0x3e162e52	0.14666107
63	0xbe3f7735	-0.18697818
64	0xbe02eea3	-0.12786345
65	0xbae63b64	-0.0017565307
66	0xbe4c1496	-0.19929728
67	0xbe9db845	-0.3080465
68	0x3e456dcf	0.1928017
69	0xbe83e3d3	-0.25759754
70	0x3dcc71e5	0.09982661
71	0x3de702c0	0.112798214
72	0x3d7740fa	0.0603647
73	0xbd85f731	-0.06541289
74	0xbd3d9a35	-0.04628964
75	0x3e2efe5f	0.17089222
76	0x3dc694a8	0.09696323
77	0x3d3608ad	0.044441868
78	0xbdf3e32a	-0.119085625
79	0x3d7241e3	0.059144866
80	0xbd9f7f7b	-0.07787987
81	0xbebe3c15	-0.37155214
82	0xbe7688dd	-0.24075647
83	0xbed0b886	-0.4076578
84	0xbb82fc5d	-0.003997369
85	0xbe9b80ef	-0.30371806
86	0xbcb996eb	-0.022654971
87	0xbd55dddf	-0.052213546
88	0x3d48ed61	0.049054507
89	0x3da27ff1	0.07934559
90	0xbe8d5708	-0.27605462
91	0xbe45d649	-0.19320025
92	0xbd7a2df8	-0.061078995
93	0xbe008e02	-0.12554172
94	0x3db42536	0.0879616
95	0xbe87b5b8	-0.26505828
96	0xbe4ea745	-0.20180996
97	0xbe0d3aa3	-0.137919
98	0xbe67c33c	-0.2263307
99	0xbe890159	-0.2675884
100	0x3e5ccfdf	0.21563672
101	0xbe9019c7	-0.28144667
102	0x3d89154a	0.06693514
103	0x3e392d31	0.18083645
104	0x3d0f6d3c	0.035016283
105	0x3e45dd1f	0.19322632
106	0xbed7f4e6	-0.4217903
107	0xbe898c98	-0.26865077
108	0xbdc87462	-0.09787823
109	0x3e1e28e0	0.1544528
110	0xbd0222f3	-0.03177161
111	0x3e0f7b5f	0.14011906
112	0x3c9665d8	0.01835911
113	0x3e4562e7	0.1927601
114	0x3e7d9871	0.24765183
115	0x3d849f39	0.06475682
116	0x3d4b8413	0.049686503
117	0x3e90dd66	0.28293914
118	0x3d40423c	0.046938166
119	0xbd98a4a7	-0.0745328
120	0xbd82e422	-0.06391169
121	0xbe79215f	-0.24329136
122	0x3e4a1fa8	0.19738638
123	0x3e4d1d2c	0.2003066
124	0xbe838044	-0.25683796
125	0x3dbcee7e	0.09225176
126	0x3dc21845	0.09477285
127	0xbe00bc52	-0.12571838
128	0x3ceef923	0.029171532
129	0xbe39c6df	-0.1814227
130	0xbe81a0f8	-0.25318122
131	0xbe934188	-0.28760934
132	0xbe69329f	-0.22773217
133	0xbdefa068	-0.11700517
134	0xbc48124d	-0.0122113945
135	0x3e72ba44	0.23703867
136	0xbe104f5e	-0.14092776
137	0x3ec0b3db	0.3763722
138	0xbe96c29f	-0.2944536
139	0xbe284989	-0.16434301
140	0x3e45deec	0.19323319
141	0x3e6a902d	0.22906561
142	0x3e8def7f	0.27721784
143	0xbc9cd87d	-0.019146198
144	0x3dd1d832	0.10246314
145	0x3d3ec7a5	0.046577115
146	0xbe17df90	-0.14831376
147	0x3e612c48	0.21989548
148	0xbd805ef5	-0.062681116
149	0x3d3a6ed4	0.04551585
150	0xbe5b949d	-0.2144341
151	0x3cd51726	0.026012015
152	0xbe918fa3	-0.284299
153	0xbe8e8585	-0.27836242
154	0x3d399c43	0.04531504
155	0x3e06f669	0.13179936
156	0xbe4aae07	-0.19792949
157	0xbdf1e2b8	-0.11810821
158	0xbd345edd	-0.04403578
159	0xbe0aa4ee	-0.13539478
160	0x3e02ae0d	0.12761708
161	0xbddb5f61	-0.107115515
162	0x3e4c0ddd	0.19927163
163	0x3c9e4af0	0.019322842
164	0xbe523821	-0.20529224
165	0xbdb0881f	-0.08619713
166	0xbe55703e	-0.20843598
167	0x3e95bde2	0.29246432
168	0x3e19dcb7	0.15025602
169	0x3eb8877b	0.36040863
170	0xbe67a6c1	-0.22622205
171	0xbe00a59d	-0.12563176
172	0x3ec34c95	0.38144365
173	0x3d01600f	0.03158575
174	0x3e6a51d9	0.22882785
175	0xbe4b5866	-0.1985794
176	0xbc0b3f9a	-0.0084990505
177	0x3e332aa1	0.1749673
178	0xbe013328	-0.12617171
179	0x3e315e91	0.1732123
180	0xbdbf1df8	-0.09331888
181	0x3ca49947	0.02009262
182	0x3d99749c	0.074929446
183	0x3e2fcb39	0.17167367
184	0xbe7ce276	-0.24695763
185	0x3dbd3053	0.09237733
186	0x3e5a2116	0.21301684
187	0x3c66c183	0.014084223
188	0xbd824c7c	-0.063622445
189	0xbe7ad588	-0.24495518
190	0xbe33e7e1	-0.17568924
191	0x3da1d5ba	0.07902093
192	0xba577e09	-0.000822038
193	0x3e6544f5	0.22389586
194	0xbdebfd64	-0.1152294
195	0x3ebc54e4	0.36783516
196	0x3e4ab8a2	0.19796994
197	0x3e383838	0.17990196
198	0xbdfad845	-0.122482814
199	0xbd28bed8	-0.041197628
200	0xbd80d4eb	-0.06290611
201	0xbe6a2bac	-0.22868222
202	0x3c843678	0.016139254
203	0x3e8a17f3	0.26971397
204	0xbe09daeb	-0.13462417
205	0xbd04c871	-0.03241772
206	0xbe9b81d6	-0.30372494
207	0x3d8d117d	0.06888101
208	0xbe67333c	-0.22578138
209	0x3e61d1a8	0.22052634
210	0x3e8bb2b1	0.27284768
211	0x3d631670	0.05544132
212	0xbcb77ec8	-0.022399321
213	0x3e4dd576	0.2010096
214	0x3d8ed7b0	0.06974733
215	0x3dd53320	0.10410142
216	0xbe78cd61	-0.24297096
217	0xbece61da	-0.4030903
218	0x3e416f01	0.18890001
219	0x3e50ec32	0.20402601
220	0xbe2ea74a	-0.17056003
221	0xbdb05ccc	-0.086114496
222	0xbe69ad7a	-0.22820082
223	0x3e4283c3	0.18995576
224	0x3e3af39d	0.18256994
225	0x3d5e6644	0.054296747
226	0xbdcf4e1f	-0.10122322
227	0x3e311dcf	0.17296527
228	0x3e7b7bcc	0.24558944
229	0x3eb07771	0.34466127
230	0xbdd5f4e0	-0.10447097
231	0xbe34370a	-0.1759912
232	0xbe9fe378	-0.31228232
233	0xbecec82c	-0.40387094
234	0x3ead46eb	0.3384317
235	0x3b60e774	0.0034317644
236	0xbdffa76d	-0.12483106
237	0x3e5b4d89	0.21416296
238	0xbe7de59d	-0.24794622
239	0x3e944696	0.28960103
240	0x3c478735	0.012178232
241	0xbe690d67	-0.22759019
242	0xbdf238ba	-0.11827226
243	0xbe841459	-0.25796774
244	0x3e30a879	0.17251767
245	0xbd2e3917	-0.042534914
246	0xbe6c1bc7	-0.23057471
247	0xbe3560e6	-0.17712745
248	0x3e764315	0.24049027
249	0x3e96a4c4	0.2942258
250	0xbeb1cf2d	-0.34728375
251	0xbea17f68	-0.31542516
252	0x3b0e8abb	0.002175017
253	0x3e417f9f	0.1889634
254	0x3e223dfc	0.15843958
255	0xbdc29ec3	-0.09502938

fc.bias f4 [16]
0	0xbd9a83f9	-0.07544703
1	0x3e93d388	0.28872323
2	0xbe393a3d	-0.18088622
3	0x3e90af8a	0.28258926
4	0x3e10397b	0.14084427
5	0xbe445604	-0.19173437
6	0xbd91ba10	-0.07115567
7	0x3e1953b3	0.14973335
8	0xbb5ef171	-0.0034018422
9	0xbe18d1cc	-0.14923781
10	0x3e84e718	0.2595756
11	0xbb922b49	-0.0044607264
12	0xbe541cb5	-0.20714076
13	0x3dc62311	0.09674657
14	0xbe929986	-0.28632754
15	0xbe3b9b4b	-0.18320958
