weights/best_ppg_emotion_regressor.pth (torch, 10792 bytes, 3 tensors)

mlp.0.weight f4 [32, 64]
0	0x3c3e77ce	0.011625243
1	0x3d6c7d3d	0.057736624
2	0x3ce32afd	0.02773046
3	0x3bd29dcf	0.0064275037
4	0x3d2e7df9	0.042600606
5	0x3d791a06	0.060815834
6	0x3ae43c92	0.0017413071
7	0x3a3d493c	0.00072206906
8	0x3bf2d242	0.0074103186
9	0xbdab5b4f	-0.08367025
10	0x3cb7ffa7	0.022460772
11	0xbc1a167a	-0.009404773
12	0x3bb17a60	0.0054161996
13	0x3c60220e	0.013679994
14	0xbca7dbfe	-0.020490643
15	0xbc87b722	-0.016566817
16	0x3d43c283	0.047792923
17	0xbc490a43	-0.012270513
18	0xbcd2ee6b	-0.025748452
19	0xbc7ee436	-0.015557339
20	0x3c5aeee3	0.013362619
21	0x3c0572bd	0.0081450315
22	0x3da99b08	0.08281523
23	0x3b37781d	0.0027995177
24	0x3d619930	0.05507773
25	0xbc902dbe	-0.017599937
26	0xbd1b4630	-0.037908733
27	0xbc001203	-0.007816794
28	0x3b9328e7	0.00449096
29	0xbd77de49	-0.060514722
30	0xbcb1a3b2	-0.021684501
31	0x3c975969	0.018475251
32	0x3cb06604	0.02153302
33	0xbca35a87	-0.019940628
34	0xbd833457	-0.064064674
35	0x3c3480c4	0.011017028
36	0xbcf20f46	-0.029548299
37	0x3d05fc61	0.03271139
38	0xbcefee14	-0.02928833
39	0xbbf746b3	-0.00754627
40	0x3c0651e1	0.008198232
41	0x3c954435	0.018221
42	0xbd0f1131	-0.034928504
43	0xbb7d0228	-0.0038606022
44	0xbc21a6f3	-0.009866464
45	0x3ab31f9e	0.0013666039
46	0xbb6a6c3c	-0.003577008
47	0x3c0e2b8c	0.008677375
48	0x3bd020fa	0.0063515874
49	0x3d891ab6	0.06694548
50	0x3a8a94b7	0.0010572885
51	0x3d4ab617	0.04949006
52	0x3d36fea4	0.044676438
53	0x3b87fc51	0.0041499515
54	0x3bbdf72a	0.0057972865
55	0x3cb28888	0.021793619
56	0xbbf0d3bd	-0.00734946
57	0x38dea15a	0.00010615839
58	0xbc738158	-0.014862381
59	0xbd23c852	-0.039985962
60	0x3d9a192d	0.07524333
61	0x3c158024	0.009124789
62	0xbb041d98	-0.002015924
63	0x3d2c4b2d	0.04206388
64	0x3c9b39f2	0.018948529
65	0xbd08c2f0	-0.033389032
66	0xbda53b94	-0.08068004
67	0x3800dbe4	3.0722367e-05
68	0x3de8b863	0.11363294
69	0x3cc3acde	0.02388614
70	0xbdcc42a3	-0.099736474
71	0x3d4b6794	0.049659327
72	0x3b2dadc5	0.002650128
73	0xbde8dab1	-0.11369837
74	0x3cb08f24	0.02155263
75	0x3d2c6314	0.042086676
76	0xbc4cf30a	-0.012509117
77	0xbca1b3b5	-0.019739011
78	0xbc73849d	-0.01486316
79	0xbd7bfad2	-0.061518498
80	0xbd3136c9	-0.043265138
81	0x3dcefbd8	0.10106629
82	0x3cb5cb20	0.022191584
83	0x3d9d958c	0.076945394
84	0xbdee1e60	-0.11626887
85	0xbccac135	-0.024750331
86	0xbda2f885	-0.079575576
87	0x3babe0dc	0.005245311
88	0xbdddc3b2	-0.108283415
89	0x3dc4de9f	0.09612774
90	0x3d69d15f	0.057084437
91	0x3d378791	0.04480702
92	0xbd383c55	-0.044979412
93	0x3da34dd5	0.0797383
94	0x3df32228	0.11871749
95	0xbd905930	-0.07048261
96	0x3d428ecd	0.047499467
97	0x3dd4f5ed	0.10398469
98	0xbd1cb17e	-0.038255207
99	0xbdd299fd	-0.10283277
100	0x3df38916	0.118913814
101	0xbd900481	-0.07032109
102	0xbdce6283	-0.10077383
103	0xbca71120	-0.020393908
104	0xbd69a974	-0.05704637
105	0xbda81f4d	-0.08209095
106	0xbd18d1ee	-0.03730958
107	0xbd968863	-0.073502325
108	0xbd81810a	-0.063234404
109	0x3d55021b	0.05200396
110	0x3c4f1ab5	0.012640645
111	0x3e2490d8	0.16070879
112	0xbcdeb68e	-0.027186658
113	0xbdc7e0fd	-0.0975971
114	0xbdcb6229	-0.09930832
115	0xbdfaf83e	-0.1225438
116	0x3daeac60	0.08528972
117	0xbdbce2e4	-0.092229635
118	0x3cb2b60a	0.021815319
119	0x3e08ce48	0.1335994
120	0xbd51c1a3	-0.051210057
121	0xbc4ad5d8	-0.012380086
122	0xbd95f005	-0.07321171
123	0xbd99fba1	-0.075186975
124	0xbdbb953c	-0.091593236
125	0x3cd833c5	0.026391873
126	0xbd5dea45	-0.054178495
127	0xbd8e582c	-0.06950411
128	0x3ab67805	0.0013921267
129	0x3e075004	0.13214117
130	0x3df9ace1	0.12191177
131	0x3e1dfe9c	0.15429157
132	0x3d204af9	0.039134
133	0xbcce97be	-0.02521884
134	0x3d021a22	0.031763203
135	0x3bf9d760	0.0076245517
136	0xbe0174f7	-0.12642275
137	0xbe1a9958	-0.15097558
138	0x3d7bf83f	0.061516043
139	0xbe0b91a8	-0.13629782
140	0x3cbd77bd	0.023128385
141	0xbd0161db	-0.031587463
142	0xbd009ef3	-0.031401586
143	0x3c618c57	0.01376637
144	0xbc86543f	-0.016397594
145	0x3d9d8442	0.07691242
146	0xbe00d083	-0.12579541
147	0xbd2c7387	-0.042102363
148	0x3cb9a2b1	0.022660585
149	0xbd11a1e2	-0.035554774
150	0x3d23e74b	0.0400155
151	0xbdfc9b92	-0.1233436
152	0x3da6561a	0.08121891
153	0x3c4687d5	0.012117346
154	0xbda17900	-0.07884407
155	0xbb345612	-0.0027517122
156	0x3dcf163a	0.10111661
157	0x3d6e065a	0.058111526
158	0x3c2df5d5	0.010617693
159	0x3d9e4805	0.077285804
160	0xbd3caead	-0.04606502
161	0x3d916b7a	0.07100578
162	0xbe10e90d	-0.14151402
163	0xbdbc4ee6	-0.09194736
164	0xbe0d58cf	-0.13803409
165	0x3e0c5e35	0.13707812
166	0x3d2784df	0.0408982
167	0x3b94bdb4	0.004539216
168	0xbb39d233	-0.0028354048
169	0xbdbe1f60	-0.09283328
170	0xbe19537f	-0.14973257
171	0xbdbb8fc6	-0.09158282
172	0x3d02f3c1	0.031970743
173	0xbdd83881	-0.10557652
174	0x3cf08084	0.029358156
175	0x3cfd8d88	0.030951276
176	0xbd0ce5e2	-0.03439892
177	0x3e33ed39	0.17570962
178	0xbda0da54	-0.07854143
179	0x3d5e53e5	0.054279227
180	0x3e052bb7	0.13004957
181	0x3d44312e	0.047898464
182	0xbc791b44	-0.015204255
183	0xbd0361c1	-0.032075647
184	0x3d41800b	0.047241252
185	0x3d4dc226	0.050233983
186	0xbd243695	-0.040091116
187	0x3cd5eab9	0.026112901
188	0x3d438d57	0.047742214
189	0x3d5eef7e	0.054427616
190	0xbe0efcb3	-0.13963585
191	0xbd5a1b6d	-0.05324881
192	0xbdc2d0b6	-0.09512465
193	0x3bf00062	0.0073242644
194	0x3dde380c	0.10850534
195	0xbd0da808	-0.034584075
196	0x3c8ef151	0.017449053
197	0x3d6c0b53	0.057627987
198	0xbc3a7257	-0.0113798
199	0xbb98e76e	-0.0046662604
200	0x3b33eea4	0.0027455473
201	0xbd61d480	-0.055134296
202	0xbdc52a93	-0.09627261
203	0x3da440d5	0.08020178
204	0xbdb25cd5	-0.087091126
205	0x3da21288	0.07913691
206	0xbde7ffa7	-0.11328059
207	0x3ccfdd4b	0.025374075
208	0x3d861017	0.06546038
209	0x3d837970	0.06419647
210	0xbc90c75c	-0.017673187
211	0x3dc4d6ad	0.09611259
212	0xbdb03d83	-0.086054824
213	0xbcd436cb	-0.025905034
214	0x3d901022	0.07034327
215	0xbda56434	-0.08075753
216	0xba7eb1ec	-0.00097158435
217	0x3d2966b5	0.041357715
218	0xbd45351e	-0.04814636
219	0x3ded58ce	0.11589204
220	0x3d00bf89	0.031432662
221	0x3d5a75f6	0.053335153
222	0x3e02ce1e	0.1277394
223	0xbe01be5b	-0.12670271
224	0x3cc4ee44	0.024039395
225	0x3c9f6bd4	0.019460596
226	0x3c847f3c	0.016173951
227	0x3dd7bb5d	0.105337836
228	0x3d1af9cf	0.037835892
229	0xbd6538ee	-0.055962496
230	0x3d9d1aab	0.07671102
231	0xbda90f1d	-0.08254836
232	0x3ce8dca6	0.028425526
233	0xbc50f261	-0.0127531
234	0xbcd14712	-0.025546584
235	0xbd868835	-0.06568948
236	0xbcc3ff54	-0.02392546
237	0x3d620360	0.055179
238	0xbdba5be8	-0.09099561
239	0x3d36bb2d	0.0446121
240	0xbdaae0bf	-0.08343648
241	0xbddc6a2a	-0.10762437
242	0x3dcdb834	0.100448996
243	0x3d92fb19	0.07176799
244	0x3d7cfc92	0.061764307
245	0xbe03c563	-0.12868266
246	0xbd7afb38	-0.061274737
247	0x3d723888	0.059135944
248	0xbd7bc842	-0.061470278
249	0xbdcf4f39	-0.101225324
250	0x3dea4436	0.114387915
251	0xbd6149dd	-0.055002082
252	0xbdb2e842	-0.08735706
253	0x3d7e92f2	0.062151857
254	0x3cd86bff	0.026418684
255	0xbd8c39bb	-0.06846949

mlp.0.bias f4 [32]
0	0xbdcfb611	-0.10142148
1	0xbc4cf42b	-0.012509386
2	0x3baa2afd	0.005193113
3	0xbd40b4d0	-0.047047436
4	0xbd9981c9	-0.07495458
5	0x3da37baa	0.079825714
6	0x3dda30fb	0.106538735
7	0x3deb2fa4	0.11483696
8	0xbc772126	-0.015083587
9	0x3df9059f	0.12159275
10	0x3cafc6e1	0.021457138
11	0x3d5b0337	0.053469863
12	0xbdcd3eb7	-0.100217275
13	0xbc6703a9	-0.014099994
14	0x3e0d3b09	0.13792051
15	0x3dae004c	0.084961504
16	0x3cc428b5	0.023945192
17	0xbc9935d3	-0.018702423
18	0xbd8a32fb	-0.06748005
19	0xba231e21	-0.0006222446
20	0x3dc79602	0.097454086
21	0xbc9cab5a	-0.019124676
22	0x3dd98ca0	0.10622525
23	0xbd7ae210	-0.061250746
24	0xbd947819	-0.07249469
25	0xba4516ce	-0.0007518352
26	0x3dc7a86a	0.09748919
27	0x3d578bd2	0.052623577
28	0xbc81fb3d	-0.01586687
29	0x3d83cc33	0.06435432
30	0xb9ccb7a9	-0.0003904675
31	0x3de73c40	0.11290789

mlp.2.weight f4 [1, 32]
0	0x3d04e0df	0.032441016
1	0xbe40e3ef	-0.1883695
2	0x3e018e27	0.12651883
3	0xbd9f10bb	-0.07766863
4	0x3dd361af	0.10321366
5	0x3e457a27	0.19284879
6	0x3dfdb2a4	0.123875886
7	0xbdc3c2ac	-0.09558615
8	0xbdcba1cb	-0.09942969
9	0x3dd287d0	0.102798104
10	0xbe2680fa	-0.16260138
11	0x3d3bb4f7	0.04582688
12	0xbe207ebe	-0.15673348
13	0xb7573178	-1.28265165e-05
14	0x3e078eb0	0.13238025
15	0x3d788e6b	0.060682695
16	0xbe308bc1	-0.17240812
17	0xbd66d247	-0.05635288
18	0x3e21736e	0.15766689
19	0xb9677849	-0.00022074686
20	0x3e2298a3	0.15878539
21	0x3cc40df7	0.02393244
22	0x3d29c316	0.041445814
23	0x3c99a3a1	0.018754782
24	0x3d917e07	0.07104116
25	0x3a11b8a2	0.00055588235
26	0x3e1c0bd9	0.15238895
27	0x3d154bac	0.03644912
28	0xbe2f8a90	-0.17142701
29	0xbe0fdc8f	-0.1404898
30	0xba204567	-0.00061138574
31	0x3e48ca1c	0.19608349
