weights/best_temperature_emotion_regressor.pth (torch, 1914 bytes, 1 tensors)

mlp.0.weight f4 [1, 16]
0.21609753 0.2420351 0.1655751 0.05918014 0.069641046 0.0789532 0.258431 0.23215587
0.07255244 0.19789222 -0.24557357 0.2202118 -0.04284319 -0.020554667 -0.115095645 0.20248464
00000000: ac48 5d3e 0dd8 773e 858c 293e e066 723d
00000010: f79f 8e3d 37b2 a13d 1151 843e 45ba 6d3e
00000020: 6096 943d 42a4 4a3e a377 7bbe 347f 613e
00000030: 577c 2fbd 4362 a8bc 44b7 ebbd 2258 4f3e
