weights/best_temperature_encoder.pth (torch, 17763 bytes, 10 tensors)

lstm.weight_ih_l0 f4 [64, 6]
0.17201671 0.44963065 0.3404148 0.20313127 0.08748778 -0.1781855 0.35870305 -0.14318745
-0.025432594 -0.12487825 0.04777735 -0.25866538 0.25890043 0.24440075 0.22144112 0.14551742
-0.13650441 -0.07315248 0.55845934 -0.10790656 0.08306154 0.38766688 -0.26800036 0.3559886
0.06810727 0.52789485 0.20527406 0.17107078 0.44117892 0.4366659 -0.10055012 0.013257611
0.32269353 0.24910603 0.17067555 0.34167668 0.206258 0.32999024 -0.10312811 0.43418384
0.08971282 0.10225586 0.06552443 0.28476906 -0.031646263 -0.068627335 0.023983706 0.36235148
0.41828907 0.16856763 0.06017485 0.057953693 -0.24360876 -0.22000822 0.2736915 -0.055139467
0.22378014 -0.1937256 0.017333327 0.2784629 0.035724077 0.08913053 0.4189774 0.2858553
0.07762153 0.110452704 -0.21850157 0.2750109 -0.0829457 -0.07947211 0.33076042 -0.2633681
-0.04556025 -0.16173205 0.15433468 0.42653084 -0.020236105 0.22657722 0.38573152 -0.15144615
0.093731366 0.3079143 0.25108317 0.25097862 0.5442453 0.40471718 0.5784416 0.05281203
0.16958623 -0.09476265 0.41153756 0.48580417 0.41573524 0.20345111 0.27041307 0.2197353
0.33019727 0.1560497 0.09337403 0.33258823 1.0486001 0.28031677 0.0041078143 0.17957966
0.33311215 -0.4366645 0.48016912 -0.5425585 -0.116667554 0.12642217 -0.033848386 0.56441164
-1.4385837 0.09589417 0.35407108 -0.21825819 0.22479734 -0.803465 -0.5117136 -0.83833903
0.11104362 0.47211972 0.26073292 0.32000077 1.1736046 0.08614967 0.22991242 0.20890284
0.5712697 0.24797767 -0.081466064 0.34718403 0.18960713 -0.0148314405 -0.19220512 -0.547296
0.8261503 -0.47519785 -0.008707009 0.2276113 0.21834277 0.48675042 -0.1796407 0.64333713
0.49131277 0.712053 0.53332996 -0.2751736 -1.0403308 -0.06808858 -0.13318841 0.111329824
0.25350085 0.07546394 -0.09518357 0.10691117 -0.04291465 -0.16434689 0.038836796 -0.91665065
0.24452533 -0.8582333 0.13199838 0.26214913 -0.012245746 0.2274503 -0.65418637 0.6170449
0.3008723 0.36485845 0.21759737 -0.33412495 0.93446857 -0.42516485 -0.06466676 0.0625914
-0.12941557 -0.4243419 -0.95078284 -0.48652643 0.30887857 0.6551766 0.5709713 0.1378532
-0.43480054 0.6938154 -0.14384298 0.017158125 0.15281051 0.4223791 -1.8428223 -0.04695552
-0.19271941 -0.2274971 0.2212853 -0.31439385 0.11211117 -0.0315458 -0.19402574 -0.015103106
-0.117952235 0.31362265 -0.107918076 -0.043668058 -0.10550881 0.13385795 0.064045094 -0.22548561
0.21027476 0.13643259 0.06438043 -0.10152 0.015669294 0.07596352 0.28452182 -0.23929001
-0.2565488 0.16578618 -0.12325687 -0.36892846 0.10624167 0.19736716 0.0034706665 -0.26518306
-0.27366933 0.24098752 -0.21699147 -0.0565837 0.10597369 -0.065452926 0.16523284 0.31461015
-0.03459659 0.24752302 0.05182219 -0.2668102 0.120391585 0.18982127 -0.18991272 0.03964114
0.09854054 0.2540807 0.13719335 -0.13431908 -0.36154947 -0.10833829 -0.17988877 0.07172278
-0.12824441 -0.08583874 -0.32780012 0.028091867 -0.20348418 -0.06124444 -0.2425545 -0.11928718
00000000: 2625 303e fd35 e63e d94a ae3e a501 503e
00000010: cb2c b33d 4276 36be eda7 b73e bb9f 12be
00000020: 0458 d0bc 2bc0 ffbd 2fb2 433d ca6f 84be
00000030: 998e 843e 3144 7a3e 76c1 623e 8502 153e
00000040: d0c7 0bbe f8d0 95bd 31f7 0e3f 1dfe dcbd
00000050: 2b1c aa3d 467c c63e 5837 89be 2344 b63e
00000060: d37b 8b3d 1e24 073f 5d33 523e 2e2d 2f3e
00000070: 34e2 e13e ac92 df3e 39ed cdbd 7336 593c
00000080: 1638 a53e a715 7f3e 92c5 2e3e 3ff0 ae3e
00000090: 4c35 533e 7bf4 a83e d534 d3bd 584d de3e
000000a0: 5bbb b73d 856b d13d ac31 863d 40cd 913e
000000b0: 839f 01bd 7d8c 8cbd 7a79 c43c 2286 b93e
000000c0: fc29 d63e fe9c 2c3e e779 763d da60 6d3d
000000d0: 9374 79be d649 61be 4b21 8c3e ecd9 61bd
000000e0: 9f26 653e 0160 46be 9ffe 8d3c b092 8e3e
000000f0: 6953 123d 118a b63d 3584 d63e a05b 923e
00000100: 09f8 9e3d 0735 e23d e0be 5fbe 3bce 8c3e
00000110: 6fdf a9bd 46c2 a2bd 6e59 a93e 2fd8 86be
00000120: 629d 3abd 169d 25be e909 1e3e 4062 da3e
00000130: 30c6 a5bc dc03 683e 9a7e c53e b314 1bbe
00000140: 3bf6 bf3d f1a6 9d3e f98d 803e 4580 803e
00000150: a953 0b3f 1737 cf3e c014 143f 6d51 583d
00000160: 03a8 2d3e ec12 c2bd 0db5 d23e 53bb f83e
00000170: 40db d43e 7d55 503e 9573 8a3e 4a02 613e
00000180: 9e0f a93e 7ecb 1f3e e23a bf3d 0149 aa3e
00000190: 8738 863f ae85 8f3e d89a 863b bbe3 373e
000001a0: ad8d aa3e 7d92 dfbe bad8 f53e 1de5 0abf
000001b0: 66ef eebd d074 013e 9ba4 0abd 487d 103f
000001c0: 8323 b8bf 2a64 c43d ce48 b53e 137f 5fbe
000001d0: 4631 663e e2af 4dbf aaff 02bf 639d 56bf
000001e0: d66a e33d adb9 f13e c97e 853e 24d7 a33e
000001f0: ad38 963f 3d6f b03d 296e 6b3e a0ea 553e
00000200: bb3e 123f dced 7d3e aed7 a6bd 1bc2 b13e
00000210: 5f28 423e 92ff 72bc 6bd1 44be 971b 0cbf
00000220: 967e 533f 224d f3be d8a7 0ebc f012 693e
00000230: 3f95 5f3e 5a37 f93e bbf3 37be beb1 243f
00000240: 598d fb3e 1b49 363f 5088 083f 8ee3 8cbe
00000250: 8f29 85bf 0772 8bbd 8b62 08be e400 e43d
00000260: ddca 813e d78c 9a3d 9bef c2bd 3ef4 da3d
00000270: 46c7 2fbd 8d4a 28be 5513 1f3d 9ea9 6abf
00000280: d964 7a3e 2db5 5bbf 952a 073e 6938 863e
00000290: 62a2 48bc bbe8 683e c278 27bf a8f6 1d3f
000002a0: ef0b 9a3e bace ba3e d8d1 5e3e 6d12 abbe
000002b0: 5539 6f3f 35af d9be 0270 84bd ec2f 803d
000002c0: 8485 04be 5743 d9be 8166 73bf fe19 f9be
000002d0: 5525 9e3e a7b9 273f 2d2b 123f 6429 0d3e
000002e0: 2d9e debe e39d 313f 934b 13be 328f 8c3c
000002f0: 5c7a 1c3e 1342 d83e 9ae1 ebbf 6e54 40bd
00000300: 3d58 45be 00f5 68be 9d98 623e 3bf8 a0be
00000310: 8b9a e53d 2b36 01bd afae 46be 0573 77bc
00000320: f190 f1bd 2693 a03e 2704 ddbd 47dd 32bd
00000330: 0115 d8bd 0f12 093e 132a 833d b3e5 66be
00000340: 4452 573e fcb4 0b3e e3d9 833d b8e9 cfbd
00000350: e45c 803c c392 9b3d d8ac 913e 7108 75be
00000360: 5d5a 83be dac3 293e 196e fcbd 31e4 bcbe
00000370: 3c95 d93d 9e1a 4a3e 1f74 633b 13c6 87be
00000380: 631e 8cbe 6fc5 763e 0333 5ebe 4fc4 67bd
00000390: bc08 d93d 2f0c 86bd cc32 293e 9514 a13e
000003a0: 27b5 0dbd ad76 7d3e 8143 543d 599b 88be
000003b0: dd8f f63d 8260 423e 7b78 42be bf5e 223d
000003c0: 9fcf c93d de16 823e 6a7c 0c3e f18a 09be
000003d0: 031d b9be 77e0 ddbd c334 38be 65e3 923d
000003e0: 8152 03be 39cc afbd 6bd5 a7be ea20 e63c
000003f0: 285e 50be 73db 7abd 3560 78be d64c f4bd

lstm.weight_hh_l0 f4 [64, 16]
-0.0090664765 -0.6648542 0.1494917 0.00815916 0.12295369 -0.006094253 0.058999643 0.12088745
0.12586048 -0.34463057 -0.25840753 0.250678 -0.30437964 0.23389207 -0.21845382 0.092831336
-0.24739857 -0.26800045 0.12745059 -0.18824568 -0.10410579 -0.31769472 0.115405284 -0.00655666
0.19821472 0.06999712 -0.3016348 -0.25319296 -0.15937936 -0.09033226 -0.19090955 -0.04950845
-0.1279345 -0.14496247 -0.4238977 0.34128594 0.16837086 0.45044568 0.070835166 0.05884058
0.117158026 0.09808036 0.07614497 -0.051859964 0.22205244 -0.007983087 -0.41072333 -0.3192794
-0.086234145 -0.47966757 -0.101641156 0.2556604 0.037016846 0.21129514 -0.08945704 0.06617491
-0.26392645 -0.33257148 -0.4027811 0.36775142 -0.32246512 0.3316007 0.54357433 0.4362243
-0.06380223 -0.21049783 -0.007254157 0.16231993 -0.08892538 -0.3717236 0.45601436 -0.16913027
0.050482683 -0.37655193 -0.11261861 0.05940842 0.09126161 0.065670475 -0.075589016 0.14705339
-0.070716135 0.02891551 -0.13276336 0.40329581 0.20956288 -0.12859432 0.11342604 0.115728386
0.5126376 -0.12402712 -0.018523192 0.005823375 -0.07833045 -0.15827405 0.020100342 0.24701387
-0.3963053 -0.13784048 -0.021582393 0.63202405 -0.009645545 -0.43684515 0.32175475 -0.006841583
0.88190204 0.25635237 -0.100943804 0.38223794 0.2713253 0.11807907 -0.26782352 -0.12277596
-0.30026135 -0.47382462 0.1948463 0.19077364 -0.0843709 -0.058119263 -0.10892771 0.30718043
-0.016943855 -0.44103393 -0.17561053 0.029985981 -0.25390938 0.09061105 0.30700183 0.15635444
-0.012017506 -0.3078106 -0.015425661 0.9152038 -0.1982544 -0.48559612 0.29043525 0.01565002
0.50306517 -0.42086196 -0.05127923 0.30625474 0.18379687 -0.047881942 0.061770964 -0.055965178
0.27087727 -0.17043345 0.20341778 -0.15065046 -0.20280933 -0.24393153 0.21380518 -0.13694212
0.8926529 -0.2300235 -0.20239447 0.43523696 -0.05511019 -0.29527077 0.28461158 0.36531517
-0.52481157 0.09810466 -0.12730663 0.02701206 0.08443404 -0.01737957 0.07628903 0.11487567
0.2693301 -0.10386292 -0.23434652 -0.26314855 0.12230873 -0.05112227 0.14459981 0.13263518
-0.114244714 0.049512457 -0.19204813 0.010972933 -0.17835638 0.065956764 -0.01564158 0.18515138
0.35168722 -0.24589095 -0.036207482 0.02456363 -0.069930084 0.29824075 -0.29130322 -0.06947697
0.047871005 -0.07961096 -0.23518685 -0.025714878 0.10453936 0.12122878 0.022344671 -0.050083622
-0.057483237 0.054998692 -0.21997917 -0.15841185 -0.16135404 -0.039920527 0.04281269 -0.12542772
-0.3233669 -0.17566733 -0.3782494 -0.052502524 -0.2102505 -0.0030689414 0.25652498 0.2215006
0.6655694 0.018083174 -0.26572564 -0.12675765 -0.10249091 0.05463332 0.14482631 -0.44633123
-0.13580978 -0.65916985 0.04855223 -0.29394168 -0.13205563 0.3359703 0.40313125 0.34984115
-0.31987706 -0.5350948 -0.30466828 0.5310911 -1.0137408 0.23637803 0.5749339 0.45035455
0.2598725 -0.39893302 0.04594458 -0.21125726 0.36770484 -0.3980221 -0.08772938 0.17164202
0.2748134 -0.014462714 -0.07322766 0.34249374 -0.068021975 0.49784067 0.22143772 0.72623914
00000000: 8f8b 14bc e333 2abf 5a14 193e ffad 053c
00000010: 25cf fb3d 4db2 c7bb 9ca9 713d d793 f73d
00000020: 92e1 003e 6b73 b0be fe4d 84be de58 803e
00000030: a6d7 9bbe 6781 6f3e 5cb2 5fbe 5b1e be3d
00000040: 0d56 7dbe 5b37 89be 6882 023e 7ac3 40be
00000050: 6b35 d5bd e2a8 a2be 9b59 ec3d 40d9 d6bb
00000060: cdf8 4a3e a65a 8f3d e06f 9abe 82a2 81be
00000070: 5834 23be 1f00 b9bd cb7d 43be 5fc9 4abd
00000080: 4301 03be 0b71 14be 1f09 d9be 08bd ae3e
00000090: 6969 2c3e d1a0 e63e 0712 913d d202 713d
000000a0: 8cf0 ef3d 5bde c83d e5f1 9b3d 1d6b 54bd
000000b0: b761 633e 7ecb 02bc 544a d2be 9778 a3be
000000c0: 879b b0bd fd96 f5be 3d29 d0bd ece5 823e
000000d0: fa9e 173d c15d 583e 4135 b7bd b686 873d
000000e0: 5e21 87be cf46 aabe 5339 cebe ea49 bc3e
000000f0: 261a a5be 91c7 a93e b027 0b3f cb58 df3e
00000100: beaa 82bd be8c 57be 48b4 edbb 3237 263e
00000110: 821e b6bd 8e52 bebe b77a e93e 7c30 2dbe
00000120: eec6 4e3d 6acb c0be 96a4 e6bd 3e56 733d
00000130: 5ee7 ba3d 3e7e 863d 6ace 9abd 2a95 163e
00000140: 9fd3 90bd 38e0 ec3c 1ef3 07be ca7c ce3e
00000150: a797 563e 3bae 03be e94b e83d 0103 ed3d
00000160: 383c 033f ee01 febd f3bd 97bc 03d2 be3b
00000170: b76b a0bd 9812 22be 79a9 a43c 34f1 7c3e
00000180: 87e8 cabe 0e26 0dbe 8fcd b0bc 54cc 213f
00000190: 5908 1ebc 2baa dfbe 0abd a43e 5c2f e0bb
000001a0: 55c4 613f 9e40 833e a0bb cebd b1b4 c33e
000001b0: 26eb 8a3e 70d3 f13d 2a20 89be f671 fbbd
000001c0: dbbb 99be 2499 f2be ca85 473e 2a5a 433e
000001d0: a7ca acbd 770e 6ebd 7e15 dfbd c146 9d3e
000001e0: d7cd 8abc 33cf e1be 3fd3 33be 29a5 f53c
000001f0: 6900 82be 4992 b93d 582f 9d3e 611b 203e
00000200: 13e5 44bc 5a99 9dbe e9bb 7cbc cc4a 6a3f
00000210: 3403 4bbe 0ea0 f8be eeb3 943e 7934 803c
00000220: e1c8 003f 387b d7be 2b0a 52bd 6ccd 9c3e
00000230: 3f35 3c3e db1f 44bd 8d03 7d3d be3b 65bd
00000240: 6db0 8a3e 1b86 2ebe c04c 503e 1d44 1abe
00000250: 40ad 4fbe 30c9 79be bfef 5a3e 8e3a 0cbe
00000260: e784 643f 488b 6bbe 7f40 4fbe 61d7 de3e
00000270: 39bb 61bd bb2d 97be 9cb8 913e 970a bb3e
00000280: 0d5a 06bf 19eb c83d ab5c 02be 6548 dd3c
00000290: c1eb ac3d 9a5f 8ebc 6c3d 9c3d ef43 eb3d
000002a0: a3e5 893e 15b6 d4bd 89f8 6fbe 68bb 86be
000002b0: 007d fa3d 9665 51bd f911 143e 84d1 073e
000002c0: 22f9 e9bd 93cd 4a3d 44a8 44be d1c7 333c
000002d0: 0ea3 36be 5714 873d c522 80bc 5398 3d3e
000002e0: 5910 b43e d6ca 7bbe 4c4e 14bd aa39 c93c
000002f0: 8137 8fbd 03b3 983e b225 95be f149 8ebd
00000300: 6314 443d 120b a3bd d2d4 70be 02a8 d2bc
00000310: bb18 d63d cb46 f83d 2c0c b73c 7c24 4dbd
00000320: 8b73 6bbd 4f46 613d 3842 61be b736 22be
00000330: fe39 25be b583 23bd 5c5c 2f3d 2070 00be
00000340: 5990 a5be 23e2 33be e8a9 c1be e30c 57bd
00000350: e84b 57be 4b20 49bb 3e57 833e 0ed1 623e
00000360: c262 2a3f 2a23 943c 310d 88be c2cc 01be
00000370: c1e6 d1bd 30c7 5f3d 594d 143e 8785 e4be
00000380: b811 0bbe 5bbf 28bf b4de 463d 867f 96be
00000390: 9739 07be 4d04 ac3e 3867 ce3e 611e b33e
000003a0: edc6 a3be f9fb 08bf 7bfd 9bbe 96f5 073f
000003b0: 42c2 81bf 150d 723e de2e 133f df94 e63e
000003c0: 020e 853e f340 ccbe 6230 3c3d d353 58be
000003d0: cf43 bc3e 8dc9 cbbe 76ab b3bd edc2 2f3e
000003e0: 58b4 8c3e 05f5 6cbc 62f8 95bd 575b af3e
000003f0: 1b4f 8bbd f9e4 fe3e 92c0 623e cfea 393f

lstm.bias_ih_l0 f4 [64]
0.4929717 0.0116574345 0.053068746 0.33695713 0.0016654404 -0.050281484 0.12834528 -0.048906617
0.033584483 -0.077218115 0.17294848 0.120870516 0.21705517 -0.1429091 0.3357354 0.51709664
0.16821754 0.08810525 0.03247853 0.18936379 0.21943963 0.025846863 0.20261578 -0.08667191
0.3678622 0.25025904 0.24971776 0.3491525 -0.09828203 -0.05327411 0.03164383 -0.03779167
0.186433 -0.14512223 0.048010204 -0.18359466 -0.21916789 0.21128151 0.011392472 0.18003419
-0.011651148 -0.086175226 0.2063442 0.17239758 -0.10417708 0.10929802 -0.19153988 0.23296678
0.26527807 0.16519757 0.33607817 0.69197464 0.2946621 0.1976389 -0.1679753 0.119034216
0.18361874 -0.024101378 -0.015365651 0.36812878 0.2502371 -0.16144662 0.41773385 0.30976564
00000000: c966 fc3e d3fe 3e3c 9d5e 593d a585 ac3e
00000010: e84a da3a f5f3 4dbd f26c 033e 4e52 48bd
00000020: e28f 093d 8824 9ebd 6819 313e f68a f73d
00000030: b643 5e3e c356 12be 83e5 ab3e 7260 043f
00000040: 3841 2c3e 8670 b43d 3508 053d 95e8 413e
00000050: c8b4 603e cdbc d33c 837a 4f3e 0b81 b1bd
00000060: 6f58 bc3e f421 803e 03b6 7f3e 1ec4 b23e
00000070: 1748 c9bd f435 5abd f69c 013d 70cb 1abd
00000080: 4be8 3e3e ec9a 14be 59a6 443d 3d00 3cbe
00000090: 8c6d 60be 2e5a 583e 7ea7 3a3c e25a 383e
000000a0: 75e4 3ebc a37c b0bd e54b 533e fe88 303e
000000b0: cb5a d5bd a4d7 df3d 0823 44be d88e 6e3e
000000c0: 87d2 873e 8d29 293e 7012 ac3e 4025 313f
000000d0: f3dd 963e da61 4a3e b801 2cbe 36c8 f33d
000000e0: 8d06 3c3e 4170 c5bc 36c0 7bbc 607b bc3e
000000f0: 141f 803e 4352 25be 36e1 d53e 9a99 9e3e

lstm.bias_hh_l0 f4 [64]
0.30639583 0.13511509 0.0029260123 0.43690842 0.4331759 0.20062862 -0.0137422485 0.14188062
0.16327327 -0.050807964 0.02424576 0.05212356 -0.09620598 -0.10565732 0.48133862 0.50100327
0.49947304 0.15441144 -0.09047891 0.4858689 0.012456579 0.4663701 0.031862404 0.26928234
0.34975687 0.14911929 0.021793311 0.22086269 0.08995931 -0.09154987 0.23188148 0.26813996
0.29412344 -0.010253275 -0.21980783 -0.05320785 0.058446668 -0.0255767 -0.19854285 0.13598505
0.019124875 0.22478181 -0.017394675 -0.10187278 -0.16760267 0.1685657 0.112264425 0.053189296
0.5523678 0.1438197 0.37693873 0.47709063 0.10932774 0.29669344 -0.10672674 0.21719746
-0.05505833 -0.029459545 -0.053397153 0.13520904 0.18130656 0.21353176 0.2567985 0.30910948
00000000: eadf 9c3e 9c5b 0a3e 57c2 3f3b 76b2 df3e
00000010: 3bc9 dd3e 9771 4d3e 2b27 61bc 2749 113e
00000020: 1c31 273e 031c 50bd 0b9f c63c 847f 553d
00000030: a407 c5bd dd62 d8bd 0472 f63e c041 003f
00000040: eeba ff3e 081e 1e3e 024d b9bd cfc3 f83e
00000050: ae16 4c3c 10c8 ee3e 2782 023d 60df 893e
00000060: 5513 b33e bab2 183e e387 b23c d429 623e
00000070: 963c b83d 807e bbbd 5772 6d3e a449 893e
00000080: 5997 963e 5afd 27bc 4e15 61be 79f0 59bd
00000090: c665 6f3d 3a86 d1bc d14e 4bbe aa3f 0b3e
000000a0: c5ab 9c3c 342d 663e 477f 8ebc ada2 d0bd
000000b0: 09a0 2bbe 7d9c 2c3e e4ea e53d 05dd 593d
000000c0: fa67 0d3f 7945 133e 1dfe c03e 3945 f43e
000000d0: 39e7 df3d 34e8 973e 8d93 dabd 0369 5e3e
000000e0: d884 61bd 2555 f1bc f9b6 5abd 3d74 0a3e
000000f0: 6da8 393e 12a8 5a3e 187b 833e 9943 9e3e

lstm.weight_ih_l1 f4 [64, 16]
-0.14279936 -0.039828446 -0.014982841 0.4549031 -0.50736135 -0.14857256 0.05484901 0.46329406
-0.09478495 -0.3024795 -0.29445744 0.13924496 -0.4106887 0.08995536 0.4538019 0.31161964
-0.059197493 0.0017006557 -0.111456364 -0.022698447 -0.5181582 0.30440784 0.06539871 0.158413
-0.056078717 -0.38945454 -0.3357431 -0.13989013 -0.41274837 0.16394387 0.09402532 0.0055995546
0.109552465 -0.2654953 -0.07125468 -0.11708707 -0.16424844 -0.14925274 0.19352068 0.03987324
0.14973293 0.015023937 -0.004197986 0.3781165 -0.28149694 -0.02062074 0.41188273 0.0033584884
-0.15635361 -0.3912132 0.013724685 -0.22480494 -0.58227706 -0.2612794 0.05028655 0.31089905
0.18206869 -0.20559663 -0.021006942 -0.14903474 0.032058105 0.22897662 0.34402165 0.11374515
-0.06227646 -0.37280035 -0.26393342 0.95051426 -0.30071938 -0.006703972 0.31513146 0.29792932
-0.34026238 -0.33194706 -0.042185973 0.12056675 -0.024392175 0.13244863 0.07445112 -0.14617546
-0.33471385 -0.48896635 -0.5698365 0.74651474 -0.23762675 0.25254932 0.54663265 0.15643238
0.116330355 -0.11299639 -0.08273499 0.25054967 -0.123506576 -0.03742326 0.3479105 -0.08862196
0.052329767 -0.099126495 0.15191668 -0.4413043 -0.1630806 -0.1137001 0.008033838 -0.04881421
0.55041766 -0.2632156 -0.21308568 0.18987529 -0.0104419235 -0.3154004 -0.081261575 0.21414879
-0.4222261 0.13197535 -0.44292754 0.8456499 -0.68603855 0.008952572 0.48247278 0.5673997
0.1001394 -0.44944733 -0.1240302 -0.13234644 -0.14563234 0.36938858 0.14375255 0.27021337
-0.5757807 -0.12228788 -0.23603827 1.002522 -0.32264012 -0.04154061 0.508064 0.37631822
0.07552959 -0.1639366 -0.37264848 0.1332226 -0.38698745 0.20203245 0.0031410612 0.10348818
0.11508501 -0.31302118 0.22003447 0.19340383 0.12241208 0.5009367 -0.04490822 0.12610726
-0.3709468 -0.004304601 0.016904503 -0.1718111 0.14928359 -0.022727333 0.6450455 0.39181715
-0.37355715 -0.29462838 -0.3744782 0.23632622 -0.4450202 -0.10772936 0.21311852 0.26704803
0.27590114 0.082348235 -0.14350988 0.1482638 -0.06820634 0.086080216 0.11159503 -0.187101
0.020526342 -0.18190044 -0.0892052 -0.19959043 -0.28519547 0.058766756 -0.08204735 0.34876877
0.22926804 -0.4903303 -0.5146002 0.07023728 -0.08783023 -0.28597865 0.6261905 0.4692275
-0.0026205163 -0.27297857 -0.4630665 0.30998445 -0.5059098 -0.34423444 0.33147517 0.51564413
0.14490001 -0.65516424 -0.4605372 0.44753364 -0.40580326 0.09933629 0.29580233 -0.05414128
-0.15801662 -0.3652325 -0.08926184 -0.08611445 -0.4522513 -0.32124573 0.35036832 0.18570668
0.61289084 -0.5601364 -0.09370662 0.46695423 -0.3986881 0.0084774615 0.11761287 -0.073570676
-0.25813538 -0.28119302 0.331444 -0.10354893 0.07810108 -0.63025993 0.17082237 -0.0072015594
0.43179262 0.17771207 -0.07367632 0.51100254 -0.23950718 0.09720901 -0.0009227898 -0.038250122
0.08729154 -0.0751192 -0.18206088 -0.34647483 -0.00022479868 0.27791268 -0.1040021 0.19648014
-0.21258104 0.22479874 -0.105043 -0.06378788 -0.0068534827 0.1007183 0.15508556 0.2534979
00000000: ff39 12be 2723 23bd 977a 75bc 0fe9 e83e
00000010: 6fe2 01bf 6823 18be 5ba9 603d e134 ed3e
00000020: 9d1e c2bd 98de 9abe 20c3 96be 3b96 0e3e
00000030: ca45 d2be 843a b83d b958 e83e 9c8c 9f3e
00000040: 1279 72bd 89e8 de3a 3c43 e4bd 18f2 b9bc
00000050: 04a6 04bf 58db 9b3e c2ef 853d 0437 223e
00000060: ccb2 65bd 9666 c7be 85e6 abbe 5c3f 0fbe
00000070: c153 d3be e7e0 273e 5990 c03d 787c b73b
00000080: 0b5d e03d 00ef 87be f9ed 91bd 59cb efbd
00000090: be30 28be b6d5 18be 492a 463e 1f52 233d
000000a0: 9753 193e f626 763c 428f 89bb 7c98 c13e
000000b0: 5e20 90be d3ec a8bc 4be2 d23e 161a 5c3b
000000c0: 291b 20be 194d c8be 80dd 603c 4433 66be
000000d0: 1c10 15bf 6ac6 85be 45f9 4d3d 292e 9f3e
000000e0: 3770 3a3e ec87 52be c016 acbc 909c 18be
000000f0: 5c4f 033d d978 6a3e 9b23 b03e 38f3 e83d
00000100: 9a15 7fbd b0df bebe 4822 87be e754 733f
00000110: e4f7 99be feac dbbb e958 a13e 318a 983e
00000120: df36 aebe f7f4 a9be 33cb 2cbd b3eb f63d
00000130: 19d2 c7bc 9da0 073e d479 983d 05af 15be
00000140: 9d5f abbe cc59 fabe cee0 11bf 971b 3f3f
00000150: 6d54 73be 254e 813e 1ef0 0b3f cf2f 203e
00000160: 9c3e ee3d a76a e7bd f670 a9bd 0c48 803e
00000170: 04f1 fcbd 2249 19bd 5321 b23e 6e7f b5bd
00000180: bd57 563d d502 cbbd 0c90 1b3e a3f2 e1be
00000190: 9afe 26be 99db e8bd 5ca0 033c 69f1 47bd
000001a0: 2ce8 0c3f 32c4 86be 2233 5abe ab6e 423e
000001b0: 9a14 2bbc 297c a1be 786c a6bd d249 5b3e
000001c0: 052e d8be 8c24 073e 66c7 e2be 837c 583f
000001d0: 39a0 2fbf cfad 123c ac06 f73e 1b41 113f
000001e0: e315 cd3d f61d e6be 8c03 febd d385 07be
000001f0: a520 15be 8020 bd3e de33 133e 6859 8a3e
00000200: 5d66 13bf 1172 fabd 04b4 71be a452 803f
00000210: 1631 a5be 7d26 2abd 7b10 023f c8ac c03e
00000220: 42af 9a3d ffde 27be c8cb bebe 816b 083e
00000230: 3823 c6be 98e1 4e3e 43da 4d3b 9cf1 d33d
00000240: b1b1 eb3d 5044 a0be b750 613e a70b 463e
00000250: 2fb3 fa3d 633d 003f aff1 37bd 4322 013e
00000260: bdec bdbe 9c0d 8dbb 507b 8a3c 40ef 2fbe
00000270: ccdd 183e ac2e babc b421 253f 429c c83e
00000280: e242 bfbe 88d9 96be 9bbb bfbe 80ff 713e
00000290: b0d9 e3be 36a1 dcbd be3b 5a3e 85ba 883e
000002a0: ea42 8d3e 31a6 a83d 41f4 12be 77d2 173e
000002b0: c4af 8bbd d34a b03d ef8b e43d 6897 3fbe
000002c0: dc26 a83c 1c44 3abe 37b1 b6bd 6f61 4cbe
000002d0: 2405 92be 69b5 703d 7108 a8bd d291 b23e
000002e0: 3ec5 6a3e 930c fbbe d7bc 03bf 90d8 8f3d
000002f0: 56e0 b3bd cb6b 92be 054e 203f 963e f03e
00000300: f8bc 2bbb d9c3 8bbe 0d17 edbe 48b6 9e3e
00000310: 4e83 01bf 7f3f b0be 1db7 a93e 4101 043f
00000320: ab60 143e d8b8 27bf 88cb ebbe 2123 e53e
00000330: 72c5 cfbe d370 cb3d 6773 973e 3fc3 5dbd
00000340: 1ccf 21be c1ff babe e9ce b6bd c65c b0bd
00000350: 7b8d e7be 527a a4be 7a63 b33e e429 3e3e
00000360: 6ae6 1c3f 1965 0fbf 42e9 bfbd a014 ef3e
00000370: d920 ccbe 0de5 0a3c 04df f03d 39ac 96bd
00000380: 522a 84be 88f8 8fbe 07b3 a93e 7611 d4bd
00000390: 76f3 9f3d b758 21bf 0fec 2e3e 0ffb ebbb
000003a0: ec13 dd3e 27fa 353e 9ce3 96bd 10d1 023f
000003b0: 5f41 75be 8415 c73d 60e7 71ba 29ac 1cbd
000003c0: e8c5 b23d 18d8 99bd 2b6e 3abe 2665 b1be
000003d0: f0b7 6bb9 924a 8e3e 0eff d4bd 1732 493e
000003e0: d8ae 59be a431 663e c920 d7bd 38a3 82bd
000003f0: 2e93 e0bb 6545 ce3d c0ce 1e3e 7aca 813e

lstm.weight_hh_l1 f4 [64, 16]
0.035005562 0.1952228 -0.044725116 0.36534527 -0.15039092 0.39293322 0.09915504 0.30183056
-0.060987875 -0.05387033 -0.06545773 -0.020767562 0.05391311 0.39366916 -0.103335045 0.24501076
0.0756852 0.36293858 -0.32237136 0.34585476 -0.20609286 0.4145865 -0.11698496 0.48647845
0.03735886 -0.1747981 -0.33364028 0.11490599 0.17788012 0.12427735 0.08420781 0.13160765
-0.015602006 0.086350404 -0.18743561 0.27956218 -0.28994492 0.088586494 -0.34162995 0.2652188
-0.21751522 -0.079048395 0.07718079 -0.23935738 0.08333138 -0.086244754 0.10561093 0.25882936
0.09091115 0.2350872 -0.18650112 0.16515493 0.18072395 0.3877273 0.003271884 -0.014604597
0.05025076 -0.073616125 -0.04775315 -0.03613283 -0.11177988 -0.08871304 0.09861447 0.32024515
0.083130434 -0.12345401 -0.14437091 0.13529411 -0.16363801 0.21937083 0.11584491 0.3927815
0.15859428 0.18591158 -0.105137646 0.2546999 0.39880052 0.3307107 -0.44573748 0.08109132
-0.12882741 -0.1250984 -0.46974224 -0.17890601 -0.44568297 0.48669907 0.24594662 0.10386064
0.34743148 0.5222765 -0.6019303 -0.31940705 0.18896979 0.44925737 0.2620476 0.013315027
0.6622936 -0.1573562 0.11307937 -0.07401208 -0.053122245 0.10681874 -0.037669852 -0.046748266
0.016482076 -0.10931379 -0.44642034 0.41483322 -0.38570994 0.17109652 0.12843926 0.4539107
-0.4526993 -0.1008609 -0.04591124 0.3262445 -0.52233785 0.20907842 -0.14683719 -0.087848805
0.12578724 0.15487318 -0.18108727 0.13370165 0.3232428 -0.16347356 0.4528758 0.3597779
-0.20791864 -0.15713902 0.07122163 0.0803606 -0.49225423 0.61474013 -0.04115678 0.116318405
0.23975052 0.084858485 -0.7190856 0.25966433 -0.18748754 0.06723689 0.3036097 0.058836002
9.297273e-05 0.6342092 -0.37393868 0.5810547 -0.59835756 0.49086067 -0.63069683 0.52426153
-0.6911604 -0.18016209 0.10424884 0.26516318 -0.08330046 0.41341266 -0.0044276393 0.78178054
-0.1676027 0.06447089 -0.14997885 -0.27179956 -0.44414535 0.1675129 0.16585499 0.15734453
0.12563571 0.45177308 -0.34946397 0.020920176 -0.12792675 0.29622802 0.21424416 -0.17960241
0.03053909 0.25607568 -0.3542341 0.27406284 -0.45753488 0.40234542 -0.29834893 0.33325505
-0.04065496 -0.028116198 -0.18388908 -0.2516842 0.45773184 -0.08911432 0.10944786 0.13061082
-0.18127714 -0.015649056 -0.26167893 0.3562057 -0.095357604 0.38005444 0.2245726 -0.14273244
0.4705179 0.109279476 -0.45228982 -0.06805102 0.11325197 -0.026325108 -0.05940032 0.08158973
0.09732119 -0.02940953 -0.24624676 -0.28107762 0.17857453 0.3539682 0.19771221 -0.19613326
0.46817133 -0.08197774 -0.22970654 0.016793802 0.2684507 0.13696298 -0.38211933 0.0006712653
0.46582732 -0.08605636 -0.27970994 -0.26153067 0.24869654 -0.14313771 0.22046702 -0.2973631
0.19057545 -0.20343511 -0.07371303 0.21038012 -0.196563 -0.027828993 0.024745343 -0.030983422
-0.43796557 0.16103743 -0.69292605 0.0919243 -0.41204342 0.36573902 -0.13332191 0.12618463
-0.43725774 -0.061847065 0.07985942 0.47474664 0.32793817 -0.026934683 -0.3298409 -0.027077546
00000000: fe61 0f3d 7ce8 473e af31 37bd 890e bb3e
00000010: 1400 1abe 8b2e c93e cc11 cb3d 8989 9a3e
00000020: 6cce 79bd 23a7 5cbd b40e 86bd bc20 aabc
00000030: fed3 5c3d 018f c93e 53a1 d3bd 1ae4 7a3e
00000040: d800 9b3d 16d3 b93e dc0d a5be e013 b13e
00000050: 020a 53be af44 d43e d095 efbd b413 f93e
00000060: 9b05 193d 46fe 32be e6d2 aabe d553 eb3d
00000070: 3526 363e 2085 fe3d 2575 ac3d 28c4 063e
00000080: 8e9f 7fbc 7bd8 b03d 1fef 3fbe c622 8f3e
00000090: a973 94be d66c b53d 1fea aebe c2ca 873e
000000a0: 4fbc 5ebe 20e4 a1bd f610 9e3d 1a1a 75be
000000b0: a4a9 aa3d 17a1 b0bd 8b4a d83d 4885 843e
000000c0: a02f ba3d b3ba 703e 26fa 3ebe 601e 293e
000000d0: b30f 393e 3184 c63e 1b6d 563b 1f48 6fbc
000000e0: bed3 4d3d 0dc4 96bd cf98 43bd 0500 14bd
000000f0: daec e4bd 2faf b5bd 62f6 c93d 2cf7 a33e
00000100: 4a40 aa3d 75d5 fcbd f8d5 13be 8a8a 0a3e
00000110: b990 27be bfa2 603e 1940 ed3d a81a c93e
00000120: 8a66 223e 9b5f 3e3e 6852 d7bd 0668 823e
00000130: 952f cc3e ea52 a93e b437 e4be 3513 a63d
00000140: 55eb 03be cc19 00be 0e82 f0be 2333 37be
00000150: 8f30 e4be 9f30 f93e 6ed9 7b3e e3b4 d43d
00000160: 8ae2 b13e eab3 053f 1b18 1abf 5289 a3be
00000170: 4c81 413e 1005 e63e 1a2b 863e 4527 5a3c
00000180: 138c 293f fc21 21be 2896 e73d a593 97bd
00000190: b696 59bd c9c3 da3d b44b 1abd 1c7b 3fbd
000001a0: 6b05 873c e9df dfbd 3591 e4be 0565 d43e
000001b0: c67b c5be ed33 2f3e 9585 033e fc66 e83e
000001c0: 34c8 e7be 2990 cebd 6d0d 3cbd 8509 a73e
000001d0: efb7 05bf a718 563e 7d5c 16be 13ea b3bd
000001e0: 5fce 003e 1397 1e3e f16e 39be 16e9 083e
000001f0: 1580 a53e 9d65 27be 56df e73e cf34 b83e
00000200: a0e8 54be 0de9 20be a5dc 913d 1994 a43d
00000210: bf08 fcbe 9c5f 1d3f 0394 28bd 5838 ee3d
00000220: 2981 753e 49ca ad3d fe15 38bf b9f2 843e
00000230: bcfc 3fbe 7fb3 893d bb72 9b3e 05fe 703d
00000240: 5bfa c238 895b 223f e474 bfbe 00c0 143f
00000250: f62d 19bf 1752 fb3e 5975 21bf 0136 063f
00000260: e3ef 30bf 697c 38be 6a80 d53d 78c3 873e
00000270: 6e99 aabd d3aa d33e bb15 91bb c522 483f
00000280: 0ba0 2bbe 5009 843d 0e94 19be 5029 8bbe
00000290: 0567 e3be 8088 2b3e e4d5 293e ed1e 213e
000002a0: a6a6 003e cd4e e73e f1ec b2be ca60 ab3c
000002b0: 3bff 02be 33ab 973e d262 5b3e b2e9 37be
000002c0: 1d2d fa3c 5a1c 833e 2c5e b5be f751 8c3e
000002d0: 0342 eabe 3800 ce3e 31c1 98be 68a0 aa3e
000002e0: d185 26bd f153 e6bc 6b4d 3cbe c0dc 80be
000002f0: d45b ea3e 9281 b6bd 3326 e03d d8be 053e
00000300: b7a0 39be 7332 80bc c8fa 85be 9860 b63e
00000310: d94a c3bd 7f96 c23e 5cf6 653e 7428 12be
00000320: b9e7 f03e ebcd df3d 8892 e7be 555e 8bbd
00000330: a6f0 e73d c1a7 d7bc c04d 73bd 8418 a73d
00000340: 5550 c73d 41ec f0bc 1c28 7cbe 68e9 8fbe
00000350: 3edc 363e 523b b53e 1275 4a3e 28d7 48be
00000360: 27b4 ef3e f2e3 a7bd 3138 6bbe 2893 893c
00000370: 5f72 893e 0640 0c3e 25a5 c3be daf7 2f3a
00000380: eb80 ee3e 513e b0bd 2436 8fbe 59e7 85be
00000390: 4eaa 7e3e b192 12be 1bc2 613e fa3f 98be
000003a0: 3626 433e 4b51 50be dbf6 96bd e36d 573e
000003b0: d047 49be a1f9 e3bc bfb6 ca3c f2d0 fdbc
000003c0: 063d e0be ffe6 243e 9a63 31bf cf42 bc3d
000003d0: 5bf7 d2be 2542 bb3e 8a85 08be 8b36 013e
000003e0: 3fe0 dfbe 5953 7dbd 568d a33d fe11 f33e
000003f0: 83e7 a73e 20a6 dcbc e8e0 a8be bbd1 ddbc

lstm.bias_ih_l1 f4 [64]
0.47766963 0.042663757 0.24245581 -0.004765562 0.27829456 0.022054873 0.43820128 0.2184544
-0.061536156 0.4421426 0.069245085 0.19871326 0.32423502 0.39737096 0.049759664 0.016274342
0.0505923 0.3828979 0.10801877 0.35021532 0.3316371 -0.006552054 0.18187352 0.13235795
0.265585 0.25488365 0.08193084 0.15852359 0.37103865 0.29722345 0.13444065 0.038218167
-0.039895043 0.031882025 0.1850859 0.08065055 -0.17545584 0.15157063 -0.23280735 0.15977313
0.031247918 -0.14649697 -0.14956978 0.09274221 -0.12765971 0.18230297 -0.18320452 0.2843008
0.35258412 0.07712816 -0.03979319 0.27172688 0.20043671 0.027024321 -0.018843748 0.24825601
0.29420197 0.23815069 0.3136104 0.20575239 0.114338495 0.2517297 0.123619914 0.23767397
00000000: 1d91 f43e 31c0 2e3d 5646 783e 6e28 9cbb
00000010: a07c 8e3e 6cac b43c eb5b e03e 83b2 5f3e
00000020: 560d 7cbd 8460 e23e 5ed0 8d3d 7d7b 4b3e
00000030: 2202 a63e 3574 cb3e cad0 4b3d c551 853c
00000040: df39 4f3d 320b c43e f238 dd3d 6c4f b33e
00000050: 57cc a93e 9db2 d6bb 0d3d 3a3e d888 073e
00000060: c2fa 873e 1c80 823e 5bcb a73d 0254 223e
00000070: c7f8 bd3e ac2d 983e cfaa 093e a78a 1c3d
00000080: fc68 23bd ba96 023d 2887 3d3e 1e2c a53d
00000090: b2aa 33be 5535 1b3e 0d65 6ebe 919b 233e
000000a0: a2fb ff3c 4d03 16be d228 19be a1ef bd3d
000000b0: 3ab9 02be a1ad 3a3e f799 3bbe e08f 913e
000000c0: e885 b43e 5ef5 9d3d 2ffe 22bd c91f 8b3e
000000d0: 483f 4d3e 1c62 dd3c 345e 9abc d336 7e3e
000000e0: a4a1 963e c6dd 733e 8b91 a03e c1b0 523e
000000f0: 4d2a ea3d b7e2 803e 702c fd3d ce60 733e

lstm.bias_hh_l1 f4 [64]
-0.009528867 0.03425689 0.336928 0.020536521 0.12599866 -0.024672454 0.18003766 0.076125935
0.045044716 0.5000188 0.19682589 0.1822724 0.39367667 0.12251803 0.09453645 0.027143685
0.034597214 0.28845635 0.13491485 0.2457644 0.07576497 0.09026067 0.21749093 -0.14242701
-0.15862086 0.31443286 0.1544957 -0.03922893 0.24372743 0.243487 0.15353058 0.22148474
0.24799052 0.21443102 -0.16879326 0.10511998 -0.027621277 0.08919474 -0.124538474 0.16977791
0.05852597 0.21515663 -0.1416426 0.14067096 0.20325 0.18568973 -0.18591924 0.080799885
0.41032705 0.20397112 0.36538556 0.3753375 0.004291037 0.14420305 0.051368102 0.20239665
0.32857555 0.45495743 -0.07117117 0.34492335 0.10122622 -0.0826188 -0.11425528 0.06628627
00000000: f71e 1cbc f450 0c3d d481 ac3e 353c a83c
00000010: cb05 013e e31d cabc cb5b 383e eae7 9b3d
00000020: cf80 383d 3b01 003f ba8c 493e 9ea5 3a3e
00000030: fd8f c93e bcea fa3d 549c c13d 6f5c de3c
00000040: cfb5 0d3d 8db0 933e 1e27 0a3e aaa9 7b3e
00000050: aa2a 9b3d 96da b83d f1b5 5e3e 63d8 11be
00000060: 826d 22be 58fd a03e 1f34 1e3e 84ae 20bd
00000070: af93 793e a854 793e 1f37 1d3e e5cc 623e
00000080: 3af1 7d3e ce93 5b3e 24d8 2cbe 2549 d73d
00000090: 0446 e2bc bbab b63d 070e ffbd 43da 2d3e
000000a0: edb8 6f3d 0552 5c3e c20a 11be 0c0c 103e
000000b0: c520 503e 7325 3e3e 9d61 3ebe 697a a53d
000000c0: 6316 d23e cedd 503e d113 bb3e 3d2c c03e
000000d0: d49b 8c3b f7a9 133e 5c67 523d 1141 4f3e
000000e0: 0e3b a83e 2ef0 e83e 31c2 91bd cb99 b03e
000000f0: b14f cf3d 0c34 a9bd acfe e9bd 19c1 873d

fc.weight f4 [16, 16]
-0.107568696 0.17748407 -0.10370855 0.2892603 -0.09092315 -0.27315256 -0.14459957 -0.26758116
-0.07582412 -0.11060388 -0.21070597 -0.031362396 -0.2453938 -0.04419482 0.045104228 0.24464849
-0.18895754 0.15522 0.21206595 -0.28246307 -0.17667842 -0.10274219 0.09652308 0.012145686
-0.3603507 0.21041314 0.0777588 -0.14438258 0.062330313 -0.26574317 0.15485054 -0.21979627
0.20316106 0.09495859 0.08156898 0.1961131 0.2007184 -0.11219868 -0.17550628 -0.040531665
0.039223786 -0.27518994 0.008929921 0.2893697 -0.24743456 0.18245724 -0.06670986 0.0668783
0.2160235 -0.036193725 -0.019866154 -0.03526778 0.1672475 -0.0070812562 -0.32707348 0.03501488
0.24418138 -0.39180684 0.18640587 0.27629095 0.038656514 0.2920262 -0.19309996 0.169769
0.042955834 -0.16871396 -0.29401842 -0.067738906 -0.14128923 -0.017718561 -0.33884075 -0.27076814
0.24213524 -0.28556788 0.13205971 -0.0033043073 -0.31073517 0.39046824 0.05055424 0.1464462
-0.17981741 0.04870309 -0.27699265 -0.025024116 0.13972752 -0.15116084 0.05113452 0.01622926
0.21160887 -0.34673357 0.017109878 0.27034208 -0.23751971 0.28879043 -0.14186162 0.26810405
-0.16634579 -0.12226167 -0.18302225 0.22689348 -0.051073324 -0.23875873 -0.018748665 -0.08250941
0.36652482 0.032025542 -0.00020228061 0.09549829 -0.010696023 0.23156248 0.080313586 0.227323
0.0017783928 0.16956557 -0.10181862 0.11135238 -0.1157171 -0.18461694 -0.2470502 0.0747106
0.36178663 -0.4224781 0.22203898 0.23417608 -0.062171288 0.22381234 -0.22233456 -0.1505134
-0.04807511 0.059319902 -0.15655965 0.26969063 0.039887656 0.06887646 -0.029205505 -0.14611882
0.34065753 -0.11345601 0.0072844955 0.04221362 -0.106984876 0.39397514 0.09131883 -0.12707835
-0.051232204 -0.20142075 0.10657724 -0.19457932 -0.10465871 0.17795286 0.26395425 -0.035288107
-0.16626921 0.35048562 0.07766955 -0.3004758 0.23145695 -0.12887613 -0.010813689 -0.15146092
-0.07530324 0.011620487 -0.23376857 0.19507098 0.19181155 -0.22966847 0.09830262 0.06954979
0.3890019 -0.3336477 -0.17688957 0.09105079 0.087255806 0.2864357 -0.1039075 0.21686682
-0.23608178 0.1863784 -0.26408187 -0.10975527 0.011350747 -0.045193832 -0.21695673 -0.14274015
0.007872051 -0.27421272 -0.104700156 0.06158692 -0.13472125 -0.0072006066 -0.35414746 0.2603015
-0.259779 -0.01870471 0.051925436 -0.03766765 0.17945978 0.10813943 -0.05819348 -0.21296032
0.3110932 -0.17997998 0.25032175 0.27802584 -0.022779852 0.44001904 -0.22869699 0.14421529
-0.032340102 0.0438501 -0.0568226 0.1442477 -0.043800607 -0.07256517 -0.2656985 -0.18574162
0.1803769 0.012910846 0.07200788 0.14853223 -0.31679922 0.33204576 -0.34775344 0.2174101
-0.049606618 -0.0008762224 0.06473851 -0.1605633 -0.1435707 -0.04773562 0.007820319 -0.089513645
-0.0093883965 0.30516908 -0.1226133 -0.11566911 -0.04464232 -0.04734995 -0.096712485 -0.13344328
-0.105024 -0.19052428 0.16422403 -0.24662837 -0.08432543 0.17369267 0.17524137 0.13372627
-0.39725548 0.4373189 -0.07548059 -0.026755288 0.15431269 -0.29653943 0.34348848 -0.21453646
00000000: fa4c dcbd 62be 353e 2665 d4bd ed19 943e
00000010: eb35 babd a7da 8bbe e911 14be 6600 89be
00000020: ad49 9bbd 4984 e2bd 4ec3 57be db75 00bd
00000030: 8348 7bbe a105 35bd 36bf 383d 2285 7a3e
00000040: 167e 41be fef1 1e3e d127 593e 009f 90be
00000050: 30eb 34be 7f6a d2bd e4ad c53d b3fe 463c
00000060: e37f b8be 8b76 573e 0140 9f3d 07d9 13be
00000070: 124e 7f3d 7d0f 88be 2491 1e3e 4612 61be
00000080: 7409 503e a679 c23d a30d a73d dfd1 483e
00000090: 2089 4d3e 6cc8 e5bd ebb7 33be 8804 26bd
000000a0: 1fa9 203d b2e5 8cbe ce4e 123c 4428 943e
000000b0: 7c5f 7dbe 12d6 3a3e 2e9f 88bd 7df7 883d
000000c0: 4435 5d3e df3f 14bd 58be a2bc f374 10bd
000000d0: ee42 2b3e e209 e8bb 2d76 a7be c36b 0f3d
000000e0: af0a 7a3e e89a c8be 2ee1 3e3e 0276 8d3e
000000f0: 4b56 1e3d 7584 953e ffbb 45be edd7 2d3e
00000100: 75f2 2f3d 5ac3 2cbe 9589 96be b2ba 8abd
00000110: 20ae 10be 8426 91bc 897c adbe 1fa2 8abe
00000120: 4df2 773e f435 92be a93a 073e 148d 58bb
00000130: ae18 9fbe 74eb c73e f611 4f3d fef5 153e
00000140: 0e22 38be e47c 473d fbd1 8dbe 60ff ccbc
00000150: bb14 0f3e e8c9 1abe 6e72 513d 3af3 843c
00000160: ffaf 583e 1087 b1be 042a 8c3c 476a 8a3e
00000170: 5e38 73be 57dc 933e 2c44 11be ef44 893e
00000180: 8d56 2abe 5464 fabd 2f6a 3bbe c456 683e
00000190: 4332 51bd 2b7d 74be cd96 99bc b2fa a8bd
000001a0: 24a9 bb3e 372d 033d 4a1b 54b9 9c94 c33d
000001b0: 5f3e 2fbc b71e 6d3e 737b a43d 5cc7 683e
000001c0: f618 e93a 99a2 2d3e 4886 d0bd b70c e43d
000001d0: 16fd ecbd 390c 3dbe bafa 7cbe df01 993d
000001e0: 193c b93e 0d4f d8be 305e 633e dbcb 6f3e
000001f0: 52a7 7ebd 102f 653e acab 63be 2f20 1abe
00000200: 68ea 44bd 6df9 723d 2c51 20be e414 8a3e
00000210: 3d61 233d 1a0f 8d3d 6240 efbc 2ca0 15be
00000220: aa6a ae3e a05b e8bd c7b2 ee3b 30e8 2c3d
00000230: e31a dbbd 1cb7 c93e 5e05 bb3d d420 02be
00000240: dcd8 51bd 3e41 4ebe 2b45 da3d cd3f 47be
00000250: 4e57 d6bd 4639 363e 0325 873e 438a 10bd
00000260: 7a42 2abe da72 b33e 3711 9f3d f7d7 99be
00000270: 0d03 6d3e 1bf8 03be e62b 31bc 9218 1bbe
00000280: 9638 9abd db63 3e3c 0761 6fbe b0c0 473e
00000290: 3f6a 443e 362e 6bbe e252 c93d 1f70 8e3d
000002a0: 422b c73e dfd3 aabe 8a22 35be d678 ba3d
000002b0: 2cb3 b23d b3a7 923e 75cd d4bd 5612 5e3e
000002c0: 6cbf 71be fbd9 3e3e bd35 87be 5fc7 e0bd
000002d0: 7cf8 393c 2b1d 39bd e829 5ebe 792a 12be
000002e0: c6f9 003c 9c65 8cbe 096d d6bd 9142 7c3d
000002f0: 5ef4 09be 11f3 ebbb d152 b5be 3d46 853e
00000300: c101 85be 9f3a 99bc c4af 543d 6549 1abd
00000310: 4ec4 373e 3578 dd3d 495c 6ebd 4512 5abe
00000320: 9c47 9f3e ac4c 38be 2c2a 803e 6759 8e3e
00000330: d09c babc 2d4a e13e 8b2f 6abe 2cad 133e
00000340: 0e77 04bd 2a9c 333d d1be 68bd abb5 133e
00000350: 4468 33bd 0c9d 94bd a209 88be 0d33 3ebe
00000360: b9b4 383e 0388 533c de78 933d d518 183e
00000370: 8233 a2be e701 aa3e bd0c b2be c1a0 5e3e
00000380: 4f30 4bbd 4ab2 65ba a095 843d b56a 24be
00000390: 3304 13be 6d86 43bd cc20 003c ee52 b7bd
000003a0: cad1 19bc 1f3f 9c3e af1c fbbd ede3 ecbd
000003b0: deda 36bd 05f2 41bd 3211 c6bd 5ba5 08be
000003c0: d316 d7bd cc18 43be 582a 283e 268c 7cbe
000003d0: d0b2 acbd 7edc 313e 7972 333e 8aef 083e
000003e0: 1265 cbbe 43e8 df3e 9195 9abd e82d dbbc
000003f0: 2504 1e3e 04d4 97be b9dd af3e 72af 5bbe

fc.bias f4 [16]
-0.021724045 -0.1320425 -0.04413152 -0.20419183 0.16015802 0.0105749555 -0.19204807 -0.15124945
-0.09683416 -0.13946506 0.008489667 0.14975876 0.12053508 -0.11850674 -0.0144232735 0.08153597
00000000: a0f6 b1bc 2636 07be 41c3 34bd aa17 51be
00000010: 7700 243e 9442 2d3c 40a8 44be 23e1 1abe
00000020: fd50 c6bd eecf 0ebe 3f18 0b3c 5c5a 193e
00000030: 19db f63d a9b3 f2bd 984f 6cbc 55fc a63d
