weights/best_temperature_emotion_regressor.pth (torch, 1127 bytes, 1 tensors)

mlp.0.weight f4 [1, 16]
000000 d8 15 4c be c9 f8 b3 3d ab a8 84 be 9c a9 5e be
       -0.19930208 0.087876864 -0.25909933 -0.21744388
000010 e8 4e c5 be 2b b0 f0 be af 08 3c be fc ef dd be
       -0.38536763 -0.47009405 -0.18362688 -0.43347156
000020 5b 6c 42 be d6 b7 69 3e 16 59 84 be 93 49 a4 be
       -0.18986647 0.22824034 -0.25849217 -0.32087383
000030 e5 c8 1c be 40 06 90 be 15 91 1d 3b df 25 e9 3e
       -0.1531101 -0.28129768 0.0024042774 0.45536706
