weights/best_temperature_emotion_regressor.pth (torch, 1914 bytes, 1 tensors)

mlp.0.weight f4 [1, 16]
00000000: f07e 8abe ba81 82be 80d4 1f3e f4ad 133e
00000010: 90eb f93e d963 113e 32ff 613e 0bc8 a13e
00000020: d208 b1bd b41c 9abe 5d85 56bd f5b5 d0be
00000030: 49f6 a93e 52f2 a5be 7dae f23e 69af c03e
-0.2704997 -0.254896 0.15608406 0.14421827 0.48812532 0.14198245 0.22070006 0.31597933
-0.086442605 -0.30100024 -0.05237328 -0.40763822 0.33195713 -0.32411438 0.4739875 0.37633827
