weights/best_hr_emotion_regressor.pth (torch, 10848 bytes, 3 tensors)

mlp.0.weight f4 [32, 64]
00000000: d679 e13d a92f ea3d 22da dc3c c62a 92bc
00000010: 6fa2 f1bd aa2e bfbd 951e bd3b 392d 4f3e
00000020: 5dd1 67bd 1b00 a5b9 53cc 38bc b6d9 793c
00000030: 9423 5e3d 5cd2 31bd 6c85 1ebd 63ca 1d3e
00000040: 9895 5ebd 1814 43be 0d87 413d e96a 37bd
00000050: f295 cdbd 8ecb 183e 6862 27be 7fe9 59bd
00000060: 6081 333e 526b cb3d 28c0 73bd cdd3 dc3b
00000070: 9368 b73d aeeb bbbc 9536 fabb 7d06 0e3d
00000080: b2b9 42bc 89d6 13be 75ea 02be 1ec8 c9bd
00000090: aec3 27be edca 063e e8b7 013e b566 9c3d
000000a0: 740d f8bc 4adf 343e 0534 6abe 7e95 bd3d
000000b0: fa38 163e de2b ffbb 1b06 2f3e cf91 17be
000000c0: 6122 143d 89a3 d4bc 1b10 59bd 531e e83c
000000d0: 483d 00bd d929 dd3d 7219 f0bc 1a34 67bd
000000e0: d369 4abd 596b ad3d e629 10be cc6d 063e
000000f0: 19e6 07be 658a a0bd a10b e93c d618 0dbe
00000100: a629 4b3d 5475 8abd fb3a e33d 1fa7 843c
00000110: e37c 09be c1f3 d4bd 0e12 9ebd 099b 38bb
00000120: ebeb 9abc cd9b 94bc d36e 17be 45b7 8bbd
00000130: 6f66 633e f83d 1f3c 4476 e9bd 791f 333e
00000140: 40dd 9b3c 040c 58be 6af6 f1bd e847 3bbd
00000150: 10b8 a9bd 76f7 ec3a 93c8 60bd 8e65 403d
00000160: 5e92 b63e ba51 fd3d ead1 2fbe b284 863d
00000170: abf9 ba3d 26c0 80bd f645 98bb 229f 1cbe
00000180: 0685 fbbd 6cd3 01bd 28ed 1fbe 4af2 0fbe
00000190: d248 ddbd 89f6 823c 14d9 b1bc 6534 993e
000001a0: c066 ba3d ef6a ff3b 8137 fb3d 2831 19be
000001b0: 1e29 ee3d dab4 7abc 8669 943e 8356 8dbe
000001c0: e9b1 bc3c 1da6 3fbd 1406 b9bd b399 103e
000001d0: f6c4 663e 7cc1 9cbe 8f71 a3bb 86ca 02be
000001e0: 26c6 7e3e a03b d2bd a0ce 1cbe b29a ab3d
000001f0: 918c f0bc dccc 8f3c 8027 683e 490c 243d
00000200: fd06 093e a2c9 653d 6ae3 b03c 4202 13be
00000210: d44f 2a3e b1f0 efbd 732f 2d3e 0867 943d
00000220: d769 c43b 8faa 7fbd f36d 83bd 559b 0f3e
00000230: 0113 9eba f1fc 2dbe f36b 09be b045 1a3d
00000240: 9b2d 983d 1a2b f6bc 6ca8 b53d a94f d9bd
00000250: 63a3 45bd 9d4e efbc 3c4f 64be 4f3d d1bd
00000260: 1b19 9bbc 0d51 0d3d 9ad0 b23d d93c 863d
00000270: 7f55 d33d e777 013e 7295 8abd 3644 593c
00000280: 25f6 393d 5f90 babd b9c1 20be 553d 71bd
00000290: bcb7 9dbd 63d8 173e dcb5 97bd 832a 10be
000002a0: 432a 003e 4ff3 d33d 2824 2b3d 046b c23d
000002b0: 54be 37bd e3c2 943d 30cc cf3d a8db 183e
000002c0: 366e dbbc aa25 1cbd f13d 983c 6693 07be
000002d0: 9221 90bd 18e0 8fbd 2d13 96bd 0a1d 44be
000002e0: 21dd 24bd e6d3 ae3d 0f22 553c 94b4 d83d
000002f0: bc45 ee3d b0d6 f13d 34bf 653c cfd8 9abd
00000300: d66f a73d e565 44bc 564f a13d 36b0 b1bd
00000310: 1743 85be 5e91 cfbd 2174 763d 082f 69bd
00000320: 691a 81bb 37ae 113d f65e c83d dce3 bd3d
00000330: 2388 3a3d a518 aabd 2a5b b3bd c061 463d
00000340: 7b08 22be 7899 11be 7936 2cbe 3b1f 5ebe
00000350: aa4b 193e 503c 003e 80ad 1d3c a008 29bd
00000360: 31ad de3d 008a d83c 03f5 b8be 3b8e 33be
00000370: 10ab 02bc 0564 153e 78c8 113d 8c08 183d
00000380: 96ff 0dbe ae93 c6bd 4a61 693c 1b05 9fbd
00000390: 238e ccbd 102e 1d3e 0864 1abd fc8c 533e
000003a0: e0ae 2f3e 0db2 2fbe a590 d93b 8b7b 37bc
000003b0: a456 4c3e fd70 f1bd b192 d73d 7530 dcbb
000003c0: 1b9e 033e 9faa 363e 1486 783d cbdf 4d3e
000003d0: 1c5f 74bd a645 1dbe de47 41be 1017 31be
000003e0: 5847 5fbc dfba 67be 8423 12be 28ab 95bc
000003f0: b680 f03d c846 c93a 6915 69bd c95e 143d
0.110095665 0.11434872 0.026959483 -0.017842662 -0.1179856 -0.09335072 0.005771468 0.20232095
-0.05659615 -0.0003147133 -0.011279183 0.01524966 0.05423315 -0.043413505 -0.03870146 0.15409236
-0.054341882 -0.19050634 0.047247935 -0.04477969 -0.100383654 0.149214 -0.16346133 -0.053201195
0.17529821 0.09932579 -0.059509426 0.006739116 0.08955493 -0.02293953 -0.007635901 0.034674156
-0.0118850935 -0.14437307 -0.12784751 -0.098526224 -0.1638324 0.13163348 0.12667811 0.07636777
-0.030279852 0.17663303 -0.22871406 0.09257029 0.14670172 -0.007787212 0.17092173 -0.14801715
0.0361656 -0.025956886 -0.052993875 0.028334772 -0.031308442 0.107989974 -0.029309008 -0.056446172
-0.049417328 0.084677406 -0.14078483 0.13127822 -0.13271369 -0.07838897 0.028447928 -0.13779005
0.049600266 -0.0676066 0.11095234 0.01619297 -0.13426547 -0.10398055 -0.077182874 -0.002816858
-0.018911323 -0.018140698 -0.1478837 -0.06822065 0.22207044 0.009719364 -0.113995105 0.17492475
0.019026399 -0.21098334 -0.11814578 -0.045722872 -0.0828706 0.001807912 -0.054878782 0.04697185
0.35658544 0.12369104 -0.1716992 0.06568278 0.09129652 -0.062866494 -0.004647012 -0.1529508
-0.122812316 -0.03169577 -0.15617812 -0.1405727 -0.10804905 0.015986698 -0.021709956 0.29922786
0.09101629 0.00779473 0.12266446 -0.14960158 0.11628936 -0.015301907 0.28986758 -0.27605066
0.023034053 -0.046789277 -0.090343624 0.14121132 0.22536072 -0.30616367 -0.0049879025 -0.12772569
0.24880275 -0.10265279 -0.15313196 0.08379115 -0.029363902 0.01755374 0.22671318 0.04005078
0.13381572 0.056100495 0.021592814 -0.1435633 0.16632015 -0.1171583 0.16912632 0.07246214
0.0059940624 -0.062418517 -0.064174555 0.14024098 -0.0012060107 -0.1699102 -0.13420086 0.037664115
0.074305736 -0.03004985 0.088700145 -0.10610897 -0.04825152 -0.02921229 -0.2229585 -0.10216772
-0.01893287 0.034501124 0.08731194 0.065545745 0.103190415 0.12643395 -0.06766786 0.013260892
0.045400757 -0.09109568 -0.156989 -0.05889638 -0.0770106 0.14828639 -0.07407734 -0.14078717
0.12516122 0.10349142 0.04178253 0.09493068 -0.044859245 0.07263734 0.101463675 0.14927542
-0.026785951 -0.038121857 0.018584223 -0.13239822 -0.07037653 -0.07025164 -0.07327876 -0.19151703
-0.040249947 0.0853651 0.0130086085 0.105813175 0.116343945 0.118085265 0.014022637 -0.07560884
0.08175628 -0.011987184 0.0787646 -0.08676188 -0.26027748 -0.101351485 0.060169343 -0.056929618
-0.003939916 0.035566535 0.09783737 0.09271976 0.045539986 -0.08305482 -0.087576225 0.048433065
-0.15823548 -0.142187 -0.16817655 -0.21691601 0.1497027 0.12523007 0.009623885 -0.04126799
0.108728774 0.026432991 -0.3612443 -0.17534725 -0.007975355 0.14588936 0.035591573 0.037117526
-0.1386703 -0.096961364 0.014244387 -0.07764646 -0.09988048 0.15349603 -0.037693053 0.2065925
0.17156553 -0.17157765 0.0066395574 -0.0111988885 0.19954926 -0.11789129 0.10526026 -0.0067196437
0.12853281 0.17838524 0.060674742 0.20104901 -0.059661016 -0.153586 -0.18875071 -0.17293954
-0.0136278495 -0.2262988 -0.1427136 -0.01827009 0.117433 0.0015356177 -0.056905184 0.036223207

mlp.0.bias f4 [32]
00000000: 01f0 21be f77f efbd b001 4ebd 3c16 5e3a
00000010: 4781 7a3d 9169 043e 51f6 e73d 6978 d2bc
00000020: 7208 03be 5e66 1ebe 035d 9dbd 69f5 2a3d
00000030: ea27 893c 988f 803c 7537 98bd c596 b63b
00000040: 3d5f f43d 33ea 9e3c 12c9 84bd 67fc 2e3d
00000050: 1910 f93d 82a6 123e b47d 8b3d be94 36bd
00000060: 3d65 27be 9b6c 11be e01a 2a3d 986f 873d
00000070: 0d17 543d 1634 963d ffae e63d 62a2 053e
-0.1581421 -0.11694329 -0.050294578 0.0008471941 0.061158445 0.12930895 0.11326278 -0.025692182
-0.1279619 -0.15468737 -0.07683756 0.041737948 0.016742665 0.01569347 -0.074324526 0.0055721723
0.11932228 0.019398784 -0.064836636 0.04272118 0.121612735 0.1432133 0.06811085 -0.044575445
-0.16347213 -0.14201586 0.041529536 0.06613082 0.051779795 0.07334153 0.112638466 0.13050225

mlp.2.weight f4 [1, 32]
00000000: 137f 4e3e 387a a83e d455 1dbe 6f3c 603e
00000010: 64d6 8c3c 43f9 0fbe c328 3e3e c0d9 e1bb
00000020: 6ec9 35be 8129 86be 3583 abbe 03a5 143d
00000030: fdb8 093e ceb8 533e 5685 e6bd 4349 85bb
00000040: c9bb 9dbd 310c 8abd 8fda 5ebe 5bac 7ebc
00000050: 2232 10be 83a1 f3bd e968 3ebe 0b56 11be
00000060: dcd0 343e a0cb 3dbe 388b 05be 8bd6 72bd
00000070: f036 9aba afe9 15be ad18 373e 88d9 563d
0.20165662 0.32905746 -0.15364772 0.21898054 0.017192073 -0.1405993 0.18570237 -0.006892413
-0.1775262 -0.2620354 -0.3349854 0.03629018 0.13449474 0.20675966 -0.112559006 -0.0040675714
-0.07701833 -0.067406066 -0.21763061 -0.015544022 -0.14081624 -0.1189604 -0.18594708 -0.14192979
0.17657799 -0.18534708 -0.13041389 -0.059286635 -0.001176564 -0.14639924 0.17880507 0.052453548
