weights/best_ppg_encoder.pth (torch, 238582 bytes, 10 tensors)

conv1.weight f4 [64, 2, 5]
0	0x3e75fa63	0.24021296
1	0x3e8d451a	0.27591783
2	0xbdc08bdc	-0.09401676
3	0xbce0cb7f	-0.027440784
4	0xbe4647bb	-0.193633
5	0x3e670e53	0.22564058
6	0x3d516f95	0.051131804
7	0x3e9459b1	0.2897468
8	0x3e4bbd66	0.19896469
9	0xbcac80eb	-0.021057567
10	0x3e1aa01d	0.15100141
11	0xbd2152cf	-0.039385613
12	0x3e87e177	0.26539204
13	0x3e511a14	0.20420104
14	0x3d77acbe	0.060467474
15	0xbe67c140	-0.22632313
16	0x3d61cf6c	0.055129454
17	0xbe5ac55e	-0.21364352
18	0x3e76092d	0.24026938
19	0xbe934b65	-0.2876846
20	0xbd9c5698	-0.07633704
21	0x3c7c2ff9	0.015392297
22	0xbdbf7db6	-0.09350149
23	0xbddd0da2	-0.10793616
24	0xba9d4241	-0.0011997895
25	0x3ce818ba	0.028332103
26	0x3e0e7a78	0.13913906
27	0x3da3561b	0.07975408
28	0xbd58519f	-0.052812215
29	0x3cfd2614	0.030901946
30	0x3d236268	0.03988877
31	0xbe3de5f2	-0.18544748
32	0xbd965e0f	-0.07342159
33	0x3e6453d2	0.222976
34	0x3e314850	0.17312741
35	0x3dc4b318	0.09604472
36	0xbe1c7f50	-0.15282941
37	0xbd6ed66e	-0.058309965
38	0xbe54462e	-0.20729896
39	0xbd4fba05	-0.05071451
40	0xbe9dc258	-0.30812335
41	0x3e0268bf	0.1273527
42	0x3de2a160	0.11065936
43	0xbd86c8ec	-0.065812916
44	0x3e16abb8	0.14713943
45	0x3e346970	0.17618346
46	0x3e71035b	0.23536436
47	0x3e4021fd	0.18762966
48	0xbe2e79b3	-0.17038612
49	0x3e8c1a43	0.27363786
50	0xbe21aee0	-0.15789366
51	0x3e01bdc3	0.12670045
52	0x3e8f73ff	0.28018185
53	0xbe3afb44	-0.18259913
54	0xbe9f3d1c	-0.3110131
55	0xbb32d99b	-0.0027290347
56	0xbe94b963	-0.2904769
57	0x3e4ddc6c	0.20103616
58	0x3ea38e5e	0.31944555
59	0x3e0aeef4	0.13567716
60	0xbea36107	-0.31909963
61	0xbe872641	-0.26396373
62	0xbe179623	-0.14803366
63	0xbd6b6d80	-0.057477474
64	0xbced8dbc	-0.028998248
65	0x3e55a187	0.20862399
66	0xbd7185ef	-0.05896562
67	0x3e5d1623	0.21590476
68	0x3e1e952f	0.15486597
69	0xbe335a30	-0.17514873
70	0x01dcb5c2	8.1076046e-38
71	0x9f27be58	-3.5521074e-20
72	0x826f5868	-1.7584318e-37
73	0x828cac2d	-2.0669975e-37
74	0x0277b42a	1.8198399e-37
75	0x824e3739	-1.5150338e-37
76	0x826c80df	-1.7375526e-37
77	0x82e7ce48	-3.40608e-37
78	0x248478b2	5.745034e-17
79	0x0b0ffdcd	2.7731737e-32
80	0x3e62e4d2	0.221576
81	0x3e6ae9e6	0.22940788
82	0xbd5aa966	-0.053384207
83	0x3e5b204c	0.21399039
84	0xbe1ed021	-0.15509082
85	0xbb1d8ff6	-0.0024042106
86	0x3d8b9b57	0.06816738
87	0x3d7b17b7	0.061301913
88	0xbe3cbb06	-0.18430719
89	0xbe7e6f46	-0.24847135
90	0x3de5e937	0.11226123
91	0xbd1a2c69	-0.03764001
92	0x3e0df12e	0.13861534
93	0xbea38b82	-0.31942374
94	0x3e4ee0b4	0.20202905
95	0xbe1ee15f	-0.1551566
96	0xbbf17ac5	-0.0073693716
97	0xbe022196	-0.12708125
98	0x3e7c427e	0.2463474
99	0xbe32011a	-0.17383233
100	0x3e570898	0.20999372
101	0xbd29de8b	-0.041472
102	0x3e2f1143	0.17096429
103	0x3e00de11	0.12584712
104	0x3dc512d9	0.096227355
105	0xbba7ee00	-0.0051248074
106	0xbe491f57	-0.19640861
107	0xbdec3e64	-0.115353376
108	0x3dda1ade	0.10649656
109	0xbde04c2c	-0.10952029
110	0x3ea0b754	0.31389868
111	0x3e90fdc8	0.2831862
112	0xbda77005	-0.08175663
113	0x3e3143a7	0.17310964
114	0x3e07dd0f	0.13267921
115	0x3e8a5d1e	0.27024168
116	0x3cd8c6a8	0.026461914
117	0xbced94f0	-0.029001683
118	0x3c6a7c41	0.014311851
119	0x3d3f7d67	0.046750452
120	0x3e0ee661	0.1395507
121	0x3e2b60ae	0.16736099
122	0x3e8a0018	0.26953197
123	0x3db8e232	0.09027518
124	0xbe888613	-0.2666479
125	0xbd866d99	-0.06563873
126	0xbe38e314	-0.18055373
127	0x3e606c88	0.21916401
128	0x3e922750	0.28545618
129	0xbdf76c47	-0.12081199
130	0x3e14c8c7	0.14529715
131	0x3e815903	0.25263223
132	0x3e9783e6	0.29592818
133	0x3e825438	0.2545488
134	0x3ea0153f	0.3126621
135	0xbd732524	-0.059361592
136	0xbe9d712f	-0.30750415
137	0xbe43a288	-0.1910497
138	0x3d2b4d13	0.04182155
139	0x3df988ce	0.121842965
140	0x0ad988ee	2.0947847e-32
141	0x8ade1fed	-2.1389832e-32
142	0x06695170	4.388226e-35
143	0x06a243d8	6.1037315e-35
144	0xab57af97	-7.6627024e-13
145	0x825f20df	-1.6392886e-37
146	0xac28def2	-2.3997995e-12
147	0x02b5001e	2.6595627e-37
148	0x02b0833c	2.59362e-37
149	0x827a675b	-1.8396761e-37
150	0x3e8324ac	0.25613916
151	0xbd14bbb8	-0.036311835
152	0x3c8ea189	0.01741101
153	0xbe872910	-0.26398516
154	0xbe9a01eb	-0.30079588
155	0x3e152f31	0.14568783
156	0x3dc347d2	0.09535183
157	0x3e9c7bf5	0.30563322
158	0xbd224c2e	-0.03962343
159	0x3d81c6e5	0.06336764
160	0xbddeb588	-0.10874468
161	0xbd844817	-0.064590625
162	0x3d4fdc22	0.050747044
163	0xbdd02c1b	-0.101646625
164	0x3e7969f6	0.24356827
165	0xbe866ea6	-0.26256293
166	0xbe2876fb	-0.16451637
167	0xbc973304	-0.018456943
168	0x3e90e824	0.2830211
169	0x3e86e3ac	0.26345575
170	0xbe42b608	-0.19014752
171	0xbe3177ed	-0.17330904
172	0xbc54c9b2	-0.012987541
173	0xbe5567c1	-0.2084036
174	0xbdac35d0	-0.084087014
175	0x3e2c4865	0.16824491
176	0xbe439beb	-0.19102447
177	0x3e4130f6	0.18866333
178	0x3cd91934	0.026501276
179	0x3d8451d3	0.06460919
180	0x3bb6d1d4	0.0055792127
181	0xbe053c1f	-0.13011216
182	0xbe560c1b	-0.20903055
183	0xbe10e421	-0.14149524
184	0xbe32f8af	-0.17477678
185	0xbd98d86f	-0.074631564
186	0xbe69b193	-0.22821645
187	0x3da54a8a	0.08070858
188	0xbe2eb7ac	-0.17062253
189	0xbdff7cf6	-0.12475006
190	0xbca15473	-0.019693589
191	0xbe72a611	-0.23696162
192	0xbe91a5a2	-0.2844668
193	0x3e1c0d97	0.15239559
194	0x3de7ee4c	0.113247484
195	0x3e44508e	0.19171354
196	0x3ea5cf07	0.32384512
197	0x3e76107e	0.24029729
198	0x3ea5d4d5	0.3238894
199	0xbdbeeaa1	-0.09322096
200	0x02530afc	1.5504984e-37
201	0xae25c61f	-3.7692623e-11
202	0x1d872742	3.5774794e-21
203	0x83002f45	-3.767008e-37
204	0x025a3e7c	1.6034043e-37
205	0x26a9895d	1.1763963e-15
206	0x8361a2e6	-6.6308555e-37
207	0xa5fc76c3	-4.3795508e-16
208	0x8b21c5fa	-3.1156413e-32
209	0x82e11000	-3.3069962e-37
210	0xbe4407ad	-0.19143553
211	0x3e927ab0	0.28609228
212	0x3d8f940c	0.070106596
213	0x3e9be0bb	0.30444893
214	0x3e24186f	0.16024946
215	0x3d237d29	0.039914284
216	0x3e10db1f	0.14146088
217	0x3dfd4c9c	0.12368128
218	0x3e2fdb25	0.17173441
219	0xbd9bc5fb	-0.07606121
220	0x3c2af056	0.010433277
221	0x3e174e34	0.14775926
222	0x3db6a1dc	0.08917591
223	0x3daed5f8	0.08536905
224	0x3cef17e0	0.02918619
225	0x3de86cd0	0.11348879
226	0x3e2709df	0.1631236
227	0x3db03fcb	0.086059175
228	0xbe84cd8f	-0.2593808
229	0x3e56aaca	0.20963588
230	0xbc40c1a1	-0.011764915
231	0x3ab225f3	0.0013591632
232	0x3c382144	0.0112384
233	0x3b9d02eb	0.0047916076
234	0xbc82fe5b	-0.015990427
235	0x39b970bf	0.00035369952
236	0x3b12523c	0.0022326848
237	0xbbac6e2c	-0.005262157
238	0x3c9e41b7	0.019318445
239	0xbcb79ff8	-0.022415146
240	0x3d5cf1a7	0.053941395
241	0xbe921ac2	-0.2853604
242	0x3e26a5eb	0.1627423
243	0xbe04452e	-0.12917015
244	0xbe6055e9	-0.21907772
245	0x3e9fad2a	0.311868
246	0x3e563c41	0.20921423
247	0xbdc7d61b	-0.09757634
248	0xbe3852d7	-0.18000351
249	0x3dad2690	0.08454621
250	0xbe8e6903	-0.27814493
251	0xbe36244f	-0.17787288
252	0xbe0bb5d4	-0.1364358
253	0x3e12508a	0.14288536
254	0x3e6b6ca3	0.2299066
255	0xbe952896	-0.29132527

conv1.bias f4 [64]
0	0x3e6ab99d	0.22922368
1	0x3e00dad7	0.12583481
2	0xbd823a58	-0.063587844
3	0x3d8b86b2	0.068128005
4	0xbc7d3800	-0.015455246
5	0x3d8757f0	0.066085696
6	0x3e87e4b2	0.26541668
7	0xae397a54	-4.217278e-11
8	0x3e0c61bf	0.13709162
9	0x3e43568d	0.19075985
10	0xbdf6fee9	-0.12060339
11	0xbe283560	-0.16426611
12	0x3d696b28	0.056986958
13	0x3e0cfc0a	0.1376802
14	0x878aa30e	-2.0859767e-34
15	0xbd0d60b1	-0.03451604
16	0x3cb47b0a	0.022031326
17	0x3e709cf8	0.23497379
18	0x3e237693	0.15963201
19	0x3d2899c2	0.04116226
20	0xac00976a	-1.8273946e-12
21	0xbe24c10b	-0.16089265
22	0x3cf3d70c	0.029765628
23	0xbc15142e	-0.0090990495
24	0x3d9c0172	0.07617463
25	0x3df3c06f	0.11901938
26	0x3e8a6f1f	0.27037904
27	0x3d0ce833	0.03440113
28	0x3dcac103	0.09900095
29	0x3e8bc7dc	0.27300918
30	0x3c832c2e	0.016012277
31	0x3d9d8b19	0.076925464
32	0xbd15c404	-0.03656389
33	0xbe8721b9	-0.26392916
34	0x3e98aa2f	0.2981734
35	0x3d394b7a	0.045237996
36	0x3e8d505e	0.27600378
37	0x3e7ed2a3	0.24885039
38	0x3e5685f2	0.20949534
39	0xacabc0eb	-4.8815305e-12
40	0x3e594eae	0.2122142
41	0x930f2d5a	-1.8071498e-27
42	0xbdfd4bd1	-0.123679765
43	0x3e370e9d	0.17876668
44	0xbdebdc31	-0.115166076
45	0x3e4be025	0.19909723
46	0x3c42d0ef	0.011890634
47	0x3ea03ce3	0.31296453
48	0x3cddfdbd	0.02709853
49	0x3e2e7677	0.17037378
50	0x39ee7558	0.00045482325
51	0x3de9b9e4	0.11412409
52	0xbdb414e4	-0.08793047
53	0xbe0a0dc2	-0.1348181
54	0x3e71640b	0.2357332
55	0x3d88cc2a	0.06679566
56	0x3e5c600f	0.21521018
57	0x3e847e6c	0.25877702
58	0xa8bcbb6e	-2.0953478e-14
59	0xbd96051f	-0.073251955
60	0x3e50f28d	0.20405026
61	0xbd05ca81	-0.032663826
62	0x3e2d6f63	0.16937022
63	0xbdb114e3	-0.08646562

conv2.weight f4 [64, 64, 5]
0	0x3bd5d04a	0.006525074
1	0x3c870c68	0.016485408
2	0x3d3fbd2b	0.046811264
3	0x3d5d87ec	0.054084703
4	0x3c0f654c	0.008752178
5	0x3c471c0a	0.012152681
6	0x3d37364b	0.044729512
7	0x3d37d828	0.044883877
8	0xbcb5cb71	-0.022191735
9	0x3b9894a8	0.004656393
10	0xbd3413ce	-0.0439642
11	0xbd2d6a3d	-0.042337645
12	0xbd3eddb3	-0.046598148
13	0xbd277224	-0.040880337
14	0xbd0831f5	-0.033250768
15	0xbd74cfcf	-0.059768494
16	0xbd87259b	-0.065989695
17	0xbd86feb6	-0.06591551
18	0xbd904961	-0.07045246
19	0xbd9c1581	-0.07621289
20	0xbca0cf9d	-0.019630248
21	0x3da22ffc	0.079193085
22	0x3d567459	0.05235705
23	0x3ce8f668	0.028437808
24	0xbc36ffbb	-0.011169369
25	0x3c6ba7f2	0.014383303
26	0xba99cb91	-0.0011733641
27	0x3d06ae7a	0.032881238
28	0xba2778a4	-0.0006388521
29	0x3cfdbebe	0.030974742
30	0x3ca7b283	0.020470863
31	0x3c99c7fe	0.018772122
32	0xbd2ec664	-0.04266967
33	0x3c973910	0.018459827
34	0x3c858728	0.0162998
35	0x821940b3	-1.1259232e-37
36	0x02655325	1.6848124e-37
37	0x82b1f463	-2.6148084e-37
38	0x02b56105	2.6651246e-37
39	0x001a3704	2.407459e-39
40	0xbceaeff6	-0.028678875
41	0x3d514a8e	0.05109649
42	0x3c8b9393	0.017038142
43	0x3d69b013	0.057052683
44	0x3d48d700	0.049033165
45	0x3d33fe10	0.043943465
46	0x3cff591d	0.031170422
47	0x3cc3282a	0.023822863
48	0xbd1f87c5	-0.03894784
49	0xbd092262	-0.033480056
50	0xbb77486e	-0.003773238
51	0x3c576806	0.01314736
52	0xbac0ca34	-0.0014708699
53	0x3aa6da88	0.0012729922
54	0xbae077d9	-0.0017125561
55	0x3d4889c7	0.04895952
56	0x3d84dcc9	0.06487424
57	0x3d8a2922	0.06746127
58	0xbc1daa38	-0.009623103
59	0x3c390a1c	0.011293914
60	0x3d053c7c	0.032528386
61	0x3d8f6b83	0.07002928
62	0x3d151e3b	0.036405783
63	0xbc9c7dea	-0.01910301
64	0x3cb21fa8	0.02174361
65	0x3ccb5269	0.02481957
66	0x3d9d90e9	0.07693655
67	0x3db06588	0.086131155
68	0xbc63d3ff	-0.013905524
69	0xbbc7bb76	-0.006095345
70	0x844b9fc4	-2.3935896e-36
71	0x844c4b58	-2.4014681e-36
72	0x8400701e	-1.509781e-36
73	0x83f3e8cc	-1.4335704e-36
74	0x048adcdb	3.2646468e-36
75	0xbd38c28f	-0.04510742
76	0xbd21ec01	-0.03953171
77	0x3ccfd81d	0.025371606
78	0xbd048ad8	-0.032358974
79	0xbca93763	-0.020656293
80	0x3c07342e	0.008252187
81	0x3d28acdc	0.041180477
82	0x3cb22454	0.021745838
83	0xbc53cc8d	-0.012927187
84	0x3d02654e	0.031834893
85	0xbc8cd9f0	-0.017193764
86	0xbd19cf8d	-0.03755145
87	0xbd35c07f	-0.04437303
88	0x3cf90190	0.030396253
89	0xbd702a5e	-0.058634154
90	0xbe1c9bd5	-0.1529382
91	0xbe0b77e1	-0.13619949
92	0xbe0af0de	-0.13568446
93	0xbe04194d	-0.12900276
94	0xbdf66407	-0.120307975
95	0x3d94bbfa	0.07262416
96	0x3b394193	0.0028267845
97	0x3b66c4e8	0.003521258
98	0x3d94a7e1	0.07258583
99	0xbcd98ccf	-0.0265564
100	0x82fa5a52	-3.678604e-37
101	0x82bebb92	-2.802565e-37
102	0x0352fb2b	6.200178e-37
103	0x016bfda4	4.3344661e-38
104	0x830a3e89	-4.062634e-37
105	0x3be789b5	0.0070659765
106	0x3d141596	0.0361534
107	0x3d38a2fa	0.0450773
108	0x3babb64f	0.0052402387
109	0x3db96684	0.090527564
110	0xbc5524b7	-0.013009242
111	0x3d03e6b7	0.03220245
112	0x3c98b9a1	0.018643202
113	0x3d847aa0	0.06468701
114	0x3ced236a	0.02894755
115	0xbb02cf04	-0.0019959817
116	0xbad4ae4e	-0.0016226263
117	0xbadf1a7a	-0.001702144
118	0xbac04100	-0.0014667809
119	0x3be86199	0.0070917127
120	0xbbee670b	-0.0072754673
121	0xba4963d9	-0.000768242
122	0xbb97d654	-0.004633704
123	0x3bbce94e	0.005765117
124	0x3c0078e9	0.007841327
125	0x3d282075	0.04104658
126	0x3c5551ce	0.013019992
127	0x3d7c79eb	0.061639708
128	0xbd03b5a6	-0.032155655
129	0x3add6ace	0.0016892792
130	0x3d2c6e2d	0.04209726
131	0x3cfb0dd2	0.030646238
132	0xbbd31687	-0.0064418945
133	0xbd4cf4ef	-0.050038274
134	0x3c72fc65	0.014830683
135	0xbcca0a95	-0.024663249
136	0xbcb4bca8	-0.022062615
137	0xbcaa59cd	-0.020794773
138	0xbca764f5	-0.020433882
139	0xbc997787	-0.018733753
140	0xbc4f1ff0	-0.012641892
141	0xbcae6b56	-0.021291416
142	0xbd2cfbeb	-0.042232435
143	0x3d065382	0.032794483
144	0xbd1b5871	-0.03792614
145	0x3c7d3d05	0.015456443
146	0x3c9dc793	0.019260203
147	0x3ca4f692	0.020137105
148	0x3c89be3e	0.016814347
149	0xbc11b4ee	-0.008893235
150	0x3c900630	0.017581075
151	0xbc8751c1	-0.016518475
152	0x3d797cdf	0.060910102
153	0x3794d124	1.7740364e-05
154	0x3d5b3816	0.053520285
155	0xbd7893ea	-0.060687937
156	0xbd941b4c	-0.07231769
157	0xbd95a89d	-0.07307551
158	0xbd9861a2	-0.07440497
159	0xbd65643d	-0.056003798
160	0xbd1f3073	-0.038864564
161	0xbd3c924c	-0.046037957
162	0xbd343af4	-0.044001535
163	0xbd2eeba3	-0.04270519
164	0x3c69a0d4	0.014259536
165	0x3d3fc437	0.046817984
166	0x3c803914	0.015652217
167	0x3d26cb95	0.040721495
168	0x3ccb0420	0.02478224
169	0x3d360124	0.04443468
170	0x3d16668d	0.036718894
171	0xbd3d4a37	-0.046213355
172	0x3ceb4431	0.02871904
173	0xbd56961e	-0.052389257
174	0xbc88eea9	-0.016715365
175	0xbbdab007	-0.006673816
176	0xbbc854f2	-0.006113642
177	0x3c231d18	0.009955667
178	0xbc04b0e9	-0.008098819
179	0xbd336f97	-0.043807592
180	0x3c94a405	0.018144617
181	0xbcdf6bfe	-0.027273174
182	0x3c85c6f7	0.016330225
183	0x3c972a8c	0.018452905
184	0x3c8f5c94	0.0175002
185	0x3d302753	0.043006252
186	0x3d2f4fff	0.0428009
187	0x3d8efacc	0.069814295
188	0x3d5fb22e	0.054613285
189	0x3d25e3e4	0.040500537
190	0x3cd77d2f	0.02630481
191	0x3d8dd972	0.0692624
192	0x3d85dd89	0.06536395
193	0x3d90b7c4	0.070663005
194	0x3d3acc9c	0.045605287
195	0xa449b2f3	-4.3736503e-17
196	0xa594cf4d	-2.581438e-16
197	0x02b8253b	2.705774e-37
198	0x829ed862	-2.334021e-37
199	0x8317c621	-4.4602353e-37
200	0xbd9b73b1	-0.07590426
201	0xbda14c23	-0.0787585
202	0xbd8bd523	-0.06827762
203	0xbd931e95	-0.071835674
204	0xbd4432a6	-0.047899865
205	0x906558d7	-4.5230727e-29
206	0x1259eb14	6.8762883e-28
207	0x909300f7	-5.7982763e-29
208	0x10af25ff	6.908387e-29
209	0x905d71f3	-4.3672348e-29
210	0x3d871bca	0.06597097
211	0x3d8636d7	0.065534286
212	0x3bea415e	0.0071489057
213	0x3c66d6ba	0.014089281
214	0x3da2fd34	0.07958451
215	0xbd9d9765	-0.07694892
216	0xbd9e3268	-0.07724458
217	0xbdb0f8cf	-0.086412065
218	0xbd8ca399	-0.06867141
219	0xbdbb4c65	-0.091454305
220	0x3d5a569d	0.053305257
221	0x3d779fc7	0.06045511
222	0x3d93031c	0.071783274
223	0x3d263728	0.040579945
224	0x3d240ce5	0.04005136
225	0x3d614e41	0.05500627
226	0x3d353e17	0.044248667
227	0x3d9db26f	0.07700049
228	0x3d59480a	0.053047217
229	0x3d526ecf	0.051375207
230	0xbd36c675	-0.044622857
231	0xbd55d273	-0.052202653
232	0xbd586903	-0.052834522
233	0xbd3fe49b	-0.046848875
234	0xbb96edf4	-0.004606003
235	0x3d5c21b8	0.053743094
236	0x3d0c77fa	0.034294106
237	0x3c411e6d	0.011787039
238	0x3d259c77	0.04043242
239	0x3c50396f	0.012709006
240	0xbb79298d	-0.003801915
241	0x3c0bd700	0.008535147
242	0x3c77aef3	0.015117395
243	0x3c4ca161	0.012489648
244	0x3bbc8242	0.0057528326
245	0x3ca79e4f	0.02046123
246	0x3cedd2c6	0.029031169
247	0xbc975080	-0.018471003
248	0x3ce42393	0.027848994
249	0x3d720b05	0.05909254
250	0x3bba0120	0.0056764036
251	0xbcd02f9c	-0.025413327
252	0xbc6bb4a7	-0.014386333
253	0x3ce063c4	0.027391322
254	0xbc08639c	-0.00832453
255	0xbd4b6272	-0.04965443

conv2.bias f4 [64]
0	0xbca6d2b3	-0.020364141
1	0x3ba9c5dc	0.0051810574
2	0xbce6b0f5	-0.028160552
3	0x3c937696	0.018000882
4	0x3d178b3a	0.03699801
5	0xbcde3fa5	-0.027129957
6	0xbc5c6732	-0.013452338
7	0xb95ab9f3	-0.00020859372
8	0x3cf8bc94	0.030363359
9	0x3d02c891	0.031929556
10	0xbcff1837	-0.031139476
11	0xae54f42d	-4.842009e-11
12	0xbc32daf7	-0.010916463
13	0xbc2bd6bc	-0.010488208
14	0x3d3203b4	0.043460563
15	0xbbfa9c9f	-0.007648065
16	0x3b1660db	0.0022945914
17	0xbb7225bd	-0.0036948763
18	0xbbb10590	-0.0054022744
19	0xaf9cc342	-2.8514974e-10
20	0xbb3fe7fd	-0.0029282563
21	0x3cf3d8c2	0.029766444
22	0xbcf919c7	-0.0304078
23	0xb9eb36ee	-0.0004486362
24	0xbb285a60	-0.0025688633
25	0xbc495142	-0.01228744
26	0xbb2f0e0a	-0.0026711249
27	0xbd276fef	-0.040878233
28	0x3c402a42	0.011728825
29	0xbaee51d4	-0.0018182346
30	0x8310c38f	-4.2542287e-37
31	0xbc82fdc3	-0.015990144
32	0x3ce2aa55	0.027669111
33	0x3d65f51b	0.056141954
34	0x3d8acd7a	0.06777473
35	0x3bd8c9df	0.006615862
36	0xbbb45d3f	-0.00550428
37	0x3d3ae7ca	0.045631208
38	0x3d33d923	0.04390825
39	0xbcce50fe	-0.025185104
40	0x3d260104	0.040528312
41	0x3ce246ef	0.027621714
42	0xbcd552d7	-0.026040478
43	0xba912720	-0.0011074282
44	0x3db57fad	0.08862243
45	0xbcd314f0	-0.02576682
46	0x3cc0dbde	0.02354234
47	0xbbfd8002	-0.007736207
48	0x3cca53bd	0.024698133
49	0xbc733902	-0.014845135
50	0x3cff7562	0.031183902
51	0x3bc9ed69	0.0061623347
52	0x3d523f38	0.05132982
53	0x3c16c4e1	0.009202213
54	0xbc8eef78	-0.017448172
55	0x3c73101a	0.014835382
56	0x3be34e87	0.0069368514
57	0x3c6d59f0	0.014486775
58	0x3b124063	0.002231621
59	0xbb6f34da	-0.0036500008
60	0xbc0393af	-0.008030816
61	0xbcbf33fe	-0.023340221
62	0x3d200498	0.03906688
63	0x38c881f5	9.5609495e-05

lstm.weight_ih_l0 f4 [256, 64]
0	0xbdbe5cc6	-0.09295039
1	0xbdae2078	-0.08502287
2	0x3d416aac	0.04722087
3	0x3da93e72	0.082638636
4	0x3d8298ca	0.063767985
5	0x3c776de6	0.015101885
6	0xbc4ea7d1	-0.012613253
7	0x23c4efb8	2.1351887e-17
8	0xbd2b0c00	-0.04175949
9	0x3c39ec67	0.011347867
10	0xbd0463ba	-0.03232167
11	0x028c1dbe	2.0588222e-37
12	0xbd981d12	-0.0742742
13	0xbcfe6db6	-0.031058174
14	0x3db8b86a	0.09019549
15	0x3cc211e7	0.023690177
16	0xbd641cf1	-0.055691663
17	0x39740b1a	0.00023273789
18	0xbb23086f	-0.0024876853
19	0x02df040d	3.276923e-37
20	0xb976a9ca	-0.0002352364
21	0xbc8e3f79	-0.01736425
22	0xbc806800	-0.015674591
23	0x3d92b383	0.071631454
24	0x3cd9c8d0	0.026585013
25	0xbd10617f	-0.03524923
26	0xbab3ca37	-0.0013716881
27	0xbbe5c713	-0.007012257
28	0xbd17cc42	-0.03706003
29	0x3713b7d2	8.804682e-06
30	0x001c26f2	2.585365e-39
31	0xbbcf750f	-0.006331093
32	0x3d7d481f	0.06183636
33	0xbd33fc92	-0.04394204
34	0xbdaf15c1	-0.08549071
35	0x3d024299	0.031801794
36	0x3d91904e	0.07107602
37	0xbd310bbe	-0.04322409
38	0x3df3d274	0.11905375
39	0xbd705703	-0.05867673
40	0x3df53dce	0.11974679
41	0x3c12c419	0.008957886
42	0x3d5460f6	0.05185028
43	0x34e0b21a	4.1852837e-07
44	0x3d857a67	0.06517487
45	0x3d51dc9e	0.051235788
46	0x3df0bf1e	0.11755203
47	0x39b82ed2	0.000351301
48	0xbcc1e2e1	-0.023667755
49	0x3d1de12c	0.03854482
50	0xbd47810e	-0.04870706
51	0xbd597e11	-0.053098742
52	0x3dc001af	0.09375321
53	0x3da89f69	0.0823353
54	0xbcd13e0e	-0.025542285
55	0xbd4c9a54	-0.049951866
56	0x3bd891d0	0.006609179
57	0xbd305ffe	-0.043060295
58	0xbd090856	-0.033455215
59	0x35c7c93f	1.4885226e-06
60	0x3dcfdb0f	0.10149204
61	0x3dd1d0d3	0.10244908
62	0xbd3d2fe7	-0.04618826
63	0xb056369f	-7.793037e-10
64	0xbc6d88a5	-0.014497911
65	0x3d7ce902	0.06174565
66	0xbd93d1ed	-0.072177745
67	0xbc39dfe4	-0.011344884
68	0x3daadc71	0.08342827
69	0x3c0a2251	0.008431033
70	0x3c405f56	0.01174148
71	0xab04f60a	-4.723727e-13
72	0xbda91768	-0.082564175
73	0x3dac3c52	0.08409943
74	0x3cbcf2a2	0.023064915
75	0x025667be	1.575201e-37
76	0x3d23ca2e	0.039987735
77	0x3bccecd4	0.006253818
78	0x3de1278e	0.109938726
79	0x3d0c9e45	0.034330625
80	0x3d17a134	0.03701897
81	0x37a8039d	2.0028843e-05
82	0x3b7781fc	0.0037766686
83	0x81f0a2c4	-8.8395634e-38
84	0x3b42da66	0.0029732226
85	0x39b8d007	0.00035250207
86	0x3c8eaea6	0.017417263
87	0x3d8d178b	0.06889256
88	0x3c945aec	0.018109761
89	0xbcce9d6f	-0.025221555
90	0x3b2772a5	0.0025550511
91	0xbda50c72	-0.080590144
92	0x3dd80a6b	0.10548862
93	0xb659fadb	-3.2481537e-06
94	0x823a0ef7	-1.3669417e-37
95	0x3da4641c	0.08026907
96	0x3d5f73bc	0.054553732
97	0xbd8dc3ec	-0.06922135
98	0xbda42e60	-0.08016658
99	0x3c65f90b	0.014036427
100	0x3c21312f	0.009838386
101	0xbdfdb2c0	-0.123876095
102	0x3dbf3433	0.09336128
103	0xbda2b151	-0.07943977
104	0xbd17c7a2	-0.03705562
105	0x3db22cdb	0.08699962
106	0xbd0dade7	-0.034589674
107	0xb69b4b7c	-4.6281475e-06
108	0xbd700deb	-0.058607023
109	0x3d4bb843	0.049736273
110	0x3cc10551	0.023562105
111	0x3de44da9	0.11147625
112	0x3c82e705	0.0159793
113	0x3d90362c	0.070415825
114	0xbd4ff369	-0.050769243
115	0x3d612389	0.05496553
116	0x3e01febd	0.12694831
117	0x3db681d8	0.089114845
118	0xbd4b10fe	-0.049576752
119	0xbd3c6ee0	-0.046004176
120	0xbd16a77a	-0.03678081
121	0xbce1bd89	-0.027556198
122	0x3c8e629e	0.017381009
123	0xba48a90d	-0.0007654585
124	0xbb8ff7db	-0.0043935603
125	0x3c26694b	0.01015694
126	0xbd73609a	-0.0594183
127	0x30c9d0ef	1.4684057e-09
128	0xbb030adf	-0.0019995493
129	0x3c52f0fd	0.012874839
130	0xbd17e97a	-0.037087895
131	0xbac59877	-0.0015075345
132	0x3d33adf6	0.043867074
133	0x3d444f8d	0.047927428
134	0x3b7a5a1b	0.003820068
135	0x9c469e3f	-6.5717233e-22
136	0xbc0f6b7f	-0.008753656
137	0xbce697cb	-0.028148552
138	0xb8934b00	-7.023476e-05
139	0x031a4730	4.533825e-37
140	0xbc116075	-0.008873095
141	0xbcbadc3f	-0.0228101
142	0x3d3f9d57	0.04678091
143	0x3c1bd019	0.009510064
144	0x3ba17b7d	0.004928051
145	0xb862775f	-5.3993772e-05
146	0x3ced8c46	0.028997552
147	0x02834a83	1.9291488e-37
148	0x3b4bbed1	0.0031089077
149	0xbcfc317b	-0.030785313
150	0x3b94d9c1	0.00454256
151	0x3d322fd8	0.04350266
152	0xbc1eda66	-0.009695625
153	0xbc347d31	-0.011016176
154	0x395ebd4f	0.00021242093
155	0xbd89ca9a	-0.06728096
156	0x3c6a6503	0.01430631
157	0x90590454	-4.2799038e-29
158	0x02c6db71	2.9219438e-37
159	0xbc42c17b	-0.01188695
160	0xbd5680e5	-0.052369017
161	0x3c96e121	0.018417897
162	0x3dcae957	0.09907787
163	0x3d567324	0.0523559
164	0x3cfbc789	0.030734794
165	0x3c8bd347	0.017068518
166	0x3cb9ecb5	0.022695879
167	0xbd005212	-0.03132827
168	0x3dce9ed9	0.100888915
169	0x3d591e93	0.053007673
170	0x3cb16978	0.021656737
171	0xb033d429	-6.542132e-10
172	0xbdb62e4e	-0.08895551
173	0xbc3c227d	-0.011482832
174	0x3d9e4132	0.07727279
175	0x3dabc2f4	0.08386794
176	0x3bc94ac5	0.0061429464
177	0x3d77a434	0.06045933
178	0x3da175de	0.078838095
179	0x3d528b7d	0.051402558
180	0x3d343c65	0.04400291
181	0xbd314ded	-0.043287206
182	0xbd22a2c2	-0.039706
183	0x3bcd392e	0.00626292
184	0x3d6da419	0.058017824
185	0xbbd3b763	-0.0064610704
186	0xbcc16251	-0.023606451
187	0xb8ac57c9	-8.2179504e-05
188	0xbd93278c	-0.07185277
189	0x3d984bf7	0.07436364
190	0xbb22b9ff	-0.00248301
191	0x2fa59199	3.0116779e-10
192	0x3dda4df5	0.106594004
193	0xbc92dbb3	-0.017927026
194	0x3d200c6d	0.03907435
195	0x3d922c2b	0.071373306
196	0x3d4c68fa	0.0499048
197	0xbd4503b2	-0.048099227
198	0xbbb2ceef	-0.0054567973
199	0x87865ab6	-2.0215394e-34
200	0xbdcc7ae3	-0.09984376
201	0xbd7e11e1	-0.06202877
202	0x3cde48a9	0.027134256
203	0x823b28ae	-1.3750265e-37
204	0x3ddf6b65	0.10909156
205	0x3c762f4c	0.015025925
206	0xbdb72767	-0.08943062
207	0xba89aec3	-0.0010504354
208	0xbc4f24d7	-0.012643061
209	0xb8017493	-3.0864565e-05
210	0x3b4e803c	0.003150954
211	0x81ac8817	-6.33781e-38
212	0x3b3109aa	0.0027013817
213	0x3cd0b7e8	0.025478318
214	0xbb8b918b	-0.0042592934
215	0xbdadfa6f	-0.08495032
216	0xbd4b1cfe	-0.049588196
217	0xbdcbce95	-0.09951512
218	0xba87ed48	-0.0010370398
219	0xbcef3ad2	-0.029202852
220	0x3dc70be4	0.09719065
221	0x350d550a	5.265034e-07
222	0x02912a8a	2.1330251e-37
223	0x3c50ccce	0.012744142
224	0xbd7aafe3	-0.061202895
225	0xbdcf8f37	-0.10134738
226	0xbd2e9d71	-0.042630617
227	0xbd0a9b55	-0.033839542
228	0x3d2057df	0.0391463
229	0xbd2372d8	-0.039904445
230	0xba930d9f	-0.0011219269
231	0xbd5c2e99	-0.053755376
232	0x3d40e222	0.047090657
233	0x3c91a6e0	0.017779768
234	0x3dc74f47	0.09731918
235	0x308de14d	1.0323135e-09
236	0xbdaa82b6	-0.083257124
237	0xbd7ca5aa	-0.061681427
238	0xbd32b562	-0.04363001
239	0x3da88d62	0.08230092
240	0xbc08ec29	-0.008357086
241	0xbdd1ac19	-0.10237903
242	0xbcb0fed8	-0.021605894
243	0xbc099199	-0.00839653
244	0xbc94787b	-0.018123856
245	0xbb5c319f	-0.0033598912
246	0x3db79290	0.089635015
247	0x3d75e76a	0.060035147
248	0x3d4baff1	0.049728338
249	0x3be05be8	0.0068468936
250	0x3ced4569	0.028963761
251	0xb81e95c6	-3.7809623e-05
252	0xbdaa2b68	-0.0830906
253	0xbcd60354	-0.026124634
254	0xbd7ae195	-0.061250288
255	0x3025eb56	6.0361083e-10

lstm.weight_hh_l0 f4 [256, 64]
0	0x3d9b1c8a	0.07573803
1	0xbdb30390	-0.08740914
2	0x3cf1b017	0.029502911
3	0xbdc42b5f	-0.09578585
4	0xbdafc00d	-0.08581553
5	0x3d74df35	0.05978318
6	0xbc905014	-0.01761631
7	0x3d93151c	0.07181761
8	0x3dc9fa41	0.09862185
9	0x3adbffc8	0.0016784603
10	0x3c875901	0.016521933
11	0x3dbee317	0.09320658
12	0xbc814d0c	-0.01578381
13	0xbc8c6bc3	-0.017141229
14	0xbc80320d	-0.015648866
15	0x3d926e10	0.07149899
16	0xbd6cb64e	-0.057791047
17	0xbdb0f382	-0.086401954
18	0xbcc04626	-0.02347095
19	0x3c6f295f	0.014597266
20	0xbccea585	-0.02522541
21	0xbb7bb8b0	-0.0038409643
22	0xbb9a567b	-0.0047100163
23	0xbdadb17d	-0.08481119
24	0xbcbee07e	-0.023300406
25	0x3d75042e	0.05981844
26	0xbdd3c8d4	-0.10341039
27	0xbd08848e	-0.03332954
28	0x3cd2f3a0	0.025750935
29	0xbdc10f45	-0.094267406
30	0x39d4e804	0.00040608656
31	0x3da93710	0.082624555
32	0xbd9d8080	-0.07690525
33	0xbb4acf7a	-0.003094642
34	0xbbaf0cb7	-0.005342092
35	0xbdcdaa5e	-0.100422606
36	0x3d829a84	0.06377128
37	0x3da36856	0.07978885
38	0x3de62be6	0.11238842
39	0xbce12219	-0.02748208
40	0xbce32998	-0.027729794
41	0x3de0b379	0.10971732
42	0x3b8d7d93	0.004317948
43	0x3cb8c7be	0.022556182
44	0xbc16c30a	-0.009201774
45	0x3d74fb78	0.05981013
46	0xbc7ab7eb	-0.0153026385
47	0xbc8c43f2	-0.017122243
48	0xbdb99d9b	-0.09063264
49	0x3db4ba1f	0.08824562
50	0x3d90ed6e	0.07076536
51	0x3ca8cf97	0.020606799
52	0xbdde6fc2	-0.1086116
53	0x3daa0b47	0.08302932
54	0xbd5b4190	-0.053529322
55	0xbd44bcd4	-0.048031643
56	0xbdbfd542	-0.093668476
57	0xbdb45d47	-0.08806854
58	0x3ddab000	0.106781006
59	0xbbe8fc10	-0.0071101263
60	0xbc561e78	-0.013068788
61	0x3c88ff03	0.016723162
62	0xbd820576	-0.06348698
63	0xbdadbfb9	-0.08483834
64	0xbd627255	-0.055284817
65	0xbd78ed9c	-0.060773477
66	0x3c718f77	0.014743677
67	0x3c92b556	0.017908733
68	0xbd969d9c	-0.0735428
69	0xbdc9ba02	-0.09849931
70	0x3bd4c554	0.00649325
71	0x3d070249	0.032961164
72	0x3d8b8238	0.06811947
73	0x3d848041	0.06469775
74	0xbda8a95b	-0.08235427
75	0x3cd3faea	0.025876481
76	0x3c6c7cb0	0.014434025
77	0xbcbe48dc	-0.023228101
78	0x3dee224c	0.11627635
79	0x3de2a01f	0.11065697
80	0xbd1e8996	-0.03870543
81	0x3d6a38b2	0.057182975
82	0xbdb4448c	-0.08802137
83	0x3d288b65	0.041148562
84	0xbba18c2b	-0.0049300394
85	0x3de1d2fd	0.11026571
86	0x3d98ea22	0.07466532
87	0xbdf6ff6a	-0.12060435
88	0x3dddda86	0.10832696
89	0xbc9b02d0	-0.01892224
90	0xbdd5b5aa	-0.1043504
91	0x3d6c6615	0.05771454
92	0x3d8614a8	0.065469086
93	0xbd8dda84	-0.06926444
94	0xbd2c7299	-0.042101476
95	0x3daa759a	0.08323212
96	0xbd45e42b	-0.0483133
97	0xbd3cb6df	-0.046072837
98	0x3d252e38	0.04032728
99	0x3d3f08e7	0.04663935
100	0xbcf765f2	-0.030199979
101	0x3ca8e66d	0.020617688
102	0xbde24955	-0.11049143
103	0x3d86e151	0.065859444
104	0x3d2b5bca	0.041835584
105	0xbd227e8d	-0.03967147
106	0xbdb446d7	-0.08802574
107	0xbd84165a	-0.06449576
108	0x3caa5093	0.020790374
109	0xbd3e1fa5	-0.046416897
110	0x3d3b8578	0.045781583
111	0x3c34890a	0.011019001
112	0xbb9ffafd	-0.004882215
113	0x3d4d9bf5	0.05019756
114	0x3d0b0000	0.033935547
115	0x3dbaba1a	0.09117527
116	0xbd4a9b69	-0.049464617
117	0xbdac198b	-0.084033094
118	0xbd3da043	-0.046295416
119	0xbd99ba76	-0.07506268
120	0xbd8bd18f	-0.068270795
121	0xbcbcb047	-0.023033274
122	0x3c905f3d	0.017623538
123	0xbd9e21e0	-0.07721305
124	0xbc4bda26	-0.012442147
125	0x3c64ea77	0.013971916
126	0xbcb9cfe9	-0.022682147
127	0x3c145ca2	0.0090552885
128	0x3d87f8df	0.06639265
129	0x3db06d5d	0.086146094
130	0x3d2dbe7c	0.04241799
131	0xbd9fc568	-0.07801324
132	0xbcdfc956	-0.027317684
133	0xbc019e43	-0.007911268
134	0x3d14a80e	0.036293082
135	0x3ce86573	0.028368687
136	0x3ce91dc3	0.028456574
137	0xbc18896b	-0.009310107
138	0x3cd466e1	0.025927963
139	0xbc2ddcba	-0.010611707
140	0xbdb2066e	-0.086926326
141	0xbcda31ed	-0.026635135
142	0xbda0476b	-0.07826122
143	0xbd182260	-0.037142158
144	0xbc1a594a	-0.009420702
145	0xbc3d1f60	-0.011543125
146	0x3c0389bd	0.008028445
147	0x3c29a6a5	0.010354673
148	0xbdb80d41	-0.08986903
149	0x3cc3d949	0.02390732
150	0x3c2107a6	0.009828484
151	0x3d990fe1	0.07473732
152	0x3dbe0eac	0.09280142
153	0x3d3365d2	0.043798275
154	0x3dab728a	0.08371456
155	0x3d215544	0.039387956
156	0xbd2d0966	-0.04224529
157	0x3d522724	0.05130686
158	0x3cc6653c	0.024218194
159	0xbc8d8c69	-0.017278867
160	0xbd02c2fd	-0.031924237
161	0xbb29aba7	-0.0025889666
162	0x3bcca0c0	0.006244749
163	0xbd9b4c58	-0.07582921
164	0xbd623787	-0.055228736
165	0x3cf25276	0.029580336
166	0x3cf45049	0.02982344
167	0xbbb9eb28	-0.0056737848
168	0xbd80a08a	-0.062806204
169	0x3d8f5403	0.06998446
170	0x3cbbbb25	0.022916386
171	0x3d25e9bd	0.040506113
172	0x3d2ad1f6	0.04170414
173	0x3cc33ef6	0.023833733
174	0x3d7b1e4c	0.06130819
175	0x3bc62842	0.0060472796
176	0x3d145d29	0.036221657
177	0xbc598ca9	-0.013278165
178	0xbdb30251	-0.08740676
179	0x3cab062c	0.020876966
180	0x3db5cb21	0.088766344
181	0xbda54137	-0.08069079
182	0xbd5f295b	-0.0544828
183	0x3cac3323	0.021020478
184	0xbd062482	-0.03274966
185	0x3d15f00b	0.036605876
186	0xbcc082be	-0.023499843
187	0xbb6e5a79	-0.0036369844
188	0xbd79661e	-0.060888402
189	0x3d96a951	0.07356513
190	0xbd0ee03d	-0.03488182
191	0x3ce60b98	0.0280817
192	0x3b5106c8	0.003189491
193	0xbd656ff3	-0.056014966
194	0xbdc501b1	-0.09619463
195	0xbc0f1808	-0.008733757
196	0x3d2d8b14	0.042368963
197	0xbd800193	-0.062503
198	0x3d8d7b8a	0.06908329
199	0x3dda1342	0.106482044
200	0x3da61882	0.08110143
201	0xbd8b711b	-0.068086825
202	0xbd00c852	-0.03144104
203	0x3db2291f	0.086992495
204	0x3ba9474d	0.0051659704
205	0x3d76b4b5	0.06023093
206	0x3d825f68	0.063658535
207	0xbd90f0f7	-0.070772104
208	0xbc22ed8e	-0.009944333
209	0xbdf24008	-0.11828619
210	0x3da73cb6	0.081658766
211	0x3d2ded26	0.04246249
212	0xbd37151c	-0.044697866
213	0x3d8ab85f	0.06773447
214	0x3da1117f	0.07864665
215	0x3d9ff275	0.07809917
216	0xbd11617b	-0.035493355
217	0xbd915da3	-0.07097938
218	0x3d66272b	0.056189697
219	0x3d155891	0.036461417
220	0xbcebfc95	-0.028806964
221	0x3d9c9c1e	0.076469645
222	0x3d0c89f9	0.03431127
223	0xbc2df96f	-0.010618552
224	0xbdc8b9d5	-0.0980107
225	0xbccf6948	-0.025318757
226	0xbd976fe4	-0.07394388
227	0xbd249a50	-0.040186226
228	0x3c9e0c02	0.019292835
229	0x3c95ce78	0.018286929
230	0xbd12c3a3	-0.035831105
231	0x3d8d66c8	0.069043696
232	0x3da6b462	0.08139874
233	0x3da5d674	0.08097544
234	0xbdc09813	-0.09404006
235	0xbd99f9b1	-0.07518328
236	0xbc4f3209	-0.012646207
237	0xbd31a352	-0.043368645
238	0xbc372333	-0.011177826
239	0x3d061123	0.032731187
240	0x3d5a2cb3	0.053265285
241	0x3dbaa72f	0.09113919
242	0x3e00d606	0.12581643
243	0xbd8ab8f5	-0.06773559
244	0xbd867504	-0.06565288
245	0xbd663331	-0.056201164
246	0x3d10f9ca	0.035394467
247	0x3db10a2e	0.0864452
248	0xbd965b3d	-0.07341621
249	0xbd04365d	-0.032278407
250	0xbbba64e7	-0.005688298
251	0xbd164b6a	-0.036693014
252	0xbda64161	-0.08117939
253	0xbd9e1837	-0.07719462
254	0xbd6d6994	-0.057962015
255	0x3c1ff012	0.009761827

lstm.bias_ih_l0 f4 [256]
0	0x3dbb880c	0.09156808
1	0x3de7237f	0.11286067
2	0xbd93d4b9	-0.07218308
3	0x3c82a822	0.015949313
4	0x3dfba3bb	0.122870885
5	0xbd849c02	-0.06475069
6	0x3d1ba11e	0.03799545
7	0x3dcb08ad	0.09913764
8	0x3dfafcc4	0.122552425
9	0x3d2eb6ea	0.04265491
10	0x3c91dbc9	0.017804997
11	0x3b9f1901	0.0048552756
12	0x3da9e5b6	0.08295767
13	0x3e115514	0.14192611
14	0x3d8bb040	0.068207264
15	0xbd847897	-0.06468313
16	0x3dce540f	0.10074627
17	0xbbeab175	-0.007162268
18	0xbd3d096c	-0.046151564
19	0x3d96fb27	0.07372122
20	0xbc265532	-0.010152148
21	0x3d80c930	0.062883735
22	0x3deb1c69	0.11480028
23	0x3d9118aa	0.070847824
24	0xbdab7690	-0.083722234
25	0xbc6206ff	-0.013795613
26	0x3ca4b7cc	0.020107172
27	0x3d352ee7	0.044234183
28	0x3dc64d49	0.0968271
29	0x3c8a2e32	0.01686773
30	0xbd509a44	-0.05092837
31	0x3ca338b5	0.019924501
32	0x3d9bff6f	0.076170795
33	0xbd96080d	-0.07325754
34	0x3dd00fb2	0.10159244
35	0x3d89d2bd	0.06729648
36	0x3dec9158	0.115511596
37	0x3e199c2e	0.15000984
38	0xbdb02f48	-0.08602768
39	0x3dfa6d21	0.12227846
40	0xbd13fabe	-0.0361278
41	0x3d4c1b9b	0.049831014
42	0x3deeea4f	0.116657846
43	0x3cc6587d	0.024212116
44	0x3db33032	0.08749427
45	0xbc0aaa4a	-0.008463452
46	0xbd341856	-0.04396852
47	0x3da06cb3	0.07833233
48	0x3dae4ddc	0.08510944
49	0x3e02997d	0.12753864
50	0x3de2e8a4	0.11079529
51	0x3cc16340	0.023606896
52	0x3c8de55a	0.017321277
53	0xbbf51604	-0.007479431
54	0x3e1d63ed	0.1537015
55	0x3db1189f	0.08647274
56	0xbd9c45ef	-0.07630526
57	0x3c86fca4	0.01647789
58	0x3c39b7bf	0.011335312
59	0x3b258477	0.0025255957
60	0xbd96b062	-0.07357861
61	0x3dbe4430	0.092903495
62	0x3d38b6c4	0.045096174
63	0x3cdb9e53	0.026808893
64	0xbd4abbcc	-0.049495503
65	0x3c8cb2e7	0.017175151
66	0x3dad20b3	0.084535025
67	0xbbe9fd68	-0.007140804
68	0xbd890113	-0.06689658
69	0x3dbc3abd	0.09190891
70	0x3d992ba8	0.0747903
71	0xbdece8c8	-0.11567837
72	0x3d4ec142	0.050477274
73	0x3d424384	0.04742767
74	0xbcbefb8a	-0.023313303
75	0xbd30272f	-0.04300612
76	0x3d862240	0.065495014
77	0x3e094ac1	0.13407423
78	0xbd77af0c	-0.060469672
79	0x3de6edca	0.112758234
80	0xbd8a762e	-0.06760822
81	0x3c736f19	0.014858031
82	0x3c9aaea2	0.0188821
83	0xbc318aa7	-0.01083628
84	0x3db99007	0.09060674
85	0x3d346ee3	0.044051062
86	0x3d952455	0.072823204
87	0x3c9d4583	0.019198185
88	0xbcaba5b9	-0.020953046
89	0xbdb42fc5	-0.08798174
90	0x3dae2513	0.08503165
91	0x3e055128	0.1301924
92	0x3dff6425	0.12470273
93	0xbd8809f1	-0.06642521
94	0xbca9cff1	-0.020729037
95	0xbcf56963	-0.029957479
96	0x3d9ac7d1	0.07557643
97	0xba3de702	-0.00072442007
98	0x3ddead28	0.10872871
99	0xbda3d331	-0.07999266
100	0xbdc81240	-0.09769106
101	0x3ceaddac	0.028670155
102	0x3df43701	0.11924554
103	0x3dc18f9d	0.0945122
104	0xbd7645e2	-0.06012524
105	0x3db6a127	0.08917456
106	0xbd8c47f5	-0.06849662
107	0xbc3370b5	-0.010952164
108	0x3dc14ffd	0.09439085
109	0xbd4428cc	-0.04789047
110	0xbc6d420c	-0.014481079
111	0x3d4ed519	0.050496195
112	0x3cb9946d	0.022653783
113	0x3d856895	0.06514088
114	0xbd754a23	-0.059885155
115	0x3c1aaaf2	0.009440171
116	0x3bbdb557	0.0057894397
117	0x3e15c0ca	0.14624324
118	0xbc87f8d1	-0.016598137
119	0x3dc76adb	0.09737178
120	0x3d96f88e	0.07371627
121	0x3cd3dbc6	0.025861632
122	0x3dbb0a82	0.091328636
123	0xbdaaf630	-0.08347738
124	0x3cbf0ae6	0.023320626
125	0x3cad2b13	0.021138703
126	0xbd91985f	-0.071091406
127	0x3ca014c2	0.019541148
128	0xbd3bd9bf	-0.045861956
129	0xbdde7eb1	-0.10864008
130	0xbd51d6df	-0.051230308
131	0xb9e72d70	-0.00044093607
132	0xbcaabaf1	-0.020841094
133	0x3a053726	0.0005081765
134	0xbd10bf88	-0.03533891
135	0x3dca864d	0.09888897
136	0x3da49d70	0.08037841
137	0xbe0863c3	-0.13319306
138	0x3db1ba78	0.08678144
139	0xbc763cc5	-0.015029137
140	0xbd2b710e	-0.041855864
141	0x3d82b19e	0.06381534
142	0xbd8f1fb6	-0.0698847
143	0xbd395155	-0.04524358
144	0xbd84b6c9	-0.06480176
145	0x3c5d1073	0.013492691
146	0x3de0a9ed	0.10969911
147	0x3df90f7c	0.121611565
148	0x3ca042a6	0.01956303
149	0x3dcfe49f	0.10151028
150	0xbd874f71	-0.06606949
151	0x3c18e370	0.009331569
152	0x3dce6167	0.10077172
153	0xbd12919e	-0.035783403
154	0xbda0593d	-0.07829521
155	0x3d1f6ead	0.038923908
156	0xbd80d6f7	-0.06291001
157	0x3d8b591b	0.06804105
158	0xbdd0b5e4	-0.10190943
159	0x3dea228c	0.114323705
160	0x3c82cc0a	0.015966434
161	0xbdb4d0d7	-0.088288955
162	0x3db9e495	0.09076802
163	0xbdd78d89	-0.105250426
164	0x3d5f174f	0.05446559
165	0xbe0a1a3a	-0.13486567
166	0xbd4cc57f	-0.049993034
167	0xbddc1529	-0.107462235
168	0xbcb1bab1	-0.021695467
169	0xbdfc9365	-0.12332801
170	0x3d0059c3	0.031335603
171	0xbd866297	-0.06561773
172	0x3cb9aa81	0.02266431
173	0xbd7937c0	-0.060844183
174	0xbd8fc15e	-0.07019304
175	0x3dc3861d	0.095470645
176	0xbd865d4f	-0.06560766
177	0x3dfcf7ab	0.123519264
178	0x3e016e44	0.12639719
179	0x3d45fdca	0.048337735
180	0xbc70a22e	-0.014687104
181	0xbd9976c0	-0.07493353
182	0x3d1084f5	0.035283048
183	0xbdf738d7	-0.12071388
184	0xbdcd119d	-0.10013125
185	0xbc9a5de8	-0.018843606
186	0x3d8a13e2	0.067420736
187	0xbd74c352	-0.059756584
188	0xbd81b93d	-0.063341595
189	0xbd32970b	-0.043601077
190	0xbd0e9017	-0.034805384
191	0xbd15d0da	-0.03657613
192	0xbdd4b10e	-0.10385333
193	0xbd3655e6	-0.044515513
194	0x3d260571	0.040532533
195	0x3dd468d5	0.103715576
196	0x3dfeeabb	0.12447115
197	0x3d1d1bfe	0.038356774
198	0x3dd272e2	0.102758184
199	0x3c2e3e92	0.010635035
200	0x3d84d3e8	0.064857304
201	0xbd823224	-0.0635722
202	0x3dcf6a1c	0.10127661
203	0xbc8166ca	-0.015796084
204	0xbcfbcc33	-0.030737018
205	0xbd739898	-0.059471697
206	0x3cf57cbf	0.02996671
207	0x3dc4e815	0.09614579
208	0xbbe8a423	-0.0070996447
209	0x3d8d9a6c	0.06914219
210	0x3c5831fb	0.01319551
211	0x3da2cff3	0.079498194
212	0x3b6090d9	0.0034266023
213	0x3d93fae5	0.07225589
214	0x3d439dfb	0.047758084
215	0x3d88cdc4	0.06679872
216	0x3de7c7f4	0.11317435
217	0x3d827675	0.0637025
218	0x3dcf55b4	0.101237684
219	0xbd88b0ba	-0.06674333
220	0xbb9c9c90	-0.004779406
221	0x3d8454b5	0.06461469
222	0x3dc15d29	0.09441597
223	0xbd845a18	-0.064624965
224	0xbdd3a82a	-0.10334809
225	0xbd4bf16f	-0.049790796
226	0x3d86f9ef	0.0659064
227	0x3ccb0433	0.024782276
228	0x3df82c74	0.12117854
229	0x3d4e0aed	0.05030339
230	0x3cce6ff8	0.025199875
231	0x3e0461ca	0.12927929
232	0x3ccd9e95	0.025100032
233	0x3e080a72	0.13285235
234	0x3d24c04d	0.040222455
235	0xbbba76de	-0.0056904396
236	0x3db02a58	0.086018264
237	0x3de81a56	0.11333148
238	0x3a2b4956	0.000653406
239	0xbda723fe	-0.08161162
240	0x3dd1d57a	0.102457955
241	0x3d3e0fdd	0.046401847
242	0x3d517534	0.051137164
243	0x3cb9f27f	0.022698639
244	0xbd8b6161	-0.06805683
245	0xbba36b67	-0.0049871686
246	0x3d93aeea	0.072110966
247	0x3de8f297	0.11374395
248	0xbd7fa03e	-0.06240868
249	0x3dd2885c	0.10279915
250	0xbdd27bac	-0.10277495
251	0x3de75cfc	0.11297032
252	0xbd0c6d4a	-0.034283914
253	0xbc36df6f	-0.011161669
254	0x3d58fbf5	0.05297466
255	0xb9e78006	-0.00044155138

lstm.bias_hh_l0 f4 [256]
0	0x3ca5a2c2	0.02021921
1	0xbbc25db4	-0.0059315804
2	0x3ca3bab3	0.019986486
3	0x393a645c	0.00017775729
4	0x3d5bac94	0.05363138
5	0x3de73774	0.11289874
6	0xbd8d2523	-0.06891849
7	0xbdee6785	-0.116408385
8	0xbd5119f5	-0.051050145
9	0x3db9e904	0.09077647
10	0x3dbac502	0.091196075
11	0xbcc2e197	-0.02378921
12	0x3d00070e	0.031256728
13	0x3dcea665	0.10090331
14	0xbcea832e	-0.028627004
15	0x3d8fe9e3	0.07027032
16	0xbdd57838	-0.104233205
17	0x3ccc90c3	0.024971372
18	0x3c969fda	0.01838677
19	0xbd62a76c	-0.055335447
20	0x3df62364	0.12018469
21	0x3c9743f1	0.018465014
22	0xbc6e0ea5	-0.014529859
23	0x3d5d5f94	0.05404623
24	0x3dfea100	0.12433052
25	0x3de6b62c	0.11265215
26	0xbd9a0cdf	-0.07521986
27	0x3e0358a4	0.12826782
28	0x3dffb22e	0.12485157
29	0x3da617cc	0.08110008
30	0xbd45b031	-0.048263732
31	0x3d1d3564	0.038380995
32	0xbbdb09c7	-0.006684515
33	0x3d9cae0a	0.07650383
34	0xbd96d7f3	-0.07365408
35	0x3d05b62f	0.032644447
36	0xbcd25317	-0.025674386
37	0x3b4b38a9	0.0031009114
38	0xbd819b22	-0.06328417
39	0x3df76886	0.12080483
40	0xbdbbebc5	-0.09175829
41	0xbd1175b3	-0.035512637
42	0x3df93809	0.12168891
43	0xba9017aa	-0.001099338
44	0x3d1515c2	0.036397703
45	0x3da97f37	0.082762174
46	0x3e0a94ec	0.13533372
47	0x3d6ca936	0.05777856
48	0xbda16943	-0.07881405
49	0x3c9010db	0.017586162
50	0xbcbe47b0	-0.023227543
51	0x3d826700	0.06367302
52	0x3ce2b6ac	0.027674995
53	0x3daa0493	0.08301654
54	0x3cee427f	0.029084442
55	0xbd5d7100	-0.054062843
56	0x3d001100	0.031266212
57	0x3cc0f16f	0.023552625
58	0xbd255272	-0.04036183
59	0xbcddd729	-0.027080135
60	0x3d1702ff	0.03686809
61	0xbc40e9f4	-0.011774529
62	0x3998d8fe	0.0002915337
63	0xba312eb7	-0.0006758975
64	0xbdaebf29	-0.08532555
65	0x3de89a5e	0.11357568
66	0xbd2c53ea	-0.042072214
67	0x3d65c659	0.056097362
68	0x3df8daca	0.12151106
69	0xbadba2e8	-0.0016756924
70	0xbd9b719a	-0.07590027
71	0x3d9d8c61	0.07692791
72	0xbc15161a	-0.009099508
73	0xbd6b19fb	-0.057397824
74	0x3d90023f	0.070316784
75	0x3c0eda36	0.008719018
76	0x3d9b2cc5	0.075768985
77	0xbaf8853f	-0.0018960609
78	0x3df6e746	0.12055831
79	0x3c6065cd	0.013696146
80	0xbdb06637	-0.08613246
81	0x3dd2d229	0.10293991
82	0x3dff8a71	0.124775775
83	0x3c14989a	0.009069586
84	0xbcb74109	-0.022369878
85	0xba85838f	-0.0010186302
86	0xbc3eefd1	-0.011653856
87	0xbd6ef35d	-0.058337558
88	0x3d2d15c0	0.04225707
89	0xbc3d7dfd	-0.0115656825
90	0x3dac497e	0.08412455
91	0x3b3b2012	0.002855305
92	0x3d3325c9	0.043737207
93	0x3d0eab93	0.034831595
94	0xbdaa4635	-0.08314172
95	0xbdd32291	-0.103093274
96	0x3dfff997	0.12498777
97	0x3d7517e8	0.059837252
98	0x3ce28348	0.02765049
99	0x3d6fd95e	0.058556907
100	0x3d54dee7	0.05197039
101	0x3ceda226	0.029007982
102	0x3d59d997	0.053186025
103	0xbd03bd80	-0.032163143
104	0x3c8dfc3a	0.017332185
105	0xbd792f64	-0.06083621
106	0xbc212702	-0.00983596
107	0xbcb6eabe	-0.02232873
108	0x3d9835e5	0.074321546
109	0xbd587df5	-0.052854497
110	0x3d0a37cf	0.03374463
111	0xbd9e4a78	-0.077290475
112	0xbca430cf	-0.020042805
113	0x3e076519	0.1322216
114	0x3d59f7d4	0.053214863
115	0x3cb85ed0	0.022506148
116	0x3de980d2	0.11401524
117	0x3dc89c37	0.097954206
118	0x3e180a34	0.14847642
119	0xbc608464	-0.013703439
120	0x3d91a909	0.07112319
121	0x3d594d6d	0.053052355
122	0xbc50a79d	-0.012735275
123	0x3d1d05f5	0.03833576
124	0xbcd47771	-0.02593586
125	0xbd3b929e	-0.045794122
126	0x3d900a59	0.07033224
127	0x3c7ba164	0.015358303
128	0x3d9e049c	0.07715723
129	0xbd6c70f2	-0.0577249
130	0xbd19c312	-0.03753955
131	0x3dcb9729	0.09940941
132	0xbd116569	-0.035497103
133	0xb7df86cf	-2.6646447e-05
134	0xbdbcc975	-0.092181124
135	0x3dd6e1cf	0.10492288
136	0xbc05106c	-0.008121591
137	0x3cfe5e50	0.031050831
138	0x3dee2933	0.11628952
139	0xbd76d243	-0.060259115
140	0x3d26fdb6	0.0407693
141	0x3d39b424	0.04533781
142	0x3debf7ee	0.11521898
143	0x3de5c01e	0.11218284
144	0x3dc8e107	0.098085456
145	0xbdb78c16	-0.08962266
146	0x3deff06a	0.11715777
147	0xbd7e1834	-0.0620348
148	0x3de4efde	0.111785635
149	0x3daaf901	0.08348275
150	0x3dc1429b	0.09436532
151	0xbd15b433	-0.036548804
152	0xbda950b1	-0.08267344
153	0x3d9ab10e	0.07553302
154	0xbd259fd5	-0.04043563
155	0xbd763e12	-0.06011779
156	0x3d5bfce9	0.05370799
157	0xbdd42b6a	-0.10359843
158	0x3b7031ba	0.0036650733
159	0xbc678626	-0.014131105
160	0x3d3be881	0.04587603
161	0xbb43c573	-0.0029872328
162	0x3c5bc236	0.013413003
163	0xbdbc954c	-0.092081636
164	0x3d36d80b	0.04463963
165	0xbda23a34	-0.079212576
166	0x3d25a5a9	0.04044119
167	0x3cc17ae2	0.023618165
168	0xbda68150	-0.08130133
169	0x3cceebac	0.025258861
170	0x3dd6bbc5	0.10485033
171	0xbd1a7b9c	-0.03771554
172	0xbdb31169	-0.08743555
173	0xbd85b118	-0.065279186
174	0x3d617b46	0.055049203
175	0x3b918923	0.004441397
176	0xbde4fdef	-0.111812465
177	0xbaf8ad0b	-0.0018972469
178	0x3d7c5f88	0.061614543
179	0xbdb4286e	-0.08796774
180	0xbde87401	-0.11350251
181	0xbdee268f	-0.11628448
182	0x3ce17a3b	0.027524104
183	0xbca09f5a	-0.019607235
184	0xbb474bcf	-0.0030410176
185	0x3d48c0d8	0.049012035
186	0x3d0726cf	0.032995995
187	0x3d287ec3	0.041136514
188	0x3dd91065	0.1059883
189	0x3d1cfb7b	0.038325768
190	0xbc1f6476	-0.009728542
191	0xbd425fd6	-0.047454678
192	0x3c286a77	0.010279289
193	0xba2c4149	-0.00065710075
194	0xbd9fe6db	-0.07807704
195	0x3d50c0de	0.050965182
196	0x3dae5c9d	0.08513758
197	0x3de87610	0.11350644
198	0xbdaaf0b2	-0.0834669
199	0x3c05f11e	0.008175163
200	0x3ce346a1	0.02774364
201	0x39d2898e	0.00040156808
202	0xbd8fd417	-0.07022875
203	0x3df0b675	0.11753551
204	0xbc816be7	-0.015798522
205	0x3d23c389	0.0399814
206	0xbd8a53ce	-0.06754266
207	0x3da4993c	0.0803704
208	0xbbdcdb75	-0.0067400285
209	0x3c13c3b2	0.009018825
210	0x3df2fd82	0.11864759
211	0x3dc2d820	0.09513879
212	0x3daae260	0.08343959
213	0xbbfc36fe	-0.0076969853
214	0xbd22b578	-0.039723843
215	0xbc166608	-0.0091796
216	0xbc4f9655	-0.012670119
217	0xbd95fdb3	-0.0732378
218	0x3de015f9	0.10941691
219	0xbd43d049	-0.047806058
220	0x3e0cd8b8	0.13754547
221	0x3b435931	0.00298078
222	0x3d1f2c1b	0.03886042
223	0x3dc37cc5	0.09545282
224	0x3d9e97ca	0.07743795
225	0xbd85a62c	-0.065258354
226	0x3d6fdb05	0.058558483
227	0xbd2839b1	-0.041070644
228	0x3d948402	0.07251741
229	0x3d05c368	0.032657057
230	0xbda55086	-0.08071999
231	0x3deb5176	0.11490147
232	0x3d55e6cb	0.052222054
233	0x3ded66f2	0.11591901
234	0xbcbecb81	-0.023290398
235	0xbd303279	-0.043016884
236	0x3dae5918	0.08513087
237	0x3d1f8bfe	0.038951866
238	0xbd389112	-0.045060225
239	0x3d99a423	0.0750201
240	0x3c8f5cfb	0.017500391
241	0xbda52ae9	-0.08064825
242	0xbd70c660	-0.058782935
243	0xbda36163	-0.079775594
244	0xbd068066	-0.032837294
245	0x3d5a4666	0.053289793
246	0x3e21f16c	0.15814751
247	0xbdafa3a6	-0.08576135
248	0x3d51ae40	0.05119157
249	0x3d26277d	0.040565003
250	0x3dfc4572	0.12317933
251	0xbd9addcf	-0.07561838
252	0x3cff7d83	0.031187778
253	0x3e056075	0.13025077
254	0xbda362c6	-0.07977824
255	0xbd5a42de	-0.053286426
