weights/best_ppg_emotion_regressor.pth (torch, 10856 bytes, 3 tensors)

mlp.0.weight f4 [32, 64]
00000000: 6b38 15bc 0f80 293d cf4d 09bc 230b 06be
00000010: 1ab6 81bd f540 103d 9d4e dd3c 88d7 ccbd
00000020: a974 8abd af0c dcbd 179d ee3b 6612 8e3b
00000030: 734c e0bd 848c cb3b 7bc3 e8bc de2b ae3d
00000040: 41f4 f5bc ef90 a6bc f7af 3dbc 306d 833d
00000050: 73ff c1bd 629b 483d 16dc 433c bc7a a43d
00000060: b35b 20bd 66e0 8fbd a0e9 4c3d 8fb4 7f3d
00000070: 5d9a 8d3d 567b cfbd 59c1 91bd ce50 f63d
00000080: 756b 993d 2116 6b3d 51e6 3ebe 262d d13d
00000090: 269f 12bd 0e66 1c3e 83cc 29be 128e eebd
000000a0: 2f87 52bd 3599 8ebd 3b0a 31bd 13b3 b73d
000000b0: 7eaa acbd cbd3 0abe e818 9f3a f396 16be
000000c0: 2e1b 09be 024c 9bbd 75fa b63c c8a4 01be
000000d0: 127c dbbd a3a6 80bd f567 593b 7341 b4bd
000000e0: 3395 14bc 0dae 493d c810 303c 12ff 843d
000000f0: f108 943d f411 f6bd 3c3d 4d3d 70ee 923d
00000100: c89f fcbc 97e0 e13c 6c90 9e3d 9d38 9f3d
00000110: f1fc 1abd 40f9 23bd 254a 0dbd 7ce8 563d
00000120: 8597 9abb 0c6f f2bc 3463 e33c f23c 4c3d
00000130: 45fa 4d3d db0a 71bd f3db 24bd f762 bd3c
00000140: 1a03 883d c57d 7ebd f3c6 583d 19d0 893d
00000150: 0e39 43bd e254 ee3d b576 f8bc ca81 bb3d
00000160: 9421 10bd 6576 ddba 9b22 7dbc e4af a4bd
00000170: 9f08 733d f87f d4bc ad09 143c 9985 ff3d
00000180: a2cc 123d f735 f6bd 34cb ab3c 1aa9 0f3c
00000190: 0b5f e63c 9862 df3d bcca 36be d192 2dbd
000001a0: 456c 733d 35bf 0bbe 17b9 88bc 6b3e 093e
000001b0: 48e6 db3c 6a09 1bbd 6328 00be b9c1 cbbd
000001c0: ea70 26bd 7a21 37bd dc38 03be 8b24 7bbc
000001d0: f69b 7b3d 241e 993d 93e4 f0bd 5197 ca3c
000001e0: 7b6b db3d bd92 c7bd f35c 8cbd ea03 5ebd
000001f0: 0b68 223e c123 0bbe 4f53 ae3b e38a 613d
00000200: ee7f dabc 663e b7bb ee0c e53b ddd5 74bb
00000210: 7985 28bc 151d 3f3c d9f3 5d3a 618e b23c
00000220: 0295 dc3c af00 28bc 5119 e03b b608 b1bb
00000230: 867d e93b 7095 a2bc 4c8c 79bc 316a c33a
00000240: fce0 2fbc 3e02 c8bb 1ed4 1e3b 27ac 95bb
00000250: efdd e7ba 5e88 1c3a ad6a 30bc 8fe5 c73b
00000260: e332 413c 622a 0a3c 0ba5 1cbc 7d72 543b
00000270: 2728 71bb fe70 c2ba 0be5 9fb9 0daa 643c
00000280: 422a 6abc 741b 8abc 1482 5cbc 085d 403c
00000290: e383 c33c 5bc2 9a3b c899 1dbc be3f ef3a
000002a0: 118e 6d3c 2049 523c abb1 873c c487 8c3b
000002b0: 95cf 6ebb f2d8 8b3c 43d7 98bc 6b0e 333b
000002c0: c0a4 31bc d711 b73c 436a 1a3c e704 813a
000002d0: 6d26 4bbc 7650 efba 209b 9c3b 3664 abbc
000002e0: 109d 263b a26f e739 e83c 0a3d fd00 8aba
000002f0: 6dd7 a43b 8f12 06ba d936 83ba fb46 fcb9
00000300: d255 863d 34ef 463c 99fe 0bbd e56d 07be
00000310: 850e aebd 4634 823d e909 d23c fee1 1e3d
00000320: 3317 6d3b 1a0e 29bc a5a7 fabc 930b 80bc
00000330: f998 4e3c 9f80 113d b8b3 b9bd 25d0 80bc
00000340: 5b1d 05bd a4dd a5bd 1a48 e5bd d1c3 d23d
00000350: 3742 963d 2ae8 d63b 615d 0ebc 0c1a 253d
00000360: 0579 9bbc 51bc 3bbc a23b a0bc 7b74 d83d
00000370: ad95 c83d d7ba 81bd 3b4d 96bd 3f5b 19bd
00000380: baa7 0b3a 5297 c5bd c584 e1bd c256 863d
00000390: 2ad1 833d f45a 053e c40b 69bd 499f e3bd
000003a0: 972c d33d 6359 1abc 8b16 fc3c a1c3 ea3d
000003b0: 2074 b7bd a82e 04be 7b6f 5dbd d0d6 dcbd
000003c0: 7f2a eebd b29d 8d3d 4d2a 143d edf8 cabc
000003d0: cd88 923d 506d c43c f4bc 033d fb78 aebd
000003e0: 78ac b33d 5897 3bbd 5c6d 933c 3340 f93d
000003f0: 7098 3cbd 1134 43bd b7f4 d0bc dace 8bbd
-0.009107689 0.04138189 -0.008380367 -0.13090186 -0.06333561 0.035218198 0.027015025 -0.10002047
-0.067605324 -0.10744607 0.00728191 0.0043356894 -0.109520815 0.006211819 -0.028413525 0.08504461
-0.030023696 -0.020332782 -0.011577598 0.0641731 -0.09472551 0.04897631 0.011954328 0.08031222
-0.03914995 -0.070252225 0.05002749 0.062428053 0.06914208 -0.10130946 -0.07116956 0.12027131
0.07491199 0.05739415 -0.18642546 0.102136895 -0.035796307 0.15273306 -0.16581921 -0.116481915
-0.051398452 -0.06962816 -0.043222647 0.089697026 -0.08430956 -0.13557355 0.001213816 -0.1470602
-0.13389274 -0.07582857 0.022336224 -0.12660515 -0.10717024 -0.062817834 0.0033173535 -0.08801546
-0.009068775 0.049238253 0.010746188 0.06493963 0.07228268 -0.12015143 0.050107226 0.071743846
-0.030837908 0.027572913 0.0774239 0.0777447 -0.03783888 -0.040032625 -0.034494538 0.052467808
-0.0047177696 -0.029593967 0.027757265 0.04986281 0.050287504 -0.058848243 -0.040248822 0.02311848
0.066412166 -0.062131662 0.052924108 0.067291446 -0.047661833 0.11637284 -0.030330041 0.09155615
-0.035188273 -0.0016896246 -0.015450145 -0.08041361 0.059334394 -0.025939927 0.00903551 0.124766536
0.035839684 -0.12022012 0.020970918 0.008768344 0.028121492 0.10907477 -0.17850775 -0.042376343
0.059429426 -0.13647158 -0.01668982 0.13402717 0.026843205 -0.037850775 -0.12515406 -0.09949059
-0.040635027 -0.04470966 -0.12814659 -0.015328537 0.061428033 0.07476452 -0.11762347 0.024730356
0.1071386 -0.09744785 -0.06853666 -0.05420295 0.15860002 -0.13587858 0.0053199898 0.055064093
-0.02667233 -0.0055921553 0.0069900667 -0.0037358918 -0.010285729 0.011664649 0.0008466817 0.021796407
0.026926521 -0.010254069 0.0068389555 -0.0054026498 0.0071255593 -0.019846648 -0.015231203 0.0014908967
-0.010734793 -0.006103783 0.0024235318 -0.0045676413 -0.0017690043 0.0005971248 -0.010767621 0.0061003636
0.0117919175 0.008432956 -0.009560834 0.0032416873 -0.0036797614 -0.00148347 -0.00030497494 0.013956559
-0.014292302 -0.016858794 -0.013458747 0.01174093 0.0238666 0.004722876 -0.009619184 0.001825325
0.014499203 0.012834817 0.01656421 0.0042886455 -0.0036439647 0.017071221 -0.018657332 0.0027321826
-0.010842502 0.022347374 0.009424749 0.000984338 -0.012399298 -0.0018258232 0.0047792345 -0.020921808
0.0025423206 0.00044142926 0.03374949 -0.0010528859 0.0050305636 -0.000511446 -0.0010010853 -0.0004811807
0.06559338 0.012141991 -0.03417835 -0.13225515 -0.08498863 0.063576266 0.025639491 0.03878974
0.0036177158 -0.0103183035 -0.030597517 -0.015630519 0.012609714 0.035523053 -0.09067482 -0.015724251
-0.0324987 -0.08098915 -0.11195393 0.10291255 0.07336848 0.006558438 -0.008689255 0.040308043
-0.018978605 -0.011458472 -0.019559685 0.10569092 0.097941734 -0.06334465 -0.07338949 -0.037440535
0.00053274224 -0.09648003 -0.11011652 0.065595165 0.06436379 0.13022977 -0.056895986 -0.111143656
0.10311239 -0.0094207255 0.030772468 0.114630945 -0.08957696 -0.12908423 -0.054061394 -0.1078316
-0.11629199 0.069148436 0.036173154 -0.0247769 0.07154999 0.023977906 0.03216262 -0.08519169
0.0877313 -0.04579863 0.017996483 0.12170448 -0.046043813 -0.047657076 -0.025507314 -0.06826563

mlp.0.bias f4 [32]
00000000: 3c92 e3bc 0265 ad3d 3af6 b03c 5b4f ce3c
00000010: f9ce 273d af0b 66bc 8859 f43d 1e7e 723d
00000020: da4a 8f3d 8628 b93d 2ba7 83bd e5ec 253b
00000030: a8b4 063d 6415 18bd 0df5 4bbd 8ca8 ce3d
00000040: 64c0 71bb cb54 0195 27d2 bbbd d623 44bb
00000050: 2179 503d a986 a33c 6b2f c03c 3a87 b9bc
00000060: 5d95 abbd a7ea d3bc 9fc9 d9bc c64c d8bc
00000070: 0dfc 44b1 a944 7aba 36c6 833d 4d7e 593d
-0.02777969 0.08466531 0.021601785 0.025184324 0.04096887 -0.0140408715 0.11931139 0.059202306
0.06996699 0.09040932 -0.06428369 0.0025318202 0.03288713 -0.037129775 -0.049794246 0.100907415
-0.0036888355 -2.6118232e-26 -0.09170943 -0.0029928586 0.050896768 0.019961672 0.02346011 -0.022647489
-0.08378098 -0.025868727 -0.026585398 -0.026403796 -2.8665028e-09 -0.00095469743 0.0643429 0.053098965

mlp.2.weight f4 [1, 32]
00000000: b922 443e f298 443e 3043 78bc e717 053e
00000010: 1783 9d3d ce9e 273e 0a63 44be 2f0e 443e
00000020: 1f2d 103e 1cd4 3f3e 41cc a53c 7249 503e
00000030: 10f2 0b3d 5066 15be 6e56 dcbc da04 e0bc
00000040: 4878 c63d 66e1 2095 8e88 153e 5cb1 0ebe
00000050: a786 503d 066b dfbd 9124 f93c c6e6 683e
00000060: 906f edbd 6f59 813e 5b21 503e 8de7 29be
00000070: dc1a 45ba 5b5e c939 8955 333e 1554 cd3d
0.1915387 0.19198969 -0.0151527375 0.129974 0.07691019 0.16369173 -0.19178405 0.19146036
0.14079712 0.18733257 0.020238997 0.20340517 0.034166396 -0.1458981 -0.026896682 -0.027346063
0.096909106 -3.248955e-26 0.14602873 -0.13934845 0.050909664 -0.10909085 0.030412944 0.22744283
-0.115935445 0.25263545 0.20325224 -0.16592236 -0.0007518956 0.00038408008 0.17513098 0.10025803
