weights/best_ppg_encoder.pth (torch, 237203 bytes, 10 tensors)

conv1.weight f4 [64, 2, 5]
000000 21 79 c8 bd fd 02 6a 3d 75 fe 57 be a3 61 75 be
       -0.097887285 0.057131756 -0.21093161 -0.23963027
000010 df da 07 be 06 72 f4 3a 8f 02 6d 3e d7 41 6c 3e
       -0.13267086 0.0018649704 0.23145507 0.23071991
000020 03 5f 32 be dc 68 43 be 9b 73 9e bc 56 6f 31 3e
       -0.17419057 -0.1908297 -0.019342234 0.17327628
000030 2d 55 32 bc f2 5c a6 be 32 0f a8 3d 0e c2 20 3e
       -0.010884565 -0.32492787 0.08206023 0.15699026
000040 58 1e af bd 00 f9 04 3d 6e 45 d1 bc 52 54 ff 3c
       -0.085507095 0.032464027 -0.025545802 0.031168137
000050 90 63 ad 3e 6b a2 26 be c5 7e 81 be 94 84 1b be
       0.33865023 -0.16272895 -0.2529203 -0.15187293
000060 ab 4d 3c be f0 3f 1c 3e f0 db 20 3e cc 4f 4a 3e
       -0.18389003 0.15258765 0.157089 0.19757003
000070 bb d0 12 3e f1 0c 15 be 3f 91 a6 be 90 7f d2 bd
       0.14337437 -0.14555718 -0.3253269 -0.10278237
000080 04 4e 96 be f5 f7 e8 3d b6 06 21 3e 59 30 57 be
       -0.29356396 0.11375419 0.15725216 -0.21014537
000090 35 d0 9e bd 60 62 84 be 1a 7e 19 3c 06 df 83 3e
       -0.07754556 -0.25856304 0.009368444 0.2575609
0000a0 51 c1 82 be c4 c1 4b be 61 19 4b bd f9 b4 da 3d
       -0.25538114 -0.19898134 -0.04958475 0.10679049
0000b0 81 b7 45 3e 10 43 5f be ad 8b 7f 3e f8 20 c3 bd
       0.19308282 -0.21802926 0.24955626 -0.09527773
0000c0 6f 08 1c 3e c6 5b 67 3e 03 d1 2d 3e 8b 2d 9b 3e
       0.15237592 0.22593603 0.16974263 0.30308184
0000d0 40 9f 4c 3d f2 80 b6 bd d1 98 87 3e b7 cb a5 be
       0.04995656 -0.08911313 0.26483777 -0.32381985
0000e0 a9 42 18 bd 0b c0 13 3e cd 28 09 be 8c 6e 33 be
       -0.037172947 0.14428727 -0.1339447 -0.17522639
0000f0 81 6a 21 be 45 a7 a8 3e e4 70 1d 3e 93 9d 82 3d
       -0.15763284 0.32940117 0.15375096 0.06377711
000100 55 11 5b 3e 90 e8 88 3e ab d5 4e be 0b 6d 61 3d
       0.2139333 0.2673993 -0.20198695 0.055035632
000110 2c 53 a3 bc 2b 76 91 be 54 14 7d 3e f4 3e 65 3e
       -0.01993712 -0.28410468 0.24714786 0.22387296
000120 d0 5f 13 3e 84 f5 41 be 48 57 83 3d 8e d0 14 be
       0.14392018 -0.18941313 0.06413132 -0.14532682
000130 59 99 8b 3e 4a 05 65 be 10 2d f6 3d 51 bb 47 3e
       0.27265432 -0.22365299 0.12020314 0.1950505
000140 39 51 fd bd 1e 53 03 3e e7 ba 8c be 8e 21 3f be
       -0.123690076 0.12824675 -0.27486345 -0.18665144
000150 ef 8e 0c be 6a a7 cb bc 05 6b 4c 3e 9f a1 67 be
       -0.137264 -0.024860103 0.199627 -0.22620247
000160 d4 39 37 be 9e f9 91 be 94 5c 86 3d d7 41 19 be
       -0.17893153 -0.28510755 0.065606266 -0.14966522
000170 8d ad da 3d 56 53 03 3e d9 af 9b be f6 00 c0 3d
       0.106776334 0.12824759 -0.304076 0.09375183
000180 60 f1 8c be b8 42 a9 3d 8d 3d 0b be e9 58 37 3e
       -0.27527905 0.08264679 -0.13597699 0.1790501
000190 85 37 de bc 30 e8 86 3d 05 dd 0c be 9b 0c 23 bd
       -0.027126083 0.06587255 -0.13756187 -0.039806943
0001a0 5a dd f9 bd 75 a7 34 be 99 d8 ff bd 09 e6 67 3e
       -0.122004226 -0.17642005 -0.124924846 0.22646345
0001b0 32 98 86 3e f0 ac 95 3e 9b 3d 21 be f7 2f a3 be
       0.2628799 0.29233503 -0.15746157 -0.31872532
0001c0 13 64 5a be 3e 0e 0f 3d dd 8b dd bd 66 f5 8a 3e
       -0.21327238 0.03492569 -0.108176924 0.2714035
0001d0 de a4 e1 bc a5 18 1d 3d 6e b1 87 be b1 11 64 3d
       -0.027544435 0.03835358 -0.26502556 0.055680934
0001e0 28 fb 77 3e 5d 40 29 be d0 21 32 be f6 a2 54 3d
       0.24216902 -0.16528459 -0.17395711 0.051913224
0001f0 12 a7 1b be e1 5c 1b 3e ac ce 88 3e 95 d7 06 be
       -0.15200451 0.15172149 0.26720178 -0.13168176
000200 57 1f 15 3e 0a 03 a1 3d f9 f4 55 be b4 3d 2a be
       0.14562736 0.07861908 -0.20894231 -0.166251
000210 e7 97 ea bd d6 7b 6a be 12 a7 4c 3e 00 bf f5 3d
       -0.11454754 -0.22898802 0.19985607 0.11999321
000220 08 ff 6f 3e 5b cd 30 be 0e bb 46 be ac 39 a2 bd
       0.2343713 -0.17265837 -0.19407293 -0.07921156
000230 5e a5 86 3e e0 54 8f bd 53 44 a4 3d da 54 8e 3e
       0.2629804 -0.069986105 0.08020844 0.27799112
000240 79 c6 45 3e 03 71 95 be 1e 7e 89 3e 1d 92 bf 3d
       0.19313993 -0.29187784 0.26854032 0.09354041
000250 bd 44 51 3e 14 f3 ac 3d 24 ea 8f be a5 a9 2e 3e
       0.20436378 0.08444801 -0.28108323 0.17056902
000260 e5 44 b1 bd 64 cb 75 bc a5 4c 85 be 95 33 8c bd
       -0.08655719 -0.015002105 -0.26035038 -0.06845776
000270 92 19 73 3e 31 e5 df bd 6f f4 8a be 5e 1e 9a 3d
       0.23740223 -0.10932387 -0.27139613 0.07525323
000280 03 11 80 3e 04 f7 14 3e 78 42 9a 3d 14 e8 0d be
       0.2501298 0.14547354 0.07532209 -0.13858062
000290 10 80 56 3e 72 e3 d7 bc 6e 6f 96 3e 32 99 5c be
       0.2094729 -0.026353572 0.2938189 -0.21542814
0002a0 5d 98 d0 bd b4 a8 a3 3e 68 e8 90 be b8 dd d6 bd
       -0.10185311 0.31964648 -0.28302312 -0.10491508
0002b0 91 2e a7 3e 3d 82 d8 3d 92 32 fd bb 5a ab ec bd
       0.32652715 0.10571716 -0.0077269757 -0.1155612
0002c0 64 8c c4 bd 87 70 31 bc 3c 99 09 3d 34 e0 8e 3e
       -0.0959709 -0.010830051 0.0335934 0.27905428
0002d0 79 60 d7 3d b6 b3 87 be b3 3b fb bd a8 fb 80 bc
       0.105164476 -0.26504296 -0.12267246 -0.015744999
0002e0 68 e5 fe bd 5f c3 da bd bc 23 32 bd 53 d7 8a 3e
       -0.124460995 -0.10681795 -0.04349111 0.27117404
0002f0 54 06 6c 3e d5 02 6a be 70 55 c7 bd 11 87 4d be
       0.23049289 -0.22852643 -0.09733093 -0.20071055
000300 2b a6 2f be 03 6a 4a 3e 54 7a dc bd da 6d 89 3e
       -0.17153232 0.19767003 -0.1076552 0.26841623
000310 25 39 1a 3e 49 3b 91 be e0 2e 86 3d 10 0a 90 3d
       0.15060861 -0.28365543 0.065519094 0.07033169
000320 1e 05 e1 3d 00 93 97 bd a4 a9 1b 3e 77 26 e4 bd
       0.10987304 -0.07401085 0.15201432 -0.11140149
000330 85 c0 00 3e 6c 20 89 be 37 bd 4a 3e 16 0a a0 3e
       0.1257344 -0.26782548 0.19798742 0.31257695
000340 84 2c 60 be a3 5d 3a be 55 c0 6a 3e 49 32 9f be
       -0.21891981 -0.18199782 0.22924931 -0.31093052
000350 07 0b 1f be 86 73 ae 3e 10 5c a0 be 77 ec 0c be
       -0.1553155 0.34072512 -0.31320238 -0.13762079
000360 48 a2 c4 bd 4e 01 7c bd 0b 62 63 bd 8d 4c 64 bc
       -0.09601265 -0.06152468 -0.055513423 -0.013934267
000370 e9 5f ad be c3 99 89 3e 7f 9c 9f 3d 09 3f d3 3b
       -0.33862236 0.26875123 0.07793521 0.0064467234
000380 5e 6b 71 be 0f fb 96 be 6c ae e2 bb bd a3 4b 3d
       -0.23576114 -0.29488418 -0.0069177654 0.0497167
000390 fd 7f e0 3c 5f 4c 8a 3e 02 04 0a be d9 e4 0e bc
       0.02740478 0.27011392 -0.13478091 -0.008721554
0003a0 76 90 f5 3d 0b e2 67 3e ab 7f 3e be fd 8d c8 bd
       0.11990444 0.22644822 -0.18603389 -0.09792707
0003b0 cd 3f 6c 3e d2 80 9c 3e 4f a5 07 3d d6 3c a1 be
       0.23071213 0.30567032 0.033116635 -0.31491727
0003c0 88 76 a7 be 55 b5 12 3e d4 01 4a 3e 93 27 09 be
       -0.3270762 0.14326985 0.1972726 -0.13394003
0003d0 70 e2 e1 3d 3c 2c 71 3e f1 d3 90 bc 19 5f 45 3e
       0.11029518 0.2355203 -0.017679187 0.19274558
0003e0 90 ee 6d 3d ba 26 61 3d a8 52 0c be e0 a5 a1 3d
       0.05808884 0.054968573 -0.13703406 0.07892966
0003f0 41 f2 1b be 90 62 51 be 19 f3 66 be 09 dc d2 bd
       -0.15229131 -0.20447755 -0.22553672 -0.102958746

conv1.bias f4 [64]
000000 27 40 54 3e 30 de 94 bd 6d 64 8b 3d e4 72 ab 3c
       0.20727597 -0.072689414 0.06806264 0.020928808
000010 c0 0f b4 bd 37 df 78 bd fb 9a 61 be 76 a4 95 3e
       -0.087920666 -0.06075975 -0.22031777 0.29227036
000020 cf 56 98 be c5 df 27 be db 97 15 bd 0c 07 8c 3d
       -0.2975373 -0.16393955 -0.036521774 0.068372816
000030 6c 8d 9e be 45 5b 44 3b a3 e6 96 bd 8d da 79 3e
       -0.3096727 0.0029961627 -0.07368209 0.24399777
000040 4b f6 51 be 32 d4 bf 3d 8d 0a 91 3e e4 a9 33 bd
       -0.2050411 0.09366645 0.28328362 -0.043863192
000050 4b db 2c bd f7 a5 a9 3d 57 a9 12 bb 63 b8 4c bd
       -0.04220132 0.082836084 -0.0022378766 -0.049980532
000060 ed cd ec 3c bb 38 50 3d eb 9f 30 be ee c2 f1 bd
       0.028906787 0.050835352 -0.17248504 -0.11804758
000070 07 78 ce bd 0c 87 9d 3e 67 5a 0e be d2 26 85 3e
       -0.10081487 0.30767095 -0.13901673 0.2600618
000080 06 d5 54 3d 58 22 be bd 6d f1 0d be 8f 37 75 3e
       0.051960967 -0.09283894 -0.13861628 0.23946975
000090 b0 3b 75 3d 77 9d 6b 3e 19 4f 69 bd 87 7b c4 bd
       0.059871376 0.23009287 -0.0569602 -0.095938735
0000a0 e4 11 33 be 00 e7 9b be 18 76 f8 3d 8c 2d 87 3e
       -0.17487293 -0.30449677 0.121318996 0.26401937
0000b0 b6 48 f7 bd 76 8f 8b 3c 2b 36 e9 bd c4 e6 f3 3b
       -0.120744154 0.017036181 -0.11387285 0.007443281
0000c0 2f fa 19 bd 8a d3 93 be 8d 1c 15 be 41 75 09 be
       -0.03759211 -0.2887233 -0.14561673 -0.13423635
0000d0 2b a1 e6 bd 69 2e 49 bd aa c5 49 be 61 b9 81 be
       -0.11261209 -0.049116526 -0.19704309 -0.25336745
0000e0 3d ea 2b be a5 8f 59 be c8 5c 1e 3e e6 61 ca 3d
       -0.16788574 -0.21246202 0.1546508 0.09881954
0000f0 ac 43 82 3e 9d a6 ce 3d d2 c3 06 be 53 c5 0e be
       0.25442255 0.10090373 -0.13160637 -0.1394246

conv2.weight f4 [64, 64, 5]
000000 40 a5 20 bd 65 7d 36 3d 3e 28 50 3d fb 1d ef bc
       -0.039220095 0.04455318 0.050819628 -0.0291891
000010 88 bd 27 3d e3 76 4f bd e5 de 0e bd cb c6 8c 3d
       0.040952235 -0.05065049 -0.034880538 0.06873854
000020 67 28 40 3b 68 3e 2a bd 3d 41 82 b9 61 72 81 3b
       0.0029320957 -0.04156342 -0.00024844139 0.0039504026
000030 43 0a 34 bd 95 6d cd bb ee 61 62 bc dd 08 18 bd
       -0.0439551 -0.0062691667 -0.013817294 -0.037117828
000040 09 09 8f bd e5 4a 67 3d ae a6 0e bd 2a 42 fc 3b
       -0.06984145 0.05646791 -0.034826927 0.007698317
000050 c2 df bc bb 13 c7 cc 3c cc 04 99 bc 69 46 14 bc
       -0.0057639787 0.02499727 -0.018679045 -0.00904999
000060 e8 2c 4a bc ec a4 ac bc 6e f3 92 3d 8a 03 dc 3c
       -0.012339808 -0.021074735 0.07175337 0.026857156
000070 9a 94 2c 3d ed ed c1 3a 6a d5 bc 3c d8 b4 9b 3c
       0.042133905 0.0014795639 0.023050983 0.019007131
000080 63 3b 1e bc be ad 4b 3d 39 71 a2 3c 09 d4 0d bd
       -0.009657714 0.04972624 0.01982938 -0.03462604
000090 d9 c4 19 bd 16 b7 34 3c a3 0d 26 3d d8 4a ff bc
       -0.037541244 0.011029979 0.04054035 -0.031163618
0000a0 d0 45 3a bc 42 13 02 3d 28 ab 26 bd 3e f9 e8 b9
       -0.011369184 0.031756647 -0.04069057 -0.00044436188
0000b0 64 22 62 3d ce 20 c9 bb 04 6b cc 3c eb 46 82 3a
       0.05520858 -0.006137944 0.024953373 0.0009939348
0000c0 e4 9e 4a 3d a1 19 46 bd 74 3d c1 bc 21 2e 65 bd
       0.049467936 -0.048364285 -0.023588873 -0.055952195
0000d0 76 47 dd bc a4 f7 f0 bc 10 ed b5 bc 05 8e 63 3d
       -0.027011614 -0.02941496 -0.022207767 0.055555362
0000e0 e5 c2 11 3d 00 72 76 bb ab d0 a9 3c f5 68 4e 3b
       0.035586257 -0.003760457 0.020729383 0.0031495665
0000f0 51 b3 50 3d bd dc 50 3d e0 a0 af 3c 56 2c 2a bd
       0.05095226 0.050991762 0.021439016 -0.04154619
000100 65 03 2b bd 1c 9d c0 bc f4 d3 63 3d f5 13 09 3c
       -0.041751284 -0.023512416 0.055622056 0.0083665745
000110 02 4c 7d bd cd 23 e4 3a 68 6b 86 3c 70 41 62 bc
       -0.061840065 0.0017405689 0.016408637 -0.013809547
000120 77 4e bd bb 91 a9 b2 3c a9 da 11 3d 9b 8a 3b bd
       -0.005777176 0.021809371 0.03560892 -0.04578648
000130 e9 e9 90 bc af 95 88 bc 59 b0 68 3c 87 41 32 bd
       -0.017689662 -0.016672937 0.014202201 -0.043519523
000140 22 81 21 bc 1f 78 5f 3d 24 c1 0c 3c 84 a4 91 bc
       -0.009857448 0.054557916 0.00859097 -0.017778642
000150 50 13 2a bd 26 e5 03 3d af 06 20 3c 43 af f3 bc
       -0.041522324 0.032200955 0.0097672185 -0.029746657
000160 61 46 c7 3c 9d d1 0f 3c d3 f7 d1 bb b2 4e 27 3c
       0.024325551 0.008778003 -0.006407717 0.0102116335
000170 6e 01 65 bd 3b c5 84 bc 35 57 05 3d ee a4 dc 3c
       -0.055909567 -0.016207328 0.03255387 0.026934113
000180 8f e0 3f bc 25 18 52 3d 72 d4 60 bd 6e 78 9a 3c
       -0.011711254 0.051292557 -0.054890104 0.018856253
000190 cd 06 6d ba 2e ff 9a 3c 8a 1e ce bc 83 b3 f5 3c
       -0.0009041846 0.018920507 -0.025161047 0.029992824
0001a0 8c 75 9c bc bc 27 ca 3b 56 4a 86 bc 9e 51 83 bb
       -0.01909902 0.0061692875 -0.016392868 -0.0040075323
0001b0 8b c5 c8 bc 9a 13 03 3d 94 fa 1d 3d 42 fa 04 bd
       -0.024508258 0.032001115 0.038569048 -0.032465227
0001c0 bd 79 11 3d e5 db 7c 3d a0 4e e6 3c 63 d9 83 bc
       0.03551649 0.061733145 0.028113663 -0.016094869
0001d0 b4 17 48 3d d0 91 50 38 5f 9c 36 3d fa d6 fe 3c
       0.04885073 4.9726863e-05 0.04458272 0.031108368
0001e0 0c b1 82 3c bb 9b 88 3d 85 3b 2d 3d 53 4f a3 bc
       0.015953563 0.06670328 0.04229309 -0.019935286
0001f0 ec ab 77 bb bc ca 9b 3c 56 20 fd 3c 0d 02 9a 3b
       -0.0037791682 0.01901757 0.030899208 0.0046999515
000200 81 1c 28 bc d7 7f 62 bb 1b 55 13 3d 95 4f 0e 3d
       -0.010260702 -0.0034561062 0.035969835 0.034743864
000210 8a 86 6a 3d 32 d1 40 bd 7a 11 73 bc 0d e2 13 bd
       0.057257213 -0.047074504 -0.01483571 -0.03610425
000220 5e 72 43 3c 92 49 94 3c 64 04 00 3d b8 f7 a9 bc
       0.011929123 0.018101487 0.031254187 -0.020748004
000230 5a ee 6c bd 78 08 16 3d 7a 2c e8 3b 7f d6 91 bc
       -0.057844497 0.03662917 0.00708538 -0.017802475
000240 64 4a 04 3d 21 8a 5d bd d3 7e 0c bd cb 6a 51 3d
       0.032297507 -0.054086808 -0.034300637 0.051127236
000250 19 03 54 3c f5 34 e2 3c 1b 6c 39 3d 22 0e 8b 3d
       0.012940192 0.027613143 0.045269113 0.06789805
000260 44 47 25 3c 32 5d 80 3d e0 26 fd 3c 77 1b 48 3c
       0.010087792 0.062677756 0.030902326 0.012213579
000270 85 57 5f bc 50 b9 1b bc 98 9b 32 3c 4c 60 03 bd
       -0.013631706 -0.009504631 0.010901354 -0.032074258
000280 56 97 cb bc 57 8b 4e 3c ee 37 fb bc c8 e7 ee 3c
       -0.024852436 0.012606463 -0.030666318 0.029163256
000290 27 56 e2 3c 6f 57 a5 3b db 93 db 3c 49 71 2c bd
       0.027628971 0.0050458233 0.026803901 -0.042100225
0002a0 f0 0d 1e 3d 4a 12 54 3d 2f 43 49 bb 25 36 14 bd
       0.03858751 0.051775254 -0.003071021 -0.03618445
0002b0 12 5b 7e 3d 72 ae 3b bc c4 ee b8 b9 a4 10 b5 bb
       0.06209857 -0.011455165 -0.0003527311 -0.0055256654
0002c0 78 13 0b bd 2d b4 77 3d 57 86 f0 3c f3 18 1c bd
       -0.033954114 0.060474563 0.029360933 -0.03810973
0002d0 28 11 a9 3b c5 53 5d 3c 99 91 54 3d 0d 13 f1 3c
       0.005159516 0.013508742 0.051896665 0.02942803
0002e0 5e ee ee 3c d5 37 61 bd 18 fd 6e 3c 8a 3e f6 bb
       0.029166397 -0.054984886 0.014586709 -0.0075147795
0002f0 0d b2 31 3d 78 42 fd bc d3 fc 04 bd 24 5c 16 3c
       0.043382693 -0.030915484 -0.032467674 0.0091772415
000300 8a 18 4f 3c 7f 33 55 3c 9e cc 9c 3c fa 5f 56 bd
       0.012640128 0.013012766 0.019140538 -0.052337624
000310 8c ab ed 3c 44 13 69 3d 77 85 1f bd fd 66 24 bd
       0.029012464 0.05690314 -0.03894564 -0.04013728
000320 1f 78 71 bc ff a8 0b bc 25 e8 cf bc 70 47 a0 bc
       -0.014738112 -0.0085241785 -0.02537925 -0.019565314
000330 12 8d 0d 3c e1 06 73 3d c5 ab ca 3c 0e d3 42 bb
       0.008639591 0.059332732 0.02474011 -0.002972785
000340 3c b9 21 3c c5 4f e3 bc b4 0b 57 3d cc 32 3a bd
       0.0098708235 -0.027747998 0.052501395 -0.0454586
000350 31 21 01 3d 5f 91 97 bb 65 1d a2 39 09 62 42 bc
       0.031525794 -0.004625484 0.00030920948 -0.011864194
000360 60 fe 1f bd 63 c7 d5 3c 8e 44 3d bd f8 e6 1d bd
       -0.03906095 0.026096052 -0.046207957 -0.038550347
000370 9f a1 03 3d f6 86 34 bc 98 69 34 bd ba f1 21 3d
       0.032136556 -0.011018505 -0.044046015 0.03953717
000380 0c 5a a6 3b 19 f6 09 3d 8c 02 72 3c 94 44 a6 3c
       0.0050766524 0.033681963 0.014771115 0.020296372
000390 6b ec fc bc 7b ab c2 bc 47 d4 64 3d aa b0 40 3d
       -0.030874452 -0.023763409 0.055866506 0.04704348
0003a0 d3 4a a0 3c 0e ca a9 bc 93 ce 27 3d 6f 45 19 bd
       0.019566929 -0.02072623 0.04096849 -0.037419733
0003b0 e0 b6 f0 3c 63 11 01 3d 62 b2 9e 3c 6d 8f 81 3c
       0.029384077 0.031510722 0.019372169 0.015815461
0003c0 0b f6 4d bd da cf 08 3d 6c 17 9a 3c c4 98 32 bd
       -0.050283473 0.033401348 0.018809997 -0.04360272
0003d0 46 68 1e 3c 11 e9 e0 bc 0e ed ee 3c fa 14 68 bd
       0.009668415 -0.027454885 0.02916577 -0.05666063
0003e0 93 00 95 3b 75 c0 8b bd 89 20 99 bb cc f1 42 3d
       0.0045471876 -0.06823818 -0.004673068 0.047593877
0003f0 55 40 88 3d 80 1b 2d bb 63 ae 46 3d 95 f1 5e 3c
       0.06652895 -0.0026414096 0.048506152 0.013607402

conv2.bias f4 [64]
000000 13 a8 7c bb 09 69 3d 3d bd b3 e8 3c 99 71 51 bd
       -0.0038552328 0.046242747 0.028406018 -0.051133726
000010 97 d5 a3 3c 90 f5 94 3b 61 fd 49 3d 31 62 15 3c
       0.019999309 0.004545875 0.049313907 0.009117649
000020 2f 91 fb bc 87 c4 f0 bc a6 2f 3a bd 35 08 d8 bb
       -0.030708877 -0.029390587 -0.045455597 -0.006592775
000030 34 44 43 bd 4e 84 49 bd f0 db 35 3d 5e 24 eb bc
       -0.047672465 -0.04919844 0.044399202 -0.028703865
000040 93 a3 46 bc 6e 92 37 3d ab 0d f5 bc 92 73 59 bc
       -0.01212396 0.04481738 -0.029913744 -0.013272183
000050 c3 57 fe 3c 4a 66 aa 3c 51 b3 73 3d 1f c0 6b bc
       0.031047707 0.020800728 0.05949718 -0.014389067
000060 7d d7 a6 3c 22 da 5c 3d 38 ac 3f 3d 20 81 b0 bc
       0.020366425 0.053918965 0.0467951 -0.021545947
000070 cd e3 20 bd 1d a9 09 3d 5e 35 91 bc 9c b1 b1 bc
       -0.039279748 0.033608545 -0.017725643 -0.021691136
000080 62 41 88 3d 62 f2 41 3d b4 17 0f bd 6a 8b 50 bb
       0.06653096 0.047350295 -0.034934714 -0.0031821379
000090 bf 9d 9e 3c 9c 62 32 bc 4f 33 0a 3d e1 37 77 3d
       0.019362329 -0.010887768 0.033740338 0.060356025
0000a0 82 6b 85 3c 6b 19 b5 3c d5 b8 a3 3c 45 e5 a2 bc
       0.016286615 0.022106847 0.019985596 -0.019884715
0000b0 cb 68 88 bc 3f 1d 33 3c 12 b2 ff bc a8 84 0a 3d
       -0.016651532 0.010932266 -0.03121284 0.033817917
0000c0 e2 54 2e bd 0b 7f 7f bd d8 0e 2b bd 73 57 a2 3c
       -0.04256142 -0.062377017 -0.041762203 0.01981709
0000d0 23 e0 1c bd 09 d8 75 3d c2 4b 4d bd 8f a2 3f 3c
       -0.03829969 0.06002048 -0.050121076 0.011696472
0000e0 87 36 72 bc ee dd a2 3c 6d f7 6c bd 58 08 57 bd
       -0.014783508 0.019881215 -0.05785315 -0.05249819
0000f0 63 e4 38 3d a7 b4 41 bd f8 af a5 bc 19 41 52 bc
       0.04513968 -0.047291424 -0.02022551 -0.012832903

lstm.weight_ih_l0 f4 [256, 64]
000000 30 5d fa bc 5f 42 22 3a 23 2d e9 3d e2 0e 5d 3d
       -0.030562013 0.00061896996 0.11385562 0.05396927
000010 d5 d7 c2 3d d8 13 99 bd fa 55 17 bd d4 68 17 3d
       0.09513823 -0.07474488 -0.036947228 0.036965206
000020 cc 85 8c bd dc 19 c1 3d c1 0e a5 3d ad 24 3b bd
       -0.06861457 0.094287604 0.08059455 -0.045689274
000030 6e 30 e3 3d 27 bc f1 bc 6c 47 3d 3d cf 8c ec 3d
       0.110932216 -0.029508663 0.04621069 0.115502946
000040 d1 00 8a bd e8 6f 4e bd c7 65 87 3d 06 4c 44 3d
       -0.06738437 -0.05039969 0.06611209 0.047924064
000050 02 f0 8e 3c ba 62 99 3d 6c 6b 75 3b fa 9a 90 bd
       0.017448429 0.07489534 0.0037448062 -0.070608094
000060 94 b5 4c 3d 79 99 a4 bc 11 90 00 3e 5d 5a 8c 3c
       0.049977854 -0.020092713 0.12554957 0.017132932
000070 cf 3d 29 bd 2b 95 2a bd 60 b4 c5 3c 32 10 6c 3c
       -0.04131871 -0.041646164 0.024133861 0.014408158
000080 0f d5 02 3c 23 0e 62 bd 36 35 27 3d 20 ed e0 bd
       0.007985367 -0.055189263 0.04082223 -0.10982728
000090 78 9f a9 3d 7d 6e 1e 3c 76 61 bf 3d 01 02 bf 3d
       0.082823694 0.009669897 0.09344761 0.09326554
0000a0 ca d6 07 bd 8f 98 ed 3d 71 98 bc 3d cb c2 dc bb
       -0.033163823 0.11601364 0.092087634 -0.0067370883
0000b0 4f c7 db 3d ac 10 a4 3d 1e 3c 9c bc 5e 24 0a bd
       0.107313745 0.080109924 -0.019071635 -0.03372609
0000c0 65 c8 2c bd 88 37 bb bd 9d 35 9c 3c bd 8b fb 3d
       -0.0421833 -0.09141451 0.019068534 0.12282512
0000d0 04 83 c5 3d 7e 40 ad 3d 4e 06 b8 3d f7 3d 91 3d
       0.0964413 0.084595665 0.089855775 0.07091897
0000e0 0f 6f aa bd d5 ba 83 bd a3 38 ad bd 66 14 0a 3e
       -0.08321964 -0.0643212 -0.08458068 0.13484344
0000f0 78 cd bd bb 4d bf b7 bc 80 cc 94 3d d6 8d 98 3d
       -0.005792316 -0.022430087 0.07265568 0.07448928
000100 a4 fe 52 3c 75 50 96 3b 31 76 4d 3d 60 16 8d 3c
       0.012878094 0.004587228 0.050161544 0.017222583
000110 08 b0 96 bd e6 4b 82 3d f5 b6 9f 3d b1 a3 86 3b
       -0.07357794 0.06362133 0.07798568 0.004108869
000120 c5 1a 31 bd b6 20 f7 3c bc f4 83 3d d5 e6 a6 3d
       -0.04323842 0.030166965 0.06443164 0.081494965
000130 cc d4 aa 3d 37 5d 52 bd ef 66 c1 3d bf fb dc 3d
       0.08341369 -0.051358428 0.09443461 0.10790204
000140 e0 b5 cf 3d 81 70 80 3d 10 ed 93 3d 04 61 c2 3a
       0.10142112 0.062714584 0.072229505 0.0014829938
000150 8d 11 76 3c b1 28 6e 3d 3d 7c 37 bd ff 56 2c 3c
       0.015018833 0.058144275 -0.044796217 0.010518788
000160 9b de 21 bd 1d de 40 3d 0f 29 5b 3d c9 2b e5 3c
       -0.039518934 0.047086824 0.053505953 0.02797498
000170 17 c4 7a 3d 30 0a 56 3d 71 06 c0 3d 22 b4 f8 bc
       0.061222162 0.05225581 0.093762286 -0.030359332
000180 99 9f cf 3c 9a e3 14 bd 0b 34 92 3d 04 94 54 3d
       0.025344657 -0.03634987 0.07138833 0.05189897
000190 40 7c 89 bd dd 1d 36 bd 40 6c 22 3d 56 51 d8 3c
       -0.06713152 -0.044462074 0.039654016 0.026405971
0001a0 a1 d7 c5 bd eb 2f 85 3d 42 2b 35 bd be 3a 9d bd
       -0.096602686 0.0650328 -0.044230707 -0.0767722
0001b0 1e 3d 60 3c 25 d8 37 bb a0 73 b9 3c 9f da 6c 3d
       0.0136864465 -0.0028052416 0.022638142 0.05782568
0001c0 2c 47 c3 bc 79 51 93 bd e8 73 7c 3d 25 5f 0f 3d
       -0.023837648 -0.07193274 0.061633974 0.035002846
0001d0 62 74 39 3d ed 64 4b bd 04 62 87 3d 9e d9 e5 3d
       0.045277007 -0.049656797 0.06610492 0.11223148
0001e0 55 3d d3 3b 14 a6 74 bd d2 2b 3c bd 29 52 c7 bb
       0.0064465203 -0.059728697 -0.045940228 -0.0060827923
0001f0 8c ae af 3b 8e 7e 51 bd a0 05 c0 bc da 64 ed 3d
       0.005361384 -0.051146083 -0.023440182 0.115915015
000200 8d bb d1 3c a7 05 00 be c3 b5 a9 bd b1 48 92 bc
       0.025602126 -0.12502156 -0.082866214 -0.017856928
000210 00 7e 05 3d 8e 4c e5 bc 9f b8 0b 3d 8a dc a4 bd
       0.032590866 -0.027990606 0.034111615 -0.08049877
000220 13 54 07 3e 92 04 58 ba 91 56 d8 3d e7 9b 2a bd
       0.13215666 -0.0008240427 0.10563386 -0.041652586
000230 91 d6 a4 bd 27 e9 47 3d f3 1a f0 bd 1d 82 03 3d
       -0.08048738 0.048806336 -0.1172389 0.032106508
000240 ac e3 28 3d 73 37 96 bd 35 f4 75 bd cf df 1c 3e
       0.04123275 -0.07334795 -0.060047347 0.15319751
000250 a7 b3 05 3d 9c b8 92 3c db 9b 63 bd 63 4a e8 3d
       0.032642033 0.017910294 -0.055568557 0.11342313
000260 46 59 54 3d 01 fd 24 bd 16 b3 5a 3d 44 14 06 bd
       0.05184295 -0.040280346 0.053393446 -0.03273417
000270 c4 1a a8 3b 0f f2 ce 3b 5b fa 5e bd fd ab f5 bd
       0.005130144 0.0063154767 -0.054437976 -0.11995695
000280 60 bc 66 3d b1 67 22 3d 2e 70 ee bd 95 80 55 bd
       0.056331992 0.03964967 -0.1164249 -0.05212458
000290 63 6c 05 3d e7 a6 0c bd 9e 8a 12 3e 86 2e bd bd
       0.03257407 -0.034338858 0.14310691 -0.09237389
0002a0 89 92 c7 bd 61 30 31 3b 5e 29 41 3d 7d 16 14 3d
       -0.09744746 0.0027036893 0.04715859 0.03615426
0002b0 52 d1 03 bd c8 9c 5d bd 2e d0 62 3d 57 79 56 3d
       -0.032182045 -0.054104596 0.055374317 0.052361812
0002c0 a5 93 d1 3d 1e 4f b9 bc da 92 c6 3b 4f 29 8c 3d
       0.10233239 -0.022620734 0.0060599865 0.068438165
0002d0 a6 90 a4 bd 46 58 00 3e d7 b0 af bd c6 26 62 bd
       -0.08035402 0.12533674 -0.085786514 -0.05521276
0002e0 00 f8 ff ba 86 59 83 3d c8 54 c2 3d 4f 62 90 3d
       -0.0019528866 0.064135596 0.09488827 0.07050001
0002f0 fd b2 4b 3d 13 b6 6c 3d 40 7a 4b 3d 20 4d ba 3c
       0.049731243 0.057790827 0.049677134 0.022741854
000300 3c 6e b0 3d 45 38 61 3d c0 f3 c6 bd b1 82 dc 3d
       0.086147755 0.054985303 -0.097144604 0.10767115
000310 bf c5 d6 bd 2c 07 d0 3d ed 51 d0 bd d4 aa 25 bc
       -0.10486936 0.10157618 -0.10171876 -0.010111529
000320 8f 3b a5 3d 9d c3 54 3d c4 85 f5 3d bb f3 36 bd
       0.080680005 0.051944364 0.119884044 -0.044666033
000330 90 56 86 3c fa ac 08 bd 6a 0f 1d bd 43 e7 a0 bb
       0.016398698 -0.03336809 -0.038344778 -0.004910381
000340 69 90 2b 3d 26 99 bb 3d 0e a3 be 3b fb ab 9a 3c
       0.041885767 0.0916007 0.0058177775 0.018880835
000350 9e c2 e3 3c 4c 2a 7b bd 19 9f 44 3b 55 51 98 3d
       0.027802762 -0.061319634 0.0030002056 0.07437388
000360 3e d1 32 bd 31 2d 86 bc 48 97 11 bb 1a ce b1 bd
       -0.04365658 -0.01637897 -0.0022215415 -0.08681889
000370 19 b4 94 bd 28 6e d5 3b ef 42 71 bd 78 c8 8c bb
       -0.072609134 0.006513376 -0.058901723 -0.0042963587
000380 bb 57 9d bc c3 7a 66 3d d6 e2 76 3d a1 41 a6 3d
       -0.019206872 0.05626942 0.06027492 0.081179865
000390 12 25 8d bd e4 45 81 3d b2 c9 97 3d 4a 16 69 bd
       -0.06891836 0.06312159 0.07411517 -0.056906022
0003a0 08 39 ab bd f6 64 be bd b4 b7 99 bd aa 84 42 bd
       -0.08360487 -0.092966005 -0.07505742 -0.0474898
0003b0 b1 1a c1 3d 97 2a 60 3d 77 c5 ca 3a 3d d2 86 3d
       0.09428919 0.054728117 0.0015470226 0.065830685
0003c0 23 fe bc 3d 35 e1 da 3c 17 bb 27 bc 16 7b c4 3c
       0.0922816 0.026718715 -0.010237477 0.023984473
0003d0 fd df df bc ef 0c fc bc 85 65 a9 3c 92 fe 88 bd
       -0.027328486 -0.030767886 0.020678291 -0.066891804
0003e0 1f 76 ee bc c3 f5 6d bd 24 69 d5 3d 67 ac f2 bd
       -0.029109059 -0.058095705 0.104204446 -0.118492894
0003f0 65 2b 11 3d 4c da 03 bd a3 47 b3 3b df 07 0f 3d
       0.035441775 -0.032190606 0.0054711862 0.034919616

lstm.weight_hh_l0 f4 [256, 64]
000000 27 fb b3 bd 46 a5 3c bd 3a e4 90 bd 66 3b eb bb
       -0.08788138 -0.046056055 -0.07074781 -0.0071787117
000010 ea 76 f5 bd 6b c1 15 3d cd ca bb 3d 87 62 1c 3c
       -0.11985572 0.03656141 0.091695406 0.009544975
000020 53 c8 6c bc 4d ba 52 bd c3 27 1e bd a7 af d8 3d
       -0.014452058 -0.0514472 -0.03861214 0.10580378
000030 8c 19 81 3d 16 36 3a bd ad cb f2 3c 1d 92 3e bd
       0.06303701 -0.045461737 0.029638136 -0.046526063
000040 e9 4e 36 bd 9b c0 b0 3d c9 13 56 bd 38 b8 4c bd
       -0.04450885 0.086304866 -0.052264962 -0.049980372
000050 d0 e2 85 bd 69 2e a2 bd 7e e0 d2 bb ee 1d 4b 3d
       -0.06537402 -0.07919008 -0.006435453 0.04958909
000060 2e 09 07 bd 37 7c b2 bd e9 a5 c6 bc bd 80 91 3d
       -0.03296774 -0.08715098 -0.024249034 0.07104633
000070 b9 08 2e bd 5f 59 a6 bd 0c 01 6e bd c7 58 bb 3d
       -0.042488787 -0.08122515 -0.058106467 0.09147792
000080 e6 39 ab bd e3 a1 0e 3d af 45 81 3d 31 70 81 bd
       -0.083606526 0.034822356 0.06312119 -0.06320227
000090 79 43 f5 bd 70 d4 d4 3d 09 9d 0f 3d e5 db 19 3d
       -0.1197576 0.10392082 0.03506187 0.037563223
0000a0 98 d4 ab 3d e7 95 1b bc 4d 6d a1 3c 00 10 af bd
       0.083901584 -0.009496189 0.019705439 -0.08547974
0000b0 02 45 ed bc 17 58 ec bd 82 60 57 bd ab 94 9b 3d
       -0.02896357 -0.11540239 -0.05258227 0.075967155
0000c0 87 6b a4 3d 02 a9 4d 3d 7e 79 be bd 1b df dc 3b
       0.08028322 0.050210007 -0.093005165 0.0067404634
0000d0 c9 48 89 3d 8b ef ee 3d bc 53 2e 3d c1 f3 03 bc
       0.06703336 0.11666783 0.042560324 -0.008053721
0000e0 35 1c bc bd 37 63 83 bc c5 e0 b2 3d b5 69 4d 3d
       -0.091850676 -0.01603852 0.08734278 0.05014964
0000f0 d1 ba a8 3c 93 ab 96 bb 84 82 82 bc 55 5b 0a bd
       0.020596894 -0.00459809 -0.015931375 -0.033778507
000100 b3 fe fd bc dc 56 d2 3c 81 ba 28 bd 2a 5f be bc
       -0.03100524 0.025676183 -0.04119349 -0.023238737
000110 1e 34 5f 3d 41 69 e2 bc ca 48 aa 3c 44 c2 97 bc
       0.054493062 -0.02763808 0.020786662 -0.01852525
000120 e7 74 1c bd 6a 12 ba bc 78 77 d2 bb 52 22 9a bc
       -0.038197424 -0.022713859 -0.006422933 -0.018815193
000130 23 ac fa bc ab a9 d6 3b e5 24 1d 3d fd 6d 06 3d
       -0.03059966 0.0065509877 0.038365263 0.032819737
000140 20 39 34 3c 34 9c 70 3c b3 c1 9a 3b 08 57 68 bc
       0.010999948 0.014685679 0.004722798 -0.014180906
000150 07 2a 3a 3d f7 6a 22 bd 83 c7 41 bd 86 3f de bc
       0.045450237 -0.03965279 -0.04730941 -0.0271299
000160 af 83 9f 3c ef d9 67 bb 94 d9 b1 bd 89 1f c6 3c
       0.019471971 -0.0035377701 -0.08684078 0.024184959
000170 82 bf 9e 3d 0d 84 58 bd 17 f6 28 bd 1a 81 b7 3d
       0.07751371 -0.05286031 -0.041250315 0.08960171
000180 06 8c 9e bb a8 03 6a 3d e6 a3 37 bc a7 14 98 3c
       -0.0048384694 0.057132393 -0.01120851 0.018564535
000190 7a c6 bc bd 3e c1 73 3d a8 4d 2a bc 94 9a f0 3c
       -0.09217544 0.059510462 -0.010394491 0.029370584
0001a0 fe b0 9c 3c 75 7d ee 3c 73 79 08 3d 95 f5 55 3d
       0.019127365 0.029112557 0.033318948 0.05223616
0001b0 14 8d 68 3d fb 4c f1 bb 3d 4d bc 3c 12 1f 24 bd
       0.056775168 -0.007363913 0.022986049 -0.040068693
0001c0 31 f4 20 3d d2 85 78 ba e3 dc ba 3c cf 69 e3 bc
       0.03929538 -0.000948039 0.022810405 -0.027760414
0001d0 89 2b 9d bc 6f bc 90 bc 6c ba 83 bd 64 8c 1e bd
       -0.019185798 -0.017667977 -0.064320415 -0.038708106
0001e0 52 17 d8 3c bc 9a 06 3d aa 7b 95 bc b5 c9 35 3d
       0.026378307 0.03286241 -0.018247444 0.044381816
0001f0 ea b1 d3 bc d7 88 9a ba ce 4a 5e 3d db e1 df 3c
       -0.025841672 -0.0011790049 0.054270558 0.027329376
000200 e9 d5 68 bc f4 33 a2 bc 53 08 bb bd d5 97 7d bc
       -0.014211156 -0.019800164 -0.09132447 -0.015478094
000210 50 1f c3 3d 83 9f 41 3d 6f 21 88 bd 9d c4 6c 3d
       0.09527457 0.047271263 -0.06647002 0.057804693
000220 08 61 7f 3d 6f 4f 8d bd b4 3e 98 3c 58 26 59 3c
       0.062348396 -0.068999164 0.018584587 0.013253771
000230 a5 13 ee bc c3 4c 20 3d 91 db 90 3c cc 01 a3 3d
       -0.029062102 0.039135706 0.017682822 0.07959327
000240 8d 6e 2a bd 01 58 92 bd d4 39 c3 3d 20 6f 54 bd
       -0.041609336 -0.07145692 0.09532514 -0.05186379
000250 52 fc a9 3d f4 5c 82 3c d7 8c 80 3c fd 36 26 bd
       0.083000794 0.015913464 0.015692158 -0.040579785
000260 fe 5f 96 3c 30 c0 39 3d 15 f7 3e bc f3 29 28 3d
       0.01835632 0.0453493 -0.011655589 0.04105563
000270 7d 98 e0 bd a1 46 48 bd 84 54 bd 3c 49 81 ba bd
       -0.10966585 -0.048895482 0.02311159 -0.091066904
000280 e7 f8 24 3d 05 f5 ec bc 5a 3d fc 3d 1d d1 89 3d
       0.040276434 -0.028925428 0.123163894 0.06729338
000290 7f 11 88 3b 3b 9d 5f 3d 25 67 a5 3d 12 33 80 bc
       0.0041524763 0.054593306 0.08076314 -0.015649352
0002a0 fc 3f ec 3d 11 44 a8 3d 59 e2 3a bd b2 8e 41 bd
       0.115356416 0.08216108 -0.04562602 -0.047255225
0002b0 76 e0 64 bd 95 f5 76 3d d0 95 17 bd a0 93 45 3d
       -0.055878125 0.0602928 -0.037008107 0.04823649
0002c0 97 49 8c 3c 72 80 61 bd 49 9b 4b bb a8 1e 84 3c
       0.017124934 -0.055054136 -0.00310679 0.0161279
0002d0 4c ac 9c 3d 1d 02 5e 3d 89 0c dc 3c 81 b9 8d 3d
       0.076500505 0.054201234 0.026861446 0.06920148
0002e0 52 a9 8e 3d 26 79 89 3d 44 c3 49 bd fc cb 8f 3c
       0.06965889 0.0671256 -0.049258485 0.017553322
0002f0 e7 ae 0f bd 9d cb 3c bd d0 ff 05 bd b4 de 0c be
       -0.03507891 -0.04609262 -0.032714665 -0.1375683
000300 77 68 b2 3d 3b e7 82 3c 51 3c d8 3c 1d 34 05 3d
       0.08711331 0.0159794 0.026395949 0.032520402
000310 87 51 a3 3d af b3 a1 3d 82 21 80 3c 37 9a ea 3d
       0.079745345 0.078956 0.015640978 0.114551954
000320 40 a4 b3 bd 71 03 30 3c 54 6e d1 bd 78 78 b3 bc
       -0.087715626 0.010743008 -0.102261215 -0.02190803
000330 60 a6 87 3b cf 45 9b 3d ea 18 4f bd 28 8f 78 3d
       0.0041397065 0.07581674 -0.05056087 0.0606834
000340 6b a8 c3 3c ab a5 f8 3c 07 0e ed 3c 70 a5 21 3c
       0.023884019 0.030352434 0.028937353 0.0098661035
000350 12 98 da 3c 1a 84 39 3c 9e 24 c3 3d b1 a9 8f bd
       0.02668384 0.011322999 0.095284685 -0.07014788
000360 11 55 c6 bc af 56 20 bd aa e4 af 3c 5d 9c b0 3c
       -0.024210485 -0.039145168 0.02147134 0.021558935
000370 13 c4 9c bc 19 90 be bd 3e b1 d5 3b 17 53 ae bc
       -0.019136464 -0.09304828 0.006521373 -0.021279855
000380 e1 cf 85 bc 90 78 02 3d e2 54 1d 3b 58 86 e6 bc
       -0.016334476 0.03185326 0.0024006893 -0.028140232
000390 c0 a1 1e bd fb 83 fc 3c ec 4d c7 3c db 5d bc 3c
       -0.038728476 0.030824652 0.024329148 0.022993973
0003a0 99 f6 ad 3d 5d 17 c1 3d 59 8f 42 bd b2 c8 6a 3c
       0.084943004 0.09428284 -0.04749999 0.014330076
0003b0 5d 56 fe bc 15 92 92 bd 6b 98 8d bb 52 51 2b 3d
       -0.03104704 -0.07156769 -0.004321148 0.0418256
0003c0 85 d1 e2 3c a9 89 a1 3d f4 5b c1 bc c0 a8 ba bc
       0.027687797 0.07887585 -0.023603417 -0.022785544
0003d0 1a 9f 9a bd 9d 64 cd 3a 58 5e b5 3d fe 72 10 bd
       -0.075498775 0.0015670244 0.08855885 -0.035265915
0003e0 fb 4a 87 39 9e c4 2b bd cc 40 6f bc 9e ee 46 3d
       0.0002580507 -0.041935556 -0.014602851 0.048567407
0003f0 e2 75 56 bd 2c 69 f4 bc d6 16 80 3b 69 63 08 bd
       -0.052358516 -0.029835306 0.0039089723 -0.03329793

lstm.bias_ih_l0 f4 [256]
000000 ce c4 f5 3d 35 9b 4d bc 63 05 bf bd 91 92 1c 3d
       0.12000428 -0.012549211 -0.09327199 0.038225714
000010 f8 1d d0 3d 0c 16 78 3c ab 6e 39 3d 84 fe be bd
       0.10161966 0.015141975 0.045271557 -0.09325889
000020 27 24 dd 3d d0 c5 db 3c 41 4e d6 3d 23 b8 3f bd
       0.10797911 0.026827723 0.104641445 -0.046806466
000030 6c ce 0c 3d f5 06 b5 bd cb 0a dc bc 8a 9b 04 bd
       0.034376547 -0.088392176 -0.026860615 -0.032374896
000040 4c c5 db 3d f2 65 de 3d 96 cf 16 3e a4 b7 98 bd
       0.10730991 0.10859288 0.14727625 -0.07456902
000050 3e d4 fd 3d e7 86 1f 3e 97 a6 e3 3c 59 dd ae bc
       0.123939976 0.15578805 0.027789397 -0.021345781
000060 48 c8 80 bd 7f f6 eb 3c 06 5c d6 3c 23 0f 2b 3d
       -0.062882006 0.028804062 0.026166927 0.041762482
000070 9d 57 29 3d a2 68 f6 39 33 cc fb bc c0 68 e6 3c
       0.04134332 0.00046998734 -0.030737018 0.02812612
000080 dd 92 ad 3d 66 fe 84 bd 76 1e bf bd 05 54 6f 3d
       0.084752776 -0.06493835 -0.09331982 0.058429737
000090 5c eb d1 bd 57 99 8a 3b 9f 1e b7 bc e6 dc d8 3d
       -0.10249969 0.0042297053 -0.022353468 0.10589008
0000a0 bd 18 f8 3c 2c cd cf 3d 2a 94 a0 bd 0e 8f c8 bd
       0.030285234 0.10146555 -0.0784076 -0.097929105
0000b0 4f 9c fd 3d 09 15 72 bd 27 70 b0 3d 6e 23 09 bd
       0.12383329 -0.059102092 0.08615141 -0.033481054
0000c0 e6 a2 df 3c f5 88 93 bd 9b 7a 53 bc 77 50 39 bd
       0.027299356 -0.07203857 -0.012907649 -0.045242753
0000d0 e3 31 e1 bc 88 79 27 bd 44 12 bc 3d 5f af b8 bd
       -0.027489608 -0.040887386 0.091831714 -0.090178244
0000e0 b0 a8 ab bc 20 eb d5 bd 6c 43 2c bd f8 88 6e 3d
       -0.02095446 -0.10445237 -0.042056486 0.058236092
0000f0 bf 29 18 3c d1 1e a0 bd 4c c1 85 bc 3b 4d 05 3e
       0.009287297 -0.07818378 -0.016327523 0.13017742
000100 37 a0 20 3e 1e eb 92 3d d2 f1 9f 3d a7 36 fd 3d
       0.15686117 0.07173751 0.078097954 0.1236394
000110 ea db 61 bc ab 3b 0d 3d a0 ae e2 3d 0d 5c 92 3d
       -0.013785342 0.034480732 0.11068463 0.071464635
000120 79 47 89 3d b6 51 fa 3d d1 1d 36 3e 3a 8f c3 3d
       0.067030855 0.122226164 0.17784812 0.09548803
000130 b6 c4 83 3d 5f 6e 9c 3c 80 a9 2c 3e 9b 6b 4e bd
       0.06434004 0.019095598 0.16861534 -0.05039559
000140 40 7c 9d 3d cc 75 d9 bc 34 c5 ec bc 8b 5e e6 bc
       0.076897144 -0.026545428 -0.028902628 -0.028121253
000150 bd 73 c9 bc 93 0f b7 bb 64 a6 04 3e 43 c1 8a 3d
       -0.024591321 -0.0055865734 0.12954098 0.06775143
000160 6d 1d 3b bd 35 03 08 3d 92 a8 40 3d 6a e7 38 3d
       -0.04568236 0.033206183 0.04703576 0.04514257
000170 a6 71 a5 3c 4b 33 a5 bd 40 42 d6 bc cd 08 e9 3d
       0.020195793 -0.08066424 -0.026154637 0.11378632
000180 69 df c1 bd 84 ea 7d 3d 08 34 a5 3c fd 52 d9 3c
       -0.0946644 0.06199123 0.020166412 0.02652883
000190 8a 72 b9 3d 32 76 0c 3d f6 b5 01 3e 0d d4 c9 3d
       0.0905505 0.034292407 0.12667069 0.098548986
0001a0 30 73 0f 3d 4a 7f c2 3d 4a 61 5b bd 9d 20 26 3d
       0.03502196 0.09496935 -0.05355958 0.040558446
0001b0 05 d3 48 3d dd 13 e4 3d c7 06 9b bd b8 f5 c3 bb
       0.04902937 0.11136601 -0.07569652 -0.0059802197
0001c0 95 63 70 bc 49 4f fe 3d 50 62 97 3d 5e e7 f1 3d
       -0.01467218 0.12417466 0.073917985 0.11811708
0001d0 c6 0d 8b bd 21 34 09 bd 66 04 8a bd cd 5a 6c bd
       -0.067897364 -0.03349698 -0.0673912 -0.057703782
0001e0 1d a2 5a bc b1 a1 cb bd 2f 7b b6 3d f2 d5 a1 3d
       -0.013344315 -0.099429496 0.08910214 0.07902135
0001f0 15 5e ba bd 21 45 cc bd 5b 5a 6c bd d4 2c 93 bb
       -0.09099976 -0.09974123 -0.057703357 -0.004491428
000200 da 45 a0 bc ca 70 01 3e 5a f6 21 bd 1b d5 21 bd
       -0.019564558 0.12640682 -0.03954158 -0.039509874
000210 c1 34 08 3d 2a 57 6e bc 56 72 96 bc 43 db c9 3b
       0.033253435 -0.014547149 -0.018365066 0.0061601712
000220 ed ef ce bd 1c 06 19 bc c2 e9 19 bc 1a 4f 60 3c
       -0.10104356 -0.0093398355 -0.009394111 0.013690734
000230 7d 87 a3 3a 39 0f ec bd e8 f4 50 3d cd 6c b8 3d
       0.0012476292 -0.11526341 0.05101481 0.09005127
000240 26 e7 ac bc af b4 f6 3d 62 c0 44 bd 26 fa f1 bd
       -0.021106314 0.120461814 -0.048035033 -0.1181529
000250 ac 55 7d 3d 56 25 09 3d 39 84 b0 3d a2 f8 7a 3d
       0.06184928 0.033482872 0.086189695 0.06127227
000260 1d b0 2e 3d 78 97 6b bd b6 ea da bd fc 0c 72 3d
       0.042648423 -0.0575175 -0.10689299 0.059094414
000270 d2 5b 84 3b 9a 05 c9 3d 6e 0d ab bd 34 4a 78 bc
       0.004039266 0.098155215 -0.08352171 -0.01515441
000280 11 2b b1 3d 70 cc a8 3c 68 e9 8f bd 3d 0e 6c bd
       0.086507924 0.020605296 -0.070269406 -0.057630766
000290 ca 9d e6 bd e6 a3 07 3c f5 11 b7 bd ef 31 d3 bd
       -0.112605646 0.0082788225 -0.08938972 -0.103122585
0002a0 18 cc 1e bd db 8b 0f 3d 99 06 6f bd b7 76 47 bd
       -0.038768858 0.035045486 -0.0583559 -0.0486972
0002b0 78 44 9a 3d d4 e3 d9 bd e8 e9 be 3d d7 3f e8 3d
       0.07532591 -0.10639158 0.09321958 0.113403015
0002c0 1b 53 31 3c 79 56 a1 bd 89 ca 23 bd c9 07 91 3c
       0.010823037 -0.078778215 -0.039988074 0.017703908
0002d0 28 8a b6 bc 09 a6 b1 bd 4a 21 b1 bd fb 8c 35 3d
       -0.022282675 -0.08674247 -0.086489275 0.044323903
0002e0 f6 7d c3 3c a8 10 c8 3d b0 b8 62 3d 53 25 d1 3d
       0.023863774 0.09768802 0.055351913 0.10212197
0002f0 a1 0d 86 bd 1c c8 89 3d f6 d8 49 bd 7c d0 e6 bd
       -0.06545568 0.06727621 -0.049279176 -0.11270234
000300 62 ab 1a 3d 83 26 c4 bd bd 83 24 bd 90 e2 a8 3d
       0.0377611 -0.09577658 -0.040164698 0.08246338
000310 14 70 d8 3d fb 67 9d 3d f8 60 00 bc cf 7e 7e 3d
       0.10568252 0.07685848 -0.007835619 0.062132653
000320 fb 24 2d bd 26 de ce 3d 03 18 1d 3e b9 e1 ff 3d
       -0.042271595 0.10100965 0.15341191 0.12494225
000330 a6 d0 c4 3d 8e b4 7a 3c e9 8d fb 3d c3 d9 a2 bc
       0.09610109 0.015301837 0.122829266 -0.019879228
000340 00 67 02 3e e1 ec 53 3d 4c 61 f0 3d 82 5b a3 bd
       0.12734604 0.051739577 0.11737308 -0.07976438
000350 4c 05 8a 3d 2a 06 df 3c 52 53 eb 3d b0 a7 61 bd
       0.067392915 0.027224619 0.114905015 -0.05509156
000360 70 6a 03 3e 40 9f 17 bd 5d 6d 6a 3a c1 62 a9 3d
       0.12833571 -0.037017107 0.0008942688 0.08270789
000370 1e 80 01 3e 24 7c cc bc 58 de 0f bd a8 53 16 3e
       0.12646529 -0.024961539 -0.035124153 0.1468035
000380 6b 97 fe 3c 57 20 ca 3d 77 f9 78 bd 65 12 c9 3d
       0.031078061 0.098694496 -0.060784783 0.098179616
000390 aa f2 53 3d 1d de bc bc 01 4d b6 bd b2 c1 90 3d
       0.051745094 -0.02305513 -0.08901406 0.070681944
0003a0 1f 35 ce 3d 96 cb df 3d 1f 13 81 3d 5e 69 4a bd
       0.10068726 0.10927503 0.06302475 -0.049416892
0003b0 1f 95 11 3d eb ff 57 3d e4 e7 b9 bc e8 60 b3 ba
       0.035542604 0.052734297 -0.022693582 -0.0013685497
0003c0 8f 9d 94 bd af fd 9a bd a2 0f 3c 3d 0f a2 3d bc
       -0.072566144 -0.075679176 0.045913346 -0.011574282
0003d0 ad ab 9b 3d 1b ae 41 3d 49 15 9b 3d 40 a1 0d 3e
       0.07601104 0.04728518 0.07572419 0.13831043
0003e0 4e 34 e2 3d da 9d 9d 3d b0 59 8d 3c db ca e5 3c
       0.110451326 0.076961234 0.01725468 0.02805083
0003f0 29 39 e7 3a c3 6e f0 bc 6d f1 6d bd 59 6b a3 3c
       0.0017640936 -0.02934969 -0.05809157 0.019948648

lstm.bias_hh_l0 f4 [256]
000000 0a 57 cb 3d e5 ff 25 3c 61 f4 cb bd a9 d3 f2 3c
       0.09928711 0.010131811 -0.09958721 0.029641943
000010 49 98 67 3d cc b2 45 bc 29 7d 43 bd d3 e4 7b bd
       0.056541715 -0.012066554 -0.047726784 -0.06149752
000020 6a 43 a1 3d 91 67 14 3c 69 20 10 3e 1c dd e2 3d
       0.07874186 0.009057895 0.14074863 0.110773295
000030 1b c0 e4 bd f3 b8 38 bd ec 32 28 bd 3b ae ba bc
       -0.11169454 -0.045098256 -0.041064188 -0.022788158
000040 fb 5e 01 3d 95 a9 de bc c8 60 b8 ba 58 58 db bc
       0.03158472 -0.027180472 -0.0014066929 -0.026775524
000050 81 f5 f9 3d b6 8c aa 3d 62 e3 ba 3c 98 11 1d bd
       0.12205029 0.0832762 0.022813503 -0.038346857
000060 5d 5f eb 3c 35 ed d2 bd 21 c3 6b bd 14 19 bd 3d
       0.028731996 -0.1029915 -0.057559136 0.09233299
000070 a8 70 6c 3c 30 27 a8 bd 8f ac eb 3d 5b b4 03 3d
       0.014431156 -0.082105994 0.11507522 0.032154422
000080 bd 3f 2e bd 23 29 f6 3d 75 8f d4 3d 75 0e d6 3c
       -0.042541254 0.12019565 0.10378925 0.02612994
000090 e1 87 01 3e ea e9 7f bd c9 1e 49 bd f6 ca a5 3d
       0.1264949 -0.062478937 -0.049101625 0.08095352
0000a0 43 ab 9f 3c 3d 89 9b 3d 99 28 88 3d 2c d7 f2 3c
       0.019490844 0.075945355 0.066483684 0.029643618
0000b0 ed 8d 22 3d cd 79 80 3d 1a 8c 2a bd 89 96 07 3d
       0.039686132 0.06273232 -0.041637518 0.033102546
0000c0 6a 95 e3 3c a1 fb b8 bd f2 c2 5b 3d 03 77 74 bd
       0.027781207 -0.090323694 0.05365271 -0.05968381
0000d0 a0 cd ad 3d 6d 4b da 3d f6 c3 27 3d 95 8b 40 bd
       0.084864855 0.106589176 0.040958367 -0.047008116
0000e0 66 04 7a 3d b0 e9 4b 3d 8b 76 f5 3d e1 7c bc 3d
       0.06103935 0.04978341 0.11985501 0.09203506
0000f0 73 8a 45 bc 30 cd 03 3d e7 70 f0 3d 08 29 fd 3d
       -0.012056935 0.032178104 0.117402844 0.12361342
000100 91 8f 13 3e 8c fc 99 bd a0 7c 89 3d d4 a2 89 3d
       0.14410235 -0.075188726 0.067132235 0.0672051
000110 8a 37 73 bc 0a 7a c7 bc 95 a0 14 bd 5e 6e fc 3d
       -0.0148447845 -0.024350185 -0.036285955 0.12325738
000120 3f ca bf bd b5 c3 a2 3d ea 61 67 bd e2 bd e4 bb
       -0.09364747 0.079474844 -0.056489863 -0.0069806436
000130 57 0d f0 3d 74 a8 fa 3d 99 76 39 bc 9f 19 33 bd
       0.117212944 0.12239161 -0.01131978 -0.043725606
000140 b5 1d 0d bd b2 9d 0d 3c 52 08 2c 3d 70 39 af bd
       -0.03445216 0.0086435545 0.042000122 -0.08555877
000150 1c 03 0a 3d d8 16 65 bd 9d b9 c0 bd b4 65 0e 3e
       0.03369437 -0.05592999 -0.09410403 0.13905984
000160 be b4 04 3c 48 7f 11 bd f6 a4 2b 3d bb 0c 72 bc
       0.008099733 -0.035521775 0.041905366 -0.014773543
000170 31 e3 6a bc 16 4c 62 3d eb 42 af bd 2a 14 f2 3d
       -0.014336393 0.055248342 -0.085576855 0.11820252
000180 72 a2 aa bc 56 b2 c3 ba 0a 94 ad 3d 9e 82 b9 3c
       -0.020829413 -0.0014930468 0.08475502 0.022645291
000190 2e 70 c6 3d 21 fc 04 3e f1 7a 7f bd 9d 29 ed 3d
       0.09689365 0.12986805 -0.062373105 0.11580203
0001a0 a1 51 93 bd d6 92 7c bd a7 39 a1 3d 5e 88 85 bd
       -0.07193304 -0.06166347 0.078723244 -0.065201506
0001b0 f1 b8 a2 bd 5e fc ff 3d af 54 90 bd 70 d9 ec 3c
       -0.07945431 0.12499307 -0.07047402 0.028912276
0001c0 09 da 7e 3d fe d2 0a 3e 0f 21 fd 3c 86 53 ca 3d
       0.062219653 0.1355705 0.030899553 0.09879212
0001d0 58 f3 96 3d 4d 7c 8c 3d 3f 23 75 bd c3 0c d2 3d
       0.07370633 0.06859646 -0.059848066 0.1025634
0001e0 ce 88 ac 3d ec 36 61 bd 4d 23 9e bd 54 36 91 bd
       0.08424531 -0.05498402 -0.07721577 -0.070904404
0001f0 2a 10 3d bd b9 75 96 3d 33 74 0b 3e 80 07 83 bc
       -0.046157993 0.073466726 0.13618545 -0.015994787
000200 69 fb 15 39 32 6f cf bd ca 47 ec bc 0b 2f 31 bd
       0.00014303405 -0.10128631 -0.028842825 -0.043257754
000210 1c 94 16 bc 3e 39 b1 ba 60 d5 23 bd 79 b5 02 bd
       -0.009190585 -0.0013521088 -0.039998412 -0.031911347
000220 81 1d 34 3d f7 ea d2 bd 4d 54 66 3b 38 bd 25 bd
       0.04397345 -0.10298722 0.0035145462 -0.040463656
000230 8e d6 8a 3d 9c 52 8e 3d b8 8c 80 3d 61 67 c9 bd
       0.06779204 0.0694935 0.0627684 -0.09834171
000240 b7 87 84 bd 8b ec 32 bd 23 df fe 3c d0 46 9b bd
       -0.06471198 -0.043682616 0.03111226 -0.07581866
000250 71 ee c0 3c 8f 9f e9 3d c8 5e 0a 3e 34 e7 b3 3d
       0.023551198 0.114073865 0.13512719 0.08784333
000260 ad 67 51 3d 41 b4 96 3b 9a c6 02 3d 7e 8d 6c bd
       0.051124264 0.0045991247 0.031927682 -0.057752125
000270 cb 4e 91 3d 3a 25 7f 3b 7a 86 01 bc de b5 b3 3d
       0.07095107 0.00389321 -0.007905597 0.08774923
000280 ac d0 74 bd c9 e4 a0 3d e1 fe eb bd 19 63 02 be
       -0.059769318 0.07856137 -0.11523224 -0.12733115
000290 80 81 b7 bd ba d1 c2 3d 22 3b 6c 3d 65 fe eb 3d
       -0.08960247 0.095126584 0.05767358 0.11523131
0002a0 f6 ad 8d bd a2 b6 83 3d fe 7e 13 bd 63 c4 ab bd
       -0.06917946 0.06431319 -0.03600978 -0.08387067
0002b0 ae a9 ef bd c1 75 e9 bc ac cf 74 3d fc 41 7a bb
       -0.11702286 -0.028498532 0.059768364 -0.0038186302
0002c0 8f d5 c1 3c 78 66 8c bd 28 c8 d2 bc 62 5d 24 3d
       0.023661403 -0.06855482 -0.025730208 0.04012812
0002d0 cd 20 4d 3d 57 6b 9c 3d d5 b2 00 3e d0 a3 9f bc
       0.05008011 0.07637661 0.12568219 -0.019487292
0002e0 31 a7 bb 3d a0 38 87 3d 01 10 41 bc fc ac d8 bd
       0.091627486 0.06602597 -0.011783601 -0.10579869
0002f0 07 10 80 bd f4 46 ec 3d 3c 6b d7 bd b4 be b9 bc
       -0.06253057 0.11536971 -0.105185 -0.022673942
000300 26 e4 26 bd cb d6 7b bd 33 c3 86 3c b6 06 e0 3d
       -0.040744923 -0.06148414 0.0164505 0.1093878
000310 76 14 d6 3c ac bf 10 3d 48 2b a4 bd 93 b4 9a bd
       0.026132803 0.035339043 -0.08016068 -0.07553973
000320 92 67 13 bc 21 64 f1 3c c0 c3 c5 3d a3 26 57 bc
       -0.008996861 0.02946669 0.09656477 -0.01313177
000330 a3 7a 04 3e d5 67 bf 3d 5d 36 01 3e 63 a4 0a 3d
       0.12937407 0.09345976 0.12618394 0.033848178
000340 31 27 3b bc eb ba b4 3d b2 ac 4b 3d 7b c8 85 bc
       -0.011422918 0.08824714 0.049725242 -0.016330948
000350 ef ce 01 3e 13 47 6c 3d 84 7b 46 bd dc fb 40 3d
       0.12676595 0.05768497 -0.048457637 0.04711519
000360 3d 0a 0f 3e 99 f7 7c bc 0d a1 81 3d 66 87 ed 3c
       0.1396875 -0.015439891 0.06329546 0.028995227
000370 af 49 92 3d 32 fd ef 3d 4c d8 0b bd db 80 ff 3d
       0.0714296 0.11718215 -0.034141824 0.12475749
000380 32 34 22 3d 77 36 08 3e f9 bf 33 3d 39 f8 d5 bd
       0.03960056 0.13302027 0.04388425 -0.10447735
000390 96 4b 80 3d f1 cb c3 bd 7b 98 90 bd 76 bb 15 bd
       0.06264417 -0.09560383 -0.07060333 -0.03655573
0003a0 5f 3c d0 bc 43 16 a4 3a d7 e3 2e 3d f5 4e 15 bd
       -0.025419412 0.0012518842 0.042697754 -0.036452252
0003b0 b7 a7 c0 bd c9 af b6 3d 6d ee 12 bc df 18 28 3d
       -0.09406989 0.08920247 -0.008967978 0.041039344
0003c0 01 01 95 3d 56 fa ed 3d f0 a4 b5 bc 99 a2 c5 3d
       0.07275582 0.116200134 -0.022173375 0.09650154
0003d0 06 b6 1e 3c fd fc e6 3d c7 31 23 bc dc 0d ba 3d
       0.009686952 0.112787224 -0.009960598 0.09084675
0003e0 a0 50 20 3d 99 f8 20 bd 26 4a 4c bd 03 ba 9f bc
       0.03913939 -0.03929958 -0.0498754 -0.019497877
0003f0 c1 48 07 bd fe e3 ad bd b9 4c ec 3c 30 a6 66 3d
       -0.033028368 -0.08490752 0.028845178 0.056310833
