weights/best_temperature_encoder.pth (torch, 6795 bytes, 10 tensors)

lstm.weight_ih_l0 f4 [32, 3]
00000000: ca48 fb3e d095 553f 1e1c 5bbe 4c55 be3e
00000010: 20b5 08be 2ba8 efbd a815 e73e 263a 8a3d
00000020: 25b3 213f 32b9 df3d 7ea0 303f 7c70 5e3e
00000030: f1a0 293e 91ab 0a3f f8bc cd3e bd33 923e
00000040: 84ac 283f 6380 303f e177 e03e be57 2d3d
00000050: 6888 68be 2cd7 f13e 8226 c8bd dbeb cf3d
00000060: 81c6 053f 0c5f 503f 5ae7 023f b488 ac3e
00000070: fed1 ea3e 6fab 453c 0a67 403f 4316 fc3c
00000080: 1ca3 e53e 2529 bd3e 070b 223f fe90 11be
00000090: 3495 a7bc 5b1d 2a3f ca02 da3e 5eca 0f3f
000000a0: 6908 ea3e 16eb 1b3f 257c c23e f3d5 213f
000000b0: 5fae 5abe 4db8 c43e 747a 9fbd 0f0c 0f3e
000000c0: 1cb0 5a3d e11c 1d3f 9ae6 0b3d 9a60 3bbf
000000d0: 6db8 3dbc 64f8 a5be 1333 52be e187 853e
000000e0: 2c0f 8d3e e228 3cbe d7cd 513d 4b35 92be
000000f0: 8068 713e a7d1 f23e eccf 9dbe 9c1f 09be
00000100: 4c1c a6bc 8069 f0be c55e 70bd 876f 93be
00000110: bc70 003e 9739 15bd 9f2c 12bf 7856 983e
00000120: 2497 a13e 34b3 613f f7a3 0dbe 4e0f 4e3e
00000130: e123 9fbd c2ea 6e3e 2aaa 1d3f 4d15 89be
00000140: 7690 263f 55bc 293f df28 be3e 1b1c 8f3c
00000150: 872e 503e aa07 413f 674a f6bd 27cd 123f
00000160: 962c 2f3f 906f d73e 1b21 7d3e 0f02 403e
00000170: 6910 52be 9310 c53e d974 d53e 606b 843d
0.4907897 0.8343172 -0.21397445 0.3717445 -0.13350344 -0.11701997 0.4513371 0.06749372
0.6316398 0.10923995 0.6899489 0.21722597 0.165653 0.5416804 0.40183234 0.28555098
0.6588824 0.689459 0.4384146 0.042320006 -0.22708285 0.47234476 -0.0977297 0.10152408
0.5225602 0.8139503 0.51134264 0.33698046 0.45863336 0.012064799 0.75157225 0.030772334
0.44851005 0.36945453 0.63298076 -0.14215466 -0.020456888 0.6645104 0.42580253 0.5616816
0.4570954 0.6090559 0.3798534 0.63217086 -0.2135558 0.3842186 -0.07787028 0.13969444
0.053390607 0.6137219 0.034155466 -0.7319428 -0.011579615 -0.3241607 -0.20527296 0.2608023
0.27550638 -0.1837497 0.051221695 -0.28556284 0.2357502 0.47425577 -0.30822694 -0.13390964
-0.020277165 -0.4695549 -0.05868413 -0.28796026 0.12543005 -0.036431875 -0.57099336 0.2975347
0.31560624 0.8816407 -0.13832079 0.20123026 -0.07770515 0.2333174 0.61587775 -0.26774064
0.6506418 0.66302997 0.37140557 0.017469456 0.20330249 0.7540232 -0.1202591 0.5734429
0.6842741 0.42077303 0.2471966 0.18750785 -0.20514072 0.38489208 0.4169071 0.06465793

lstm.weight_hh_l0 f4 [32, 8]
00000000: d672 b3bb 51c0 26bf 0646 6fbe 8fca a1bd
00000010: 302a ba3e 5630 9ebe 05a2 1cbf c257 a53e
00000020: 0296 723f 9414 8dbe ec92 b03f d12a 8a3f
00000030: 2bfc 753f b083 ab3d 5604 8abf 4e75 e03e
00000040: 3818 ae3d bcd4 5bbf 513e 893d 43ac 01be
00000050: f606 263f 8a4c 13bf 12ab 1cbf ea44 3a3f
00000060: 0270 ce3e fec9 3dbf 5b6d 3c3e b73d 993d
00000070: 34d8 aa3e 1149 46bf b84e 0dbf e653 bc3e
00000080: dd6e ac3d cc43 35be b7fc 85bd 0bd4 49bf
00000090: e8b8 92bd 6207 21bf 47af 7dbe e089 523e
000000a0: a9e2 f13e ecf7 23bf d439 1fbe 4c60 0d3f
000000b0: aa54 243e ff88 02bf e325 25bf f929 003f
000000c0: a3ba 4c3e 5585 b1be 7d3d 5f3d bdff 2ebe
000000d0: 5906 9d3d c2ba 8dbd 458b e6be f521 d1be
000000e0: 06f1 d13e b464 07bf fc22 453f 6c06 d73e
000000f0: 93d7 023f 3a33 34bf e223 21bf 3eba afbd
00000100: 3318 3b3f 50a7 a1bd a726 c6be 303b c9be
00000110: 4927 853e 556b 9bbe 5f6b 17bf 6069 52be
00000120: 218d 303f 5841 18be c2da 1f3e 3bc1 963f
00000130: 8612 cc3e 387c 6c3e 26bb 32bf afbd e6bd
00000140: e849 ab3e 16ce d8be d02b aa3e a621 1abf
00000150: 4b46 a73e 3af9 01bf 7367 3bbd 507e 5a3f
00000160: 7fdc 2e3e e4e6 dabe b578 843d c8f0 b8bd
00000170: 6630 1c3e df8b 0dbf 2033 b5be 4b1a 81bd
00000180: 9a5f 9ebd fe29 b3be 79f4 8bbe acd1 92be
00000190: ce90 ce3e 9a5d 6cbe 5197 dfbe 5d0c 213e
000001a0: 47af 753e 6f94 afbe 0551 06be 8853 cabd
000001b0: c333 2f3e 0316 68bf 0cda 26bf f752 f53e
000001c0: c7ef 023f 1034 43be 42a6 ed3d dc95 bd3e
000001d0: 85b7 983e d65e fc3e 614e eebe b372 99be
000001e0: 6623 e33d 2367 87bd ab54 4d3e cd9a db3e
000001f0: 14a8 ae3e 2a4d b3be 5c3b 1ebf be3a 823e
00000200: f147 253f 5bc7 173d a131 543f 32a8 513e
00000210: a4ed 973e c147 d63d 8a7a fa3d 37a3 c3be
00000220: 2102 be3e 4cae 543f 9ef7 473f d9e8 be3d
00000230: 4f9f 6a3e fc1c dabe 7816 39be 4314 023e
00000240: 16a0 9c3e f703 963e 1b44 2f3f 7862 1dbe
00000250: 504b 6f3e 6711 2b3e 6d03 ccbd 2911 8bbe
00000260: 76b9 533e 4e95 c4bd ad73 52be fab6 173f
00000270: d623 2cbc 80fc 103f 27b2 a8be 3c3f 193e
00000280: 5118 8e3e de9e 52be 1015 bc3e ada7 2bbd
00000290: 0454 60be e268 4a3e f550 a83d 91cc 9cbd
000002a0: 4a25 2d3e f881 32bb 9a0f d4be fff2 6dbc
000002b0: 8257 643c 40b6 e83e c136 9cbd 43d1 e4bd
000002c0: eb72 2ebd 4254 a9be 4919 9e3d d664 17be
000002d0: fc32 b5be e20a 8cbd 40fb 02be ae25 3b3e
000002e0: b1af 08bf 3154 66bd 3ba9 0dbe d315 7a3b
000002f0: 1190 c8bd 0aff a7be 4c13 033f bba4 353d
00000300: ce01 fa3c 06f2 9ebe 723a 3b3e 0524 133c
00000310: 912a 0c3f c298 89be a2ec 11bf 5d7e 123e
00000320: e8d0 543f a00a 5cbe 9644 293f 297e 673f
00000330: 0591 283f e621 38bf e837 8dbf 03c3 173f
00000340: 14df 88be 51da 83be f762 13be 3271 263d
00000350: eb34 b33e 55af c8be 621a bbbe eba4 9c3f
00000360: eb95 a03e ed00 37bf ef7a 983e bc3c 35bd
00000370: 545e 7e3e 2ad4 38be 866a 43be ba9d 773e
00000380: 2099 993e d340 cd3c 83d3 0bbd 8f3b 74bd
00000390: 53b9 a93e 1b42 9cbe b886 0bbf f1e0 94be
000003a0: 10e5 f8bc 1b27 67be cb48 cf3e a444 d13c
000003b0: b2d9 a33e 689b 05bf 5d32 d2be b72b 983e
000003c0: cec1 323f 31ca a4bd aa88 153f 8d93 983e
000003d0: a884 0f3f 63bf cb3d 3596 0fbf aa49 da3d
000003e0: 1371 333f 2dda c4be 1e58 a33e a38f 95be
000003f0: f517 5b3f ccee 2ebf e323 1dbf 7000 13be
-0.005476336 -0.651372 -0.23366556 -0.07899963 0.36360312 -0.30896252 -0.6118472 0.32293516
0.94760144 -0.27554762 1.3794837 1.0794317 0.960879 0.08374727 -1.0782573 0.43839496
0.08500713 -0.8587148 0.06701339 -0.12663369 0.6485437 -0.57538664 -0.6119853 0.72761405
0.4031983 -0.7413634 0.18401091 0.07482474 0.33368075 -0.7745524 -0.5519824 0.3678276
0.08419583 -0.17701644 -0.06542342 -0.78839177 -0.07164174 -0.6290189 -0.24773894 0.20560408
0.4724324 -0.64050174 -0.15549403 0.5522506 0.16047922 -0.5099029 -0.64510936 0.50064045
0.19993071 -0.34672037 0.054502 -0.17089744 0.07667226 -0.06920387 -0.4502813 -0.4084622
0.410042 -0.52888036 0.77006507 0.41997087 0.5111019 -0.70390666 -0.6294538 -0.08580445
0.730838 -0.078932405 -0.38701364 -0.3930297 0.26006535 -0.30355325 -0.5914821 -0.2054801
0.68965346 -0.14868677 0.15610793 1.1777719 0.39857882 0.2309426 -0.69816816 -0.11266648
0.33454823 -0.4234473 0.3323655 -0.60207593 0.32670817 -0.50770915 -0.045752954 0.8534899
0.170763 -0.4275428 0.064683355 -0.090303004 0.15252838 -0.5529155 -0.35390568 -0.06303843
-0.07733078 -0.34992975 -0.27334955 -0.28675592 0.40344852 -0.23082581 -0.43670133 0.15727372
0.23992644 -0.34292933 -0.13116844 -0.098792136 0.1710959 -0.9065859 -0.65176463 0.4791486
0.5114712 -0.19062829 0.11603977 0.37028396 0.29827514 0.49291104 -0.46544173 -0.2997032
0.11090736 -0.06611469 0.2005183 0.4289154 0.34112608 -0.3501981 -0.61809325 0.25435442
0.645629 0.037055355 0.8288823 0.20474318 0.29673493 0.10462905 0.12230404 -0.3821046
0.37111 0.83078456 0.7811221 0.09321756 0.22912334 -0.42600238 -0.18074977 0.12703042
0.30590886 0.292999 0.68463296 -0.15369594 0.23368573 0.16705857 -0.09961591 -0.2716153
0.20676216 -0.0959879 -0.2055194 0.59263575 -0.010506591 0.56635284 -0.3294842 0.14965528
0.27752927 -0.20568416 0.3673482 -0.041907955 -0.2190705 0.19766572 0.08218566 -0.076562054
0.16908756 -0.0027238112 -0.41418153 -0.014523267 0.013936879 0.45451546 -0.07627631 -0.11172726
-0.042590063 -0.33072096 0.077196665 -0.1478456 -0.3539046 -0.06838013 -0.12791157 0.18276092
-0.53393084 -0.056232635 -0.13834088 0.003815998 -0.097931035 -0.32811767 0.5120132 0.044346552
0.030518439 -0.31044024 0.18284014 0.008980756 0.5475245 -0.26874357 -0.570017 0.14306016
0.83131266 -0.21488428 0.6612028 0.9042688 0.6584628 -0.71926725 -1.1032686 0.5928194
-0.26732695 -0.257525 -0.14393221 0.040635295 0.3500131 -0.39196268 -0.36543566 1.2237829
0.31364378 -0.7148579 0.2978129 -0.044247374 0.24840671 -0.18049684 -0.19083604 0.24181262
0.29999638 0.025055325 -0.03413726 -0.059627112 0.33149204 -0.30519184 -0.5450244 -0.29077867
-0.030382663 -0.22573511 0.40485224 0.025545426 0.32002026 -0.52190256 -0.4105405 0.29720852
0.6982697 -0.080463775 0.5841166 0.29800072 0.5606179 0.099486135 -0.5608857 0.106585816
0.7009441 -0.38447705 0.31903166 -0.2921115 0.8558343 -0.68333125 -0.61382884 -0.14355636

lstm.bias_ih_l0 f4 [32]
00000000: a79d aa3e 9d40 bd3e 43d1 4b3f 85c7 b53e
00000010: 3064 fabd d002 ea3e 6efb f43e 1a7f 803e
00000020: 6347 78bd 38ba 1f3f cdba 073f 41b4 c23e
00000030: ec28 70bb 8136 9b3e c5f2 dabd 9b71 223f
00000040: 85ea b8bb a30b f73c db7c 283e 8263 1f3e
00000050: 355e 013e 4784 813e 5819 aebb 8193 a73e
00000060: 447f ac3e 8562 fc3e e60e 813e c24a 1cbe
00000070: 6809 353e 700b 7d3e b154 713c 25a9 a43e
0.33323404 0.3696336 0.79616183 0.35503784 -0.122261405 0.4570527 0.47848076 0.2509697
-0.060614955 0.6239352 0.5301941 0.38028148 -0.0036645485 0.3031502 -0.10690836 0.634546
-0.0056431913 0.030156916 0.16453879 0.15565303 0.12633593 0.25296232 -0.00531308 0.32729724
0.33690846 0.49293914 0.2520668 -0.15262893 0.1767937 0.24711394 0.014729665 0.32160297

lstm.bias_hh_l0 f4 [32]
00000000: 8d4f 723e 31e1 4c3e 11ef d93e c7b9 b13d
00000010: 3626 853e c49a f03e fdb3 053b 2072 093f
00000020: a2c8 2d3e adfc 063f 26a1 d93e a73c 50be
00000030: 153c 353d 7082 c03e 8738 59be 5494 033e
00000040: 9c37 4dbc ca2c bebc fe9d b7be 4af4 3f3e
00000050: aa29 7bbd 9d17 8ebd 48c8 65be 5fd4 943e
00000060: 9406 2fbd a122 f33d 3063 193f 2ae7 cf3e
00000070: d288 e73e 0907 9e3e 8b01 4f3e eb2b a03e
0.23663159 0.20007779 0.42565206 0.08678012 0.26005715 0.46993077 0.002040147 0.53689766
0.16971067 0.527293 0.4250576 -0.20335637 0.04424675 0.37599516 -0.2121297 0.12849551
-0.012525465 -0.023214716 -0.35862726 0.18745533 -0.06131903 -0.069380976 -0.22439682 0.29068276
-0.042730883 0.11871839 0.59916973 0.40606052 0.45221573 0.30864742 0.20215432 0.31283507

lstm.weight_ih_l1 f4 [32, 8]
00000000: 22eb a5bd a8a0 543d 8ab3 91be 8765 233f
00000010: f046 483e 04f1 aebd fc4e c0be 7ac9 993e
00000020: 98dd 213f 2b37 d0be 16b0 553e f03d 353e
00000030: 57ac 7e3e 69e4 14bf 16be 07bf fb45 0a3e
00000040: 64da c33e 4b91 4bbd 704e 0e3f 4472 0f3e
00000050: 48ce 783e 3784 ccbe 7067 78bd 842f 40be
00000060: 5638 4ebe a5a7 96bf 253a 18be 02f6 e7be
00000070: f8be b53e 3182 dfbf b8d0 fb3d 6530 933e
00000080: 5b16 943e 15e4 3fbe 374c 23be 6a5e 2a3e
00000090: 9b41 ec3e 234e e2be 05e2 03bf 4011 e3bd
000000a0: b93b a1bd 2c5a 3bbe 68e7 6bbe 7734 46be
000000b0: e689 f53e 3fee 073c 957f 3c3e 740e 9a3d
000000c0: 9c19 a23e c21f 943d 8e06 433e 6586 543e
000000d0: e9e3 193f 8f16 2fbf 0900 a33c 8b10 af3e
000000e0: e2b3 e43e 46ab f2be 7563 6a3f cb4e a0be
000000f0: 55b2 b93e 5d24 01bf 78e5 53be 8de7 40be
00000100: 3b32 00be 706c b3be 3d10 613e b495 f73e
00000110: a188 0c3f 020b 47bc f718 2cbf a3ef ce3e
00000120: 7b0a b03e d7fc 4dbf 96e7 c23e 4874 21bf
00000130: 2b52 babd a7c5 563d bd91 ab3e ae48 2f3e
00000140: 399f 473e ad62 9a3e 171e ef3e 8eb6 263f
00000150: 636b 2b3e 674b 0b3e bf82 12bd e572 943e
00000160: 9d4e e13b 2bf8 50bf 40fd 133e dce0 76be
00000170: 8e9b 893e 8af1 e2bf 5b7e ba3c d8ee b43e
00000180: f4f5 513e c979 63bd 3097 65be 702d ad3e
00000190: e215 ec3e 563e 24bd df88 f4be 3636 22bf
000001a0: eb91 8fbe 7677 9abe a864 ddbe 1ec0 6bbf
000001b0: 0576 193e 08e1 233e 8c89 113e 52fa 043f
000001c0: a189 2fbe a3d7 d0bd ea3c c3bd 9cde a6be
000001d0: 398a 9c3e 3900 1cbf 3baa 3fbe b371 b33d
000001e0: 191c cd3e 88f1 3ebe 0f05 f83e 4f97 a73e
000001f0: 0e6b 4f3e 26c2 bc3d 3cb9 a7be b737 99be
00000200: 94a2 bfbc b01a aabe 6111 853e 7e19 a43e
00000210: c296 ef3e a0b5 a8be 0646 933e 01ce 5c3e
00000220: 9e34 863d 43fd 863e 1d31 dd3e 554f a4be
00000230: b2ab 46ba 0a7c 0bbe 4408 e63d d3a4 a73e
00000240: 6e2a bf3d 5b4a 2ebe 5f53 76be 3b8e f93e
00000250: 7bfb 29be a129 083e ccd8 5abe 0a7f 4d3f
00000260: 2d4b 9abe 33f5 32be 6278 c23e 934e 81bf
00000270: 767e 09bf c6d4 75be 8982 e03e c236 db3e
00000280: b3a4 9d3e 0777 02bd 648f d9be f69e b2be
00000290: b6d7 7b3e 4c81 803e e291 c1be a591 0fbe
000002a0: 9cda 0ebe 422e 32be 2257 b1bd 2302 f8be
000002b0: 94d5 25be 1ae2 b6be 7a16 633e 5b4a 64bd
000002c0: 50e5 ae3e f8e3 afbe f65b 96be 0dc6 b73e
000002d0: 5f3d 69bd 46a5 6d3d ad71 063e 8bf4 9abe
000002e0: a73a 5b3e 4036 c43e 8a70 90be 8d2c f03d
000002f0: dbe5 6b3e 17a7 ec3d d244 ffbe 1d3d cdbe
00000300: 194a 49be 74b9 95bd 47e9 943e b2ff 07bd
00000310: a98e 19be 7fe2 cebe 41f5 a83c aa94 853e
00000320: dca6 413f 93a5 aabe 28f8 323e 91cc 0ebe
00000330: 58ca 30bd a8bb 753e a3d5 57bc 237f 203e
00000340: 8b37 0a3e 24a8 773d 11c9 873e 65c6 6a3e
00000350: 9386 bb3c f072 83be c00f 6cbd 031c 52bd
00000360: a1a8 253e b356 74bf 2fc5 b93d 4f6f 073e
00000370: 1987 163f 01b7 20bf c69b 46be b465 213f
00000380: 04e9 e93e d99c b9be f624 043f 815c 4e3b
00000390: a3c7 dd3e eb67 36be 6119 99be 79a9 673e
000003a0: ac4c 793e fd1e a0be ae50 3bbf 5869 c0be
000003b0: 6e8e 3abe 20dc 0abe 5615 80be 428b f73d
000003c0: 3c98 393e 8917 53be cbb9 bc3e 9dd4 313f
000003d0: 2d1e c23e 5512 d4be 7dbd 443d fce8 ca3e
000003e0: 7ab3 043f 942d 88bf 0c15 1e3f 820f 0fbf
000003f0: 14cf 093f 3286 54bf fd27 3b3e 46a4 d73d
-0.08101489 0.051911026 -0.2845729 0.63826793 0.1955831 -0.08542064 -0.3756026 0.30036527
0.6322875 -0.4066709 0.20867953 0.17699409 0.2487043 -0.58161026 -0.53024423 0.13503258
0.38252556 -0.04969911 0.55588436 0.14008433 0.2429744 -0.39944622 -0.06064552 -0.18768126
-0.20138678 -1.1769911 -0.1486593 -0.45304877 0.3549726 -1.7461606 0.12295669 0.2874786
0.28923306 -0.1873935 -0.15947042 0.16637579 0.46143803 -0.4420024 -0.51516753 -0.110872746
-0.07872719 -0.18296117 -0.23037493 -0.19355951 0.4795677 0.008296548 0.18408044 0.07522288
0.31660163 0.0723262 0.19045469 0.20754392 0.6011339 -0.68393797 0.019897478 0.3419231
0.4466849 -0.47396296 0.9155801 -0.31310114 0.3626887 -0.5044611 -0.20693004 -0.1883833
-0.12519161 -0.3504367 0.2197885 0.48356402 0.5489598 -0.012148621 -0.67225593 0.40417203
0.34382996 -0.8046393 0.3806731 -0.63068056 -0.090977035 0.05243459 0.33509627 0.17117569
0.19494332 0.3015341 0.46702644 0.65122306 0.16740184 0.13602982 -0.03576922 0.28993908
0.0068758265 -0.81628674 0.14452076 -0.24109215 0.2687649 -1.7729962 0.02276533 0.35338473
0.2050398 -0.055536065 -0.22420955 0.3382373 0.46110445 -0.04009851 -0.47760674 -0.6336397
-0.28041014 -0.30169266 -0.43240857 -0.9209002 0.14986427 0.16003811 0.14212626 0.5194446
-0.17142345 -0.101973794 -0.09533103 -0.32591712 0.30574206 -0.6093784 -0.18717282 0.08761921
0.400605 -0.18646824 0.4844136 0.32732627 0.20255682 0.092167184 -0.3275851 -0.2992532
-0.023392953 -0.33223486 0.25989822 0.320507 0.46794707 -0.3295107 0.2876436 0.21562959
0.06553005 0.26365098 0.43201533 -0.32091776 -0.0007578685 -0.13621536 0.11232045 0.32742938
0.09334265 -0.17020552 -0.24055241 0.48741326 -0.16599838 0.1329713 -0.21371764 0.8027197
-0.3013548 -0.17476349 0.3798247 -1.0102104 -0.5370859 -0.24006948 0.4384959 0.42815214
0.30789718 -0.031851795 -0.4249221 -0.34886903 0.24594006 0.25098646 -0.37806612 -0.14020403
-0.1395058 -0.17400458 -0.086591974 -0.4843913 -0.16194755 -0.35719377 0.22176543 -0.055734973
0.34159327 -0.34353614 -0.29367036 0.35893288 -0.056943294 0.058018945 0.13129301 -0.30264696
0.21409093 0.3832264 -0.2821086 0.117272474 0.23036902 0.11555307 -0.49857193 -0.40085688
-0.19657172 -0.07310763 0.29084226 -0.033202834 -0.14995827 -0.40407178 0.020624759 0.26089984
0.7564523 -0.33329448 0.17477477 -0.13945223 -0.04316172 0.23997366 -0.013173494 0.15673499
0.1349775 0.060463086 0.2652059 0.22927244 0.022891318 -0.25673628 -0.057632208 -0.051296245
0.16177608 -0.9544479 0.09070813 0.13226055 0.5879989 -0.6277924 -0.1939536 0.6304581
0.4568559 -0.36252478 0.516189 0.0031488242 0.43316373 -0.17813079 -0.29902175 0.22623242
0.24345654 -0.31273642 -0.7316998 -0.3758037 -0.18218395 -0.13560534 -0.25016278 0.12087108
0.18124479 -0.20614447 0.368605 0.6946505 0.37913647 -0.41420236 0.048032273 0.39630878
0.5183636 -1.0638909 0.61750865 -0.5588304 0.538316 -0.83017266 0.18276973 0.105293795

lstm.weight_hh_l1 f4 [32, 8]
00000000: 6a39 f2bd 0610 22bf 946a 0c3e 3234 00be
00000010: ea7b 413d 9b49 7f3e 00cb 16bc c93a b13d
00000020: 10e3 f63e d8a7 8abd 49be 833f 353b be3e
00000030: 07b6 093f 6458 3b3f f6c3 0bbf 4ffb 0ebe
00000040: b001 003f 343d 90bd 6e34 cd3d b9ad 3bbe
00000050: f2c1 953d 81f2 8c3c a01b cd3d 3968 47be
00000060: 86c6 123f ddbb ec3e 818f 04be 22b7 ee3e
00000070: 1d7b 61be 29bd c13f 230e aabe 8426 4dbe
00000080: 0d67 c73d 2b3b b33e 6308 de3d afc0 7dbd
00000090: 73f7 d0bb 7d91 e43e 4e20 183c 0d36 a03d
000000a0: ac12 6b3d 1e21 b23e 6199 493d 3b58 053f
000000b0: 6da4 283e c80c 103f eb40 273b 58aa 92bd
000000c0: c959 923e 2f38 e4be fd7e 1c3f dbb0 3e3e
000000d0: 9972 ab3e f1b5 a23e ee90 03bf f8eb b1be
000000e0: dfcf f83d d550 163f 9387 95be 38ad d2be
000000f0: a04b 023f 219d e53e 404f c5be 227a 48be
00000100: 7b89 de3e 6598 9abd 4df3 d23e 3986 09be
00000110: 89d9 103f 49ca 8a3e 6b6d 96bd 328c 76bd
00000120: af2c 19be 956a 743e 426c 5f3e dcea 2cbd
00000130: a8f5 39be 9635 913e fc27 3d3e d7c8 00bd
00000140: 82d1 003e cf6b 21bf 357e 0a3f 7582 c7bd
00000150: ed87 f73e 2248 9c3e fc98 d1bd 4ff8 34bc
00000160: 9a0c e23e 5d30 663e becd e2be b3a8 573d
00000170: 1d34 dc3e 435d 713f 1902 d6be c521 b6be
00000180: ea30 76be fdc1 8f3e 07de 733e 6df7 b1bd
00000190: 4328 893d c750 b63c daac 4ebc d97a 6abe
000001a0: f7cb a8bc f69a 673e edbc d3bd 6f13 e73e
000001b0: 62b1 7d3d cfe2 dc3e 0719 e7be 7e71 97bd
000001c0: aed6 de3e 02f4 963e b826 e53e 839f 913e
000001d0: 2047 8ebd 1cef a63e 02de dabd f632 3fbf
000001e0: 6068 9d3e 6b77 d6bd 34f1 b93e 9869 29be
000001f0: b183 4a3e eab5 89bd 4445 8d3c d5ee 743e
00000200: 092a f23e 835f 9abe 62d2 7fbe ed37 0cbf
00000210: 4101 b23e 37f5 d53d 680a 2a3e 0a7b 183e
00000220: ff8f 403e 5b6a 883e 9024 8c3e bea9 77be
00000230: 58af 16be 8c86 c3be 2818 bb3e 2c53 0ebe
00000240: 6800 1d3e 6c53 c5be 7443 413e 0d46 8e3e
00000250: 982c 0cbe ce3a 17bd 5820 a23e 30ba 373d
00000260: c4d5 4f3e d9e5 e13e 73d4 31be 0142 8b3f
00000270: 29bc 09bf 8a5c 613e ea47 f7bd 82a2 a7bc
00000280: bb1d 70be b2c5 e23e 0c76 a2bd 3e70 9dbe
00000290: 6794 593e efbe 553e 2170 d03e 7f4b bbbe
000002a0: 1f31 213e 5a81 183f 2e8b 99bb 6417 483e
000002b0: 8db5 b8be 4299 963d 6b16 983c 2e42 14bf
000002c0: 9d98 223e 334e debe fa49 cebe 5726 35be
000002d0: 9229 67be b052 c8be 0327 b4bc 2a93 d43e
000002e0: 48bd 303e 06e2 1f3e 1e9f bdbe e530 27be
000002f0: f1c9 353e be91 923e 9188 573e 4af0 24be
00000300: 2310 0ebe 646a f9bd c64e 413e d0a6 ce3d
00000310: 1b3e cb3e b8a8 4e3e fb21 2abf 2da2 8cbe
00000320: 0d28 8fbe 9efd 9c3e f989 7d3e 1382 9c3c
00000330: bf27 68be 5f4c 033f 42e9 6fbe 6531 9abe
00000340: 3324 2a3f dbb7 a6be 3bf1 753e c73d d9be
00000350: fc95 613e 01f3 b5be 852c 0d3e da30 0d3e
00000360: 6b57 793e c5e0 e3bd d2a6 a7bc 7494 293e
00000370: a749 743f c450 d53e df00 acbe 5c8e 29be
00000380: 19c8 f53d 8a59 103e 5dff 47bd 3be6 e6be
00000390: 7e58 813e 1a65 083f 2a7f a4be 9ac4 133e
000003a0: ced3 f23e 862f c23e e6f0 a23e c5e6 123f
000003b0: fc27 933e 83ab aa3e b576 1bbf 5f48 d2be
000003c0: 4c91 153d f3fc 11be 8d2b e43d 8a55 553d
000003d0: 2629 113f 61ff 72be 1cd7 d2be cff5 39be
000003e0: 3f93 00be 69d6 573f e6c5 0abf 15fe 153d
000003f0: 1c1a b93e b42f 143f f7b1 193e 06bc dfbd
-0.11827357 -0.633057 0.13712531 -0.12519911 0.047237314 0.24930422 -0.009203672 0.086537905
0.4822011 -0.06770295 1.0292445 0.37154546 0.53793377 0.7318175 -0.5459589 -0.13963054
0.50002575 -0.070429236 0.10019766 -0.18327989 0.07312383 0.017205479 0.10015035 -0.19473352
0.5733417 0.46237078 -0.12945367 0.46624094 -0.2201962 1.5135852 -0.3321391 -0.20034224
0.09736452 0.3500608 0.108414434 -0.061951336 -0.0063771545 0.4464225 0.009285046 0.07822809
0.057390854 0.3479089 0.04921854 0.52087754 0.16468973 0.562695 0.0025520872 -0.07161397
0.28584126 -0.44574115 0.6113127 0.18622153 0.3348587 0.31779435 -0.5139302 -0.34750342
0.12149023 0.5871709 -0.29204997 -0.4114778 0.50896645 0.44846442 -0.38537025 -0.1957784
0.43464264 -0.07548598 0.4120125 -0.13430108 0.5658193 0.27107456 -0.073450886 -0.060192294
-0.14958452 0.23868783 0.21818641 -0.042216167 -0.18160117 0.28361195 0.18472284 -0.031441536
0.12579921 -0.6305513 0.54098827 -0.097416796 0.4834589 0.30523783 -0.102342576 -0.0110455295
0.4415024 0.22479387 -0.44297594 0.05265112 0.4300851 0.9428293 -0.41798475 -0.3557264
-0.24042097 0.2807769 0.23815165 -0.08689771 0.066971324 0.022255315 -0.012614453 -0.22898425
-0.02060507 0.22617707 -0.10338769 0.45132014 0.061936744 0.4314179 -0.45136282 -0.07394694
0.43523163 0.29483038 0.44756103 0.2844201 -0.0694716 0.326043 -0.10686876 -0.74687135
0.30743694 -0.10471996 0.36316836 -0.16544187 0.19776799 -0.067241505 0.017244942 0.23919232
0.47297695 -0.30150995 -0.24982598 -0.54772836 0.34766582 0.10447162 0.16605532 0.14890686
0.1880493 0.26643643 0.27371645 -0.24185845 -0.14715326 -0.3818859 0.36541867 -0.13898915
0.15332186 -0.38540208 0.18873388 0.2778782 -0.13688886 -0.036921315 0.316653 0.044855297
0.20296389 0.44120672 -0.17366199 1.0879518 -0.53802735 0.22007957 -0.120742634 -0.020463232
-0.23448841 0.44291455 -0.07932672 -0.30749696 0.21248017 0.20873617 0.40710548 -0.36581036
0.15741394 0.59572375 -0.004685781 0.19540173 -0.36076012 0.0735345 0.018565377 -0.5791348
0.1587853 -0.43419036 -0.40290815 -0.17690407 -0.22574452 -0.39125586 -0.021991258 0.41518527
0.17259705 0.15613565 -0.3703546 -0.16327246 0.17752816 0.28626817 0.2104819 -0.16107288
-0.13873343 -0.121784955 0.18877706 0.10090411 0.3969582 0.20181549 -0.664581 -0.2746748
-0.27960244 0.30662245 0.24759664 0.019104993 -0.22671412 0.5128841 -0.23428825 -0.3011581
0.66461486 -0.32562146 0.24017803 -0.42429945 0.22029871 -0.3553696 0.13786514 0.13788167
0.24349754 -0.11126856 -0.020465288 0.16560537 0.95424885 0.41663182 -0.33594415 -0.16558212
0.12001056 0.14096656 -0.048827518 -0.45097527 0.25262827 0.5327927 -0.32128268 0.14430466
0.4742722 0.37926883 0.31824416 0.57383376 0.28741443 0.33333978 -0.6072801 -0.4107084
0.03651552 -0.14256649 0.11141119 0.05208353 0.5670341 -0.23730232 -0.4117974 -0.18160175
-0.1255617 0.8431154 -0.5420822 0.036619265 0.36152732 0.5788529 0.15009294 -0.109245345

lstm.bias_ih_l1 f4 [32]
00000000: c34c ac3e 948b ac3e 41f4 ce3d 6a38 f93d
00000010: b4aa 3f3d 206e 853d 1f46 873e c372 91be
00000020: 35c9 233f a809 8d3d 1c7d 9d3e cd40 013e
00000030: 9257 b0bd 19dd 8bbd 45d8 a93e 396c f33d
00000040: 5b20 723d 202a d1bd 8d27 a33e e0f4 383e
00000050: 83b7 cc3d c777 553e e147 93be 5821 1dbe
00000060: b6ff 293f 55ac 503e ec81 53bd 1735 c03d
00000070: ffd1 e03d 49fe 1c3d bad2 bb3e 5edf 22bc
0.33652315 0.3370024 0.101051815 0.12168963 0.046793655 0.06515145 0.26420686 -0.2840787
0.6397889 0.068866074 0.30759513 0.12622376 -0.08610453 -0.068292804 0.33172813 0.11885876
0.059112888 -0.10213113 0.31866112 0.18062162 0.099959396 0.20846473 -0.28765777 -0.15344751
0.6640581 0.2037824 -0.051637575 0.09385126 0.109775536 0.038328443 0.3668421 -0.00994095

lstm.bias_hh_l1 f4 [32]
00000000: fd20 393f 52db 1b3f dfab 0d3e e959 913e
00000010: 3aba e5bd 71c9 433e 7fe5 693e ec33 1c3e
00000020: 94aa 0e3e 34f3 e53e 059d ecbd 3f38 863e
00000030: e144 e4bc 9b00 26be 388e 3ebd 86a3 83be
00000040: a1f1 96be e38a 07be cec4 02be af01 f9bd
00000050: cad2 253e 4833 b13e e4ad 8bbe c50e 833e
00000060: 05b5 8a3e 5838 353e a756 eb3c b6d3 8d3d
00000070: 3271 f13e 0846 9e3e 0a1a e53e 07a6 ebbd
0.7231596 0.6088153 0.13835095 0.28388909 -0.112171605 0.19119813 0.22841452 0.15254182
0.13932258 0.44912112 -0.115533866 0.26214787 -0.027864875 -0.16211168 -0.04652235 -0.25710696
-0.29481223 -0.13236575 -0.12770388 -0.12158524 0.16193691 0.34609437 -0.27281106 0.25597206
0.27091232 0.17697275 0.028727842 0.06925146 0.47156674 0.30912805 0.4474643 -0.115062766

fc.weight f4 [8, 8]
00000000: 2e9e 993e 29c4 de3e 1fd0 fa3e 221c a43e
00000010: 7fd0 883e cf4d a9be 65ea 9e3e ee4c ebbe
00000020: 75d8 7d3e 9321 023f d9ef 143f a3d9 f13e
00000030: f99e 623e 283e 11be 211e a7be be70 b1be
00000040: 1a60 103f 5ceb 5a3e 03f8 0c3f 0a62 d2bd
00000050: 4a07 d2be 91e1 fabd a62d 513e ff8c 8b3c
00000060: feb3 b2be a2fb 5bbe c2eb e6be 0935 7bbd
00000070: 7a16 bf3e a442 3c3e 9c68 5f3e 63a7 ab3e
00000080: 2505 a0be 7317 e0be 7186 d2be 85fe 2abc
00000090: e9cc b93d e064 863e 4c67 51be 9001 fb3e
000000a0: a276 e33e 6a4e 0b3f e760 17bd a151 083f
000000b0: ba50 a63d f72a aebd 328b 11be bb38 dabe
000000c0: 016d 0a3f 2507 113f 1e68 ed3d c159 403d
000000d0: 72a8 b1be 9951 cfbe 080c b4be d83d 8d3d
000000e0: 6487 11be ae95 fabe 7f6c 903d 80b5 6bbe
000000f0: 1d49 683e 4f1a ce3e 28bb 04be 50ac 4a3e
0.30003494 0.43509033 0.4898691 0.32052714 0.2672157 -0.33067176 0.31038204 -0.4595713
0.24789603 0.5083248 0.5817848 0.47236356 0.22130956 -0.14183867 -0.32640174 -0.34656328
0.5639664 0.21378845 0.55065936 -0.10272606 -0.41021186 -0.12250055 0.2042757 0.017035006
-0.34902948 -0.21482709 -0.45101744 -0.061329875 0.37321836 0.18384796 0.21817249 0.33526143
-0.31253925 -0.4376789 -0.41118196 -0.010436659 0.09072287 0.26248837 -0.20449561 0.4902463
0.44426447 0.54416525 -0.036957648 0.53249556 0.08120866 -0.08504289 -0.14213255 -0.42621407
0.54072577 0.56651527 0.115921244 0.046960596 -0.34698826 -0.40491942 -0.3516543 0.068965614
-0.14211804 -0.48942322 0.07051944 -0.23018456 0.2268414 0.40254447 -0.1296202 0.19792295

fc.bias f4 [8]
00000000: 42c8 2c3e 2d72 8cbe 6330 48be 354a 723d
00000010: a3a8 913e db20 9ebd 21af 0a3d 8b08 a0be
0.16873267 -0.2743086 -0.19549708 0.0591528 0.28448972 -0.077211104 0.033858422 -0.31256518
