weights/best_ppg_encoder.pth (torch, 238055 bytes, 10 tensors)

conv1.weight f4 [64, 2, 5]
0.13792919 0.19522473 0.06724806 0.34489435 -0.2594994 -0.08577945 -0.15172377 0.15197264
0.18549775 -0.1983242 0.22569175 0.1459336 0.05444604 -0.24514876 0.32601288 -0.12483053
-0.13886012 0.1370262 0.2021241 -0.23901641 0.19069478 -0.1821967 0.3040827 0.2127463
-0.015930459 -0.27462676 -0.15386839 -0.29527152 0.03843602 0.24657816 -0.030462153 -0.2876269
0.2836255 0.06747249 0.29991713 0.28372526 0.23252901 0.22969115 0.11824137 0.27511233
-0.21148625 -0.31417412 -0.052207984 0.01841439 -0.08544057 0.19478978 0.093293294 -0.11042404
0.24170017 -0.14784381 -4.91634e-40 -7.79971e-35 4.92426e-40 -4.93846e-40 4.91797e-40 -7.67292e-40
-4.3627472e-14 4.94448e-40 -4.91032e-40 -4.91049e-40 -0.19718155 -0.2634485 -0.11723516 -0.102424204
0.2513948 0.055623367 0.15336706 0.25456357 -0.0059190323 0.34290674 -0.2758476 0.078192346
-0.11977867 0.06483378 0.016808495 0.22965875 -0.0762428 -0.030441258 0.31056264 0.18220767
-0.27592635 0.273058 0.085144155 0.18981451 -0.3142276 0.22680932 -0.06525127 0.25935084
-0.2251911 0.09117785 0.308525 0.30546647 -0.00823526 0.13687445 0.29359475 0.12179271
0.0038740437 0.13504529 0.08806712 0.29053676 0.1844032 0.061426725 -0.08730972 -0.14047508
0.11512734 -0.018288402 0.14552504 -0.23043053 -0.24885206 -0.2755943 0.08156203 0.1887246
-0.0739115 0.21935564 0.083210036 0.083359465 -0.2780357 -0.22335261 0.040884882 -0.28347528
-0.23191279 0.16835847 0.072134554 0.27438143 0.036035948 0.19133484 -0.16018182 0.12692079
-0.2601727 -0.16426763 -0.17614599 0.23779874 -0.085176654 -0.13603863 0.11336278 -0.058204982
-0.24450892 -0.13443679 -0.0089445 -0.24171962 0.06388623 -0.2699577 0.03242642 0.14629959
-0.08828578 0.11527761 -0.24201372 -0.2848971 0.2748917 -0.012043404 -9.892148e-12 4.91902e-40
5.1868738e-17 -2.8472787e-27 -4.9211e-40 -4.9499e-40 -4.471738e-15 -4.92814e-40 1.77407e-25 1.28782e-39
-0.1920997 0.22998345 0.121219926 0.3087443 -0.13842064 -0.21428786 0.086861625 -0.24354799
-0.14321612 0.056606248 -4.2832998e-29 -4.93003e-40 -1.901723e-12 -4.91929e-40 4.92164e-40 4.933e-40
4.93285e-40 -1.5562853e-18 5.440466e-29 -4.94129e-40 0.13516025 0.30166906 -0.10448097 0.29352242
-0.233366 -0.10693436 0.06577466 -0.007233413 0.31593582 -0.010919927 0.011704318 0.14884461
0.050912324 -0.062620796 -0.05752263 0.23861843 -0.0025490213 0.077584885 -0.085481085 -0.08802937
0.33474293 0.20895612 -0.022524828 -0.10467997 0.34029225 -0.27531022 0.24645226 0.08070196
0.06358075 -0.05442714 0.28498745 0.17558658 0.2417851 0.10795962 -0.13958801 -0.14394592
-0.084320344 0.1481343 -0.034695826 -0.2564383 -0.035542674 0.1975707 0.25066128 -0.029451154
0.18893883 0.028875018 -0.104320735 0.18405004 -0.2400421 0.030548915 -0.0979626 -0.14207155
-0.018469257 0.10547583 0.0048989095 -0.11799593 -0.0039951713 0.00329595 -0.12294474 0.15463077
0.06897857 -0.18578967 -0.08903557 0.20689994 -0.19790205 0.07071325 0.25296584 -0.02812563
-0.14552426 0.28452396 -0.31982034 0.29070973 0.004005702 -0.259111 0.10121839 -0.22421722
00000000: 4f3d 0d3e fee8 473e 5ab9 893d fe95 b03e
00000010: 1bdd 84be 23ad afbd 7a5d 1bbe b79e 1b3e
00000020: 1ff3 3d3e 8015 4bbe bd1b 673e 9e6f 153e
00000030: d002 5f3d 4708 7bbe 29eb a63e 26a7 ffbd
00000040: 5931 0ebe 9950 0c3e 9ff9 4e3e b8c0 74be
00000050: 7e45 433e c691 3abe bab0 9b3e 2bda 593e
00000060: 9880 82bc e19b 8cbe ad8f 1dbe d42d 97be
00000070: 176f 1d3d fc7e 7c3e c48b f9bc d543 93be
00000080: 5d37 913e 042f 8a3d bd8e 993e 7044 913e
00000090: 161c 6e3e 2834 6b3e 8828 f23d 86db 8c3e
000000a0: da8f 58be 6edb a0be 0ad8 55bd c6d9 963c
000000b0: 77fb aebd f976 473e 8e10 bf3d 0026 e2bd
000000c0: 4080 773e 5e64 17be 7a5a 0580 135a cf86
000000d0: af5c 0500 a460 0580 ee5a 0500 e65a 0880
000000e0: 0d7b 44a9 5262 0500 cc58 0580 d858 0580
000000f0: f6e9 49be b9e2 86be fd18 f0bd c8c3 d1bd
00000100: d2b6 803e 54d5 633d 410c 1d3e 2856 823e
00000110: 71f4 c1bb 7991 af3e e63b 8dbe 4f23 a03d
00000120: 854e f5bd 93c7 843d f8b1 893c aa2b 6b3e
00000130: 2f25 9cbd f25f f9bc 1102 9f3e a694 3a3e
00000140: 3846 8dbe 42ce 8b3e 0f60 ae3d bc5e 423e
00000150: 71e2 a0be b440 683e 75a2 85bd a2c9 843e
00000160: 7f98 66be 74bb ba3d fdf6 9d3e 1a66 9c3e
00000170: 2fed 06bc d128 0c3e 0d52 963e 756e f93d
00000180: abe3 7d3b 5049 0a3e 895c b43d 3cc1 943e
00000190: 31d4 3c3e 979a 7b3d 70cf b2bd b3d8 0fbe
000001a0: e2c7 eb3d 8fd1 95bc 8404 153e fbf5 6bbe
000001b0: 13d3 7ebe b21a 8dbe fe09 a73d 0641 413e
000001c0: ea5e 97bd c49e 603e 066a aa3d 5eb8 aa3d
000001d0: b25a 8ebe 8cb6 64be e876 273d ac23 91be
000001e0: 8c7a 6dbe 2a66 2c3e 48bb 933d b97b 8c3e
000001f0: 6e9a 133d 48ed 433e b406 24be 86f7 013e
00000200: 5b35 85be c635 28be 9d5f 34be 8381 733e
00000210: 1971 aebd b64d 0bbe bf2a e83d 5968 6ebd
00000220: 8c60 7abe cca9 09be f48b 12bc 5985 77be
00000230: c9d6 823d e537 8abe 91d1 043d 8fcf 153e
00000240: 2dcf b4bd ab16 ec3d 72d2 77be 08de 91be
00000250: 9bbe 8c3e b351 45bc 4606 2ead 395b 0500
00000260: cc33 6f24 ac95 6193 cd5b 0580 d563 0580
00000270: 811c a1a7 c45d 0580 869e 5b16 eb05 0e00
00000280: c9b5 44be c880 6b3e 2742 f83d bc13 9e3e
00000290: 24be 0dbe 476e 5bbe 82e4 b13d a564 79be
000002a0: 3fa7 12be f4db 673d 6930 5990 4b5e 0580
000002b0: 65d2 05ac 4c5b 0580 f45b 0500 1f5f 0500
000002c0: 145f 0500 ccaa e5a1 a5ee 8910 6e61 0580
000002d0: 7367 0a3e 5e74 9a3e 1efa d5bd 9248 963e
000002e0: 7ff7 6ebe 6700 dbbd ddb4 863d 4406 edbb
000002f0: 57c2 a13e 7ee9 32bc 78c3 3f3c b96a 183e
00000300: 7189 503d 553f 80bd d99c 6bbd 6458 743e
00000310: 7b0d 27bb d3e4 9e3d b510 afbd be48 b4bd
00000320: 6d63 ab3e 98f8 553e fd85 b8bc 7462 d6bd
00000330: c93a ae3e 76f5 8cbe fb5d 7c3e 1247 a53d
00000340: a036 823d feee 5ebd e0e9 913e f8cc 333e
00000350: 8396 773e ef19 dd3d 29f0 0ebe 8f66 13be
00000360: 25b0 acbd 85b0 173e 361d 0ebd e14b 83be
00000370: 3295 11bd f94f 4a3e ad56 803e 8c43 f1bc
00000380: 2e79 413e 4d8b ec3c 1ca6 d5bd 9d77 3c3e
00000390: 99cd 75be b841 fa3c 9ea0 c8bd 347b 11be
000003a0: d74c 97bc b603 d83d 0887 a03b daa7 f1bd
000003b0: ede9 82bb dd00 583b 74ca fbbd 8757 1e3e
000003c0: a344 8d3d a63f 3ebe 4858 b6bd 94dd 533e
000003d0: d6a6 4abe 1cd2 903d bd84 813e b967 e6bc
000003e0: 5004 15be 20ad 913e 7ebf a3be e8d7 943e
000003f0: 4442 833b 32aa 84be 964b cf3d 3399 65be

conv1.bias f4 [64]
-0.018795455 0.13346192 -0.04567825 0.17302474 0.26660183 -5.995991e-26 -0.1921026 -0.07373483
-0.053626183 -0.021957528 0.18134654 0.19990273 -0.014289993 0.22924268 0.13141571 -2.5242556e-14
0.1649875 -3.4478182e-15 -0.28121465 -0.106140904 -0.22563116 -0.11023648 0.17448838 0.030944576
0.055124506 0.19383234 0.1354307 0.05107144 0.18854031 0.1257025 0.053770635 0.18666688
-0.17931847 -1.0828525e-23 -0.11517534 0.11750449 -0.24787217 -6.8535636e-11 0.25554425 0.005974595
0.24945824 -0.082817264 -0.023373589 -0.023010504 0.27237502 0.1062579 -0.23409972 0.080895975
-0.01573863 0.14802441 -0.05796267 -0.036280166 -0.14185408 -0.15148783 -0.193347 -0.10638281
-0.16092049 0.11097019 0.09368149 0.06421322 0.310345 0.26203036 -0.10286878 -0.025850121
00000000: edf8 99bc 3eaa 083e 1e19 3bbd 662d 313e
00000010: 0980 883e 1c74 9495 8bb6 44be 4902 97bd
00000020: 21a7 5bbd 46e0 b3bc e8b2 393e 4db3 4c3e
00000030: 9320 6abc 98be 6a3e d791 063e 5f5d e3a8
00000040: 7cf2 283e 0571 78a7 5efb 8fbe 6760 d9bd
00000050: db0b 67be aac3 e1bd 15ad 323e 7b7f fd3c
00000060: 3cca 613d fc7b 463e 58ae 0a3e 4930 513d
00000070: b610 413e 28b8 003e 993e 5c3d 9a25 3f3e
00000080: 439f 37be 4274 5199 0ce1 ebbd 32a6 f03d
00000090: 34d2 7dbe 22b6 96ae b2d6 823e 89c6 c33b
000000a0: fb71 7f3e 199c a9bd f879 bfbc 8680 bcbc
000000b0: bd74 8b3e be9d d93d d6b7 6fbe caac a53d
000000c0: 4dee 80bc b693 173e 446a 6dbd 839a 14bd
000000d0: 3242 11be a01f 1bbe c2fc 45be 3bdf d9bd
000000e0: 57c8 24be 5744 e33d 15dc bf3d 3882 833d
000000f0: 8ae5 9e3e d828 863e deac d2bd a2c3 d3bc

conv2.weight f4 [64, 64, 5]
0.027784398 -0.023436323 -0.030071337 0.028601985 -0.012727886 0.028606871 0.014154182 0.016692154
0.033753075 0.022311527 0.013637193 0.02112294 -0.009847108 -0.018185789 0.030057462 0.036456257
0.004369997 -0.030214481 0.031850673 -0.04646873 0.008292725 0.0113889305 -0.03845073 0.016785782
0.0057064863 4.92517e-40 -4.94262e-40 4.94698e-40 4.9689e-40 4.93148e-40 0.0883814 0.044316433
0.10696717 0.035894934 0.106036715 0.029953044 0.059692454 0.0012670489 -0.007865373 -0.014933996
0.029455235 0.052654587 0.0036612696 0.059704814 -0.005527598 -0.025372056 0.02948398 0.00834186
0.02427837 0.01947134 -0.0017836086 0.013272609 -0.011592469 0.0016553899 0.03238423 -0.03470919
-0.055963196 0.04084156 0.03147553 -0.027341666 0.017710395 0.053219512 0.023389252 0.021390896
0.02916943 0.01997931 0.026713118 -0.044764694 -0.011656393 -0.009016592 -0.02580716 -0.021313397
0.0166443 0.008369622 -0.009054491 4.91218e-40 -5.21978e-40 4.9148e-40 4.91161e-40 -4.9659e-40
-0.021595258 0.0128205875 0.014160108 -0.01659991 0.021944596 -4.92074e-40 4.9356e-40 4.94821e-40
4.9298e-40 5.02807e-40 -0.007956045 -0.06676207 -0.035524495 -0.03406318 0.013484868 -0.0064048306
-0.010175366 -0.016656699 -0.008676462 0.0014510885 -0.05838836 -0.03390738 -0.03106634 -0.016370118
0.016784979 0.019071547 -0.018513571 0.009416984 0.013805214 0.014251125 0.030619672 -0.032205056
-0.024483664 0.042776164 -0.00013258866 0.012507271 0.024831988 0.010304359 0.007908202 0.0024847134
0.03806499 0.046836182 -0.017274972 -0.008987139 -0.007586399 -0.02846313 0.04746782 -0.0406081
-0.038209558 -0.036508482 -0.051375575 0.0077682287 0.008862309 -0.007725589 -0.0004252161 -0.02749978
-0.016230496 0.024682688 0.013891955 -0.018024364 -0.04801688 -0.03555841 0.020303778 0.031348858
0.0150952 -0.028185034 0.007091806 -0.043888263 -0.046450198 0.033919778 0.049077947 0.037665267
-0.024899852 0.05317258 -0.02465584 0.03446479 -0.04711235 0.027134389 0.011379031 -0.007651246
0.019328026 0.021718211 0.017764555 0.036417242 0.0083389785 -4.91979e-40 4.97102e-40 4.91483e-40
4.90868e-40 -4.93223e-40 0.034098957 0.030219255 0.030158112 0.02293432 0.016632406 0.023011237
-0.026637137 0.03060388 -0.012917819 -0.004016953 0.011200945 0.022346428 -0.035371754 0.023263942
-0.036315683 -4.92489e-40 -4.92957e-40 -4.91145e-40 4.92879e-40 -4.9467e-40 -0.05663228 -0.00028665538
-0.026768208 -0.07531648 -0.07003458 0.051952526 -0.009265088 0.04738854 0.030993726 -0.014036298
0.024804201 0.031352114 0.03645707 -0.0027693766 0.021724189 0.026361406 0.032820303 -0.013928963
0.017297111 0.03018408 -0.034315098 0.061406832 -0.017327521 -0.011744273 0.050969385 0.06899044
0.04268715 0.062399585 0.05636127 0.06068685 -0.044774607 0.05764453 -0.04426648 0.013671803
-0.017338777 0.018249948 0.011446427 -0.01168404 0.02966773 0.051226806 0.03498997 0.06309398
-0.007886787 0.05605706 0.035258677 0.0035756615 0.0048352643 0.001505793 0.016143318 -0.0068970323
0.014008828 -0.035821117 0.005752801 0.025029186 -0.017971067 -0.026240095 -0.03748262 -0.05762965
-0.058753442 -0.036289968 0.022384478 0.025413398 0.021551006 -0.013111016 0.03437702 0.0221517
00000000: 1b9c e33c 88fd bfbc 2a58 f6bc b64e ea3c
00000010: a088 50bc f558 ea3c f1e6 673c fcbd 883c
00000020: aa40 0a3d aac6 b63c 886e 5f3c 040a ad3c
00000030: c455 21bc 5dfa 94bc 113b f63c 2853 153d
00000040: 3132 8f3b 5c84 f7bc da75 023d ff55 3ebd
00000050: 36de 073c a398 3a3c 837e 1dbd 5682 893c
00000060: 7afd ba3b f05c 0500 cd61 0580 0463 0500
00000070: 2169 0500 b25e 0500 4f01 b53d 2685 353d
00000080: 9b11 db3d 9106 133d c729 d93d 1660 f53c
00000090: 1380 743d 1b13 a63a c4dd 00bc b8ad 74bc
000000a0: 1b4c f13c 56ac 573d e9f1 6f3b 098d 743d
000000b0: da20 b5bb 0fd9 cfbc 6388 f13c 4cac 083c
000000c0: 6fe3 c63c 5c82 9f3c f9c7 e9ba 5b75 593c
000000d0: 57ee 3dbc abf9 d83a 54a5 043d 392b 0ebd
000000e0: aa39 65bd 7b49 273d 7cec 003d a1fb dfbc
000000f0: 6415 913c b4fc 593d d19a bf3c f63b af3c
00000100: baf4 ee3c a6ab a33c 78d5 da3c 2f5b 37bd
00000110: 75fa 3ebc 54ba 13bc 8a69 d3bc 6f99 aebc
00000120: a159 883c bd20 093c 4a59 14bc 5159 0500
00000130: 10af 0580 0c5a 0500 2859 0500 4a68 0580
00000140: 8ae8 b0bc 710d 523c ccff 673c 89fc 87bc
00000150: 27c5 b33c b45b 0580 d85f 0500 5c63 0500
00000160: 3a5e 0500 9f79 0500 125a 02bc 8dba 88bd
00000170: 2282 11bd d585 0bbd a3ef 5c3c 9ddf d1bb
00000180: 94b6 26bc a173 88bc b827 0ebc 7332 be3a
00000190: a228 6fbd 77e2 0abd d67e febc a01a 86bc
000001a0: a780 893c ef3b 9c3c c6a9 97bc b249 1a3c
000001b0: 442f 623c 8d7d 693c 1bd6 fa3c 73e9 03bd
000001c0: f791 c8bc 0f36 2f3d 7f07 0bb9 4ceb 4c3c
000001d0: 746c cb3c 9dd3 283c 6791 013c 93d6 223b
000001e0: 09ea 1b3d 4cd7 3f3d 3e84 8dbc cb3e 13bc
000001f0: 5497 f8bb 832b e9bc 9e6d 423d ae54 26bd
00000200: a081 1cbd eb89 15bd 326f 52bd a08c fe3b
00000210: 3833 113c f026 fdbb 8aef deb9 3847 e1bc
00000220: d1f5 84bc 5933 ca3c 159b 633c d5a7 93bc
00000230: 59ad 44bd b2a5 11bd 1c54 a63c a967 003d
00000240: dc51 773c 4de4 e6bc 6162 e83b 2ec4 33bd
00000250: 9042 3ebd 77ef 0a3d f505 493d e546 1a3d
00000260: c6fa cbbc 7ecb 593d 0bfb c9bc f42a 0d3d
00000270: e1f8 40bd f048 de3c 1e6f 3a3c 4eb7 fabb
00000280: cf55 9e3c 64ea b13c f986 913c 3f2a 153d
00000290: 36a0 083c 705b 0580 b869 0500 0e5a 0500
000002a0: 5758 0500 e85e 0580 59ab 0b3d 5f8e f73c
000002b0: 250e f73c c1e0 bb3c af40 883c 1082 bc3c
000002c0: 2036 dabc fdb4 fa3c 43a5 53bc a5a0 83bb
000002d0: 2b84 373c db0f b73c f9e1 10bd 0694 be3c
000002e0: c1bf 14bd dc5c 0580 2a5e 0580 1d59 0580
000002f0: f25d 0500 f062 0580 40f7 67bd 3c4a 96b9
00000300: 0049 dbbc 873f 9abd 4a6e 8fbd 2ccc 543d
00000310: 98cc 17bc 7c1a 423d 8ee6 fd3c 80f8 65bc
00000320: 2e32 cb3c 136b 003d 0254 153d 6e7e 35bb
00000330: edf6 b13c e0f3 d73c 956e 063d 4e36 64bc
00000340: acb2 8d3c 9b44 f73c fd8d 0cbd bb85 7b3d
00000350: 72f2 8dbc 0d6b 40bc 46c5 503d dc4a 8d3d
00000360: b9d8 2e3d b596 7f3d 13db 663d c692 783d
00000370: 9465 37bd ac1c 6c3d c550 35bd b3ff 5f3c
00000380: 0d0a 8ebc ea80 953c cb89 3b3c 6a6e 3fbc
00000390: bd09 f33c 33d3 513d a551 0f3d 6b37 813d
000003a0: 9537 01bc 169c 653d 676b 103d a555 6a3b
000003b0: 2371 9e3b 075e c53a fe3e 843c 8000 e2bb
000003c0: 4985 653c 2ab9 12bd fe81 bc3b 020a cd3c
000003d0: 0f38 93bc 78f5 d6bc 6087 19bd 110d 6cbd
000003e0: 73a7 70bd caa4 14bd a75f b73c c22f d03c
000003f0: bc8b b03c 96cf 56bc ebce 0c3d 7b77 b53c

conv2.bias f4 [64]
-0.024804845 -5.551463e-22 -0.005516556 -0.0028537367 0.030011626 -0.0033878058 0.03589827 -4.74418e-40
-0.03279045 -0.031678516 -9.32142e-40 0.014167318 -0.0036177523 -6.127832e-13 -2.4969906e-09 0.053103823
0.011142949 0.05961904 0.040392414 0.035573695 0.012611819 0.038242515 -0.03962101 -1.1464579e-15
-0.004370971 -0.019113809 0.035326585 -0.034507766 0.011818292 -0.011043828 0.02847639 -0.008447456
-0.0019139072 0.033162244 0.036706474 0.04716945 0.00018751505 0.011856195 0.043239582 -0.02921135
0.06444816 0.051899225 -0.015346249 0.046878703 0.037976492 0.0023543825 -0.026100093 0.014023163
0.015991123 -0.009332276 0.050352838 0.060245346 -5.230656e-10 -0.057882983 0.023370072 -0.00018085648
-0.0026233539 0.022513837 0.031626277 0.04925306 -5.652741e-05 0.009861669 0.024600863 0.014487684
00000000: 8833 cbbc 5dc8 279c 3ac4 b4bb c205 3bbb
00000010: f1da f53c f305 5ebb 100a 133d 7c2a 0580
00000020: 474f 06bd 55c1 01bd 6f26 0a80 0a1e 683c
00000030: d017 6dbb af7b 2cab 8697 2bb1 6583 593d
00000040: ea90 363c 1833 743d 8472 253d b9b5 113d
00000050: cea1 4e3c 2fa4 1c3d a449 22bd d538 a5a6
00000060: 5d3a 8fbb 9094 9cbc 9cb2 103d 0458 0dbd
00000070: 82a1 413c 2cf1 34bc 5147 e93c 3367 0abc
00000080: 12dc faba 22d5 073d 8759 163d c134 413d
00000090: b09f 4439 7c40 423c fd1b 313d a44c efbc
000000a0: 66fd 833d 4894 543d d56e 7bbc e203 403d
000000b0: 3d8d 1b3d fc4b 1a3b ddcf d5bc 69c1 653c
000000c0: d1ff 823c 67e6 18bc c73e 4e3d d3c3 763d
000000d0: 78c7 0fb0 b516 6dbd 9872 bf3c 4ba4 3db9
000000e0: 93ec 2bbb f06e b83c 8e8a 013d 94bd 493d
000000f0: d817 6db8 d692 213c c087 c93c c05d 6d3c

lstm.weight_ih_l0 f4 [256, 64]
0.08212364 4.9259e-40 0.009238374 6.823182e-08 0.07430336 -0.00013270945 0.03757994 -4.91695e-40
0.12965676 -0.0031578916 -5.04058e-40 0.0053100153 0.00014774765 5.01124e-40 -4.94302e-40 -0.038550045
0.0064791446 -0.06039806 0.02722999 -0.021485956 0.018128142 -0.0015813082 -0.027309516 -4.90632e-40
-0.048363328 0.099499084 -0.057507 0.019437727 -0.006248865 -0.03152005 0.13029805 -0.039696436
-0.008258566 0.012485519 -0.06637898 0.050486833 -1.023615e-09 0.078697965 0.04195218 0.059864897
0.06857783 -0.016539216 -0.017462818 0.09423146 -0.081250384 0.03078422 0.025525749 0.080244824
0.02408904 -0.010553478 0.05910014 0.053214055 4.9201e-40 0.0117911035 -0.01589472 4.259559e-35
2.403469e-18 0.03275318 0.02175661 -0.05889419 -4.93282e-40 0.00017483359 -0.005666436 0.10421234
-0.08474393 -4.98041e-40 0.02923251 -0.0006152399 0.0637811 0.003352018 0.04254592 4.9566e-40
0.03796382 0.08442458 5.0088e-40 -0.011856699 -0.0031337093 4.93862e-40 4.94525e-40 0.13546954
0.04984501 -0.060345087 -0.0070682457 0.0036651066 0.0024452205 -0.011634422 -0.01590586 -4.94066e-40
-0.013988384 -0.09441495 -0.046033364 0.10244152 -0.028821202 -0.035270087 0.034489952 -0.016773893
0.022140805 0.050510965 -0.012350272 0.056208752 -7.5531275e-08 0.069715515 0.042943962 0.096444555
0.010947545 0.04016505 0.06655456 -0.03550576 -0.019270554 0.093286894 0.0626072 -0.0067799604
0.07228288 0.012710397 0.08691485 0.01996966 -4.93083e-40 -0.018666819 0.0025689404 -1.7247121e-34
-0.00014740908 -0.07729679 0.07942099 0.110790946 4.92062e-40 -0.00013778104 0.09132972 -0.013511988
0.10884559 4.91462e-40 0.019324867 -3.6165788e-05 -0.07564729 0.0020774258 -0.08690131 4.90946e-40
0.064049214 0.061412334 -1.54247e-40 -0.0068097156 -0.0021627424 4.93386e-40 -4.9291e-40 0.044162247
-0.09713509 0.009130344 -0.01586445 0.09355981 0.0029594093 -0.0016954491 0.0863444 -4.94635e-40
0.0027144991 0.058063034 -0.0718199 0.03321912 -0.091019735 -0.036693584 0.06334645 0.06715413
0.066080384 -0.013207384 0.07090554 0.075976446 -1.810552e-08 -0.034480922 0.020792708 -0.015973339
0.09780764 -0.016834816 0.06540782 -0.014833043 0.10160415 -0.013371126 0.02231843 0.06409817
0.058450058 -0.004205304 0.060448818 0.011667919 -4.9086e-40 -0.002673087 0.0239063 -1.2118059e-34
-4.9951673e-06 -0.046272513 -0.01956841 0.09459923 4.9111e-40 -0.00023945697 -0.07908847 -0.03543064
0.012825912 -4.94744e-40 0.0022417335 1.861982e-07 0.11560065 0.00023103412 0.08621145 4.90809e-40
0.102260344 0.012056863 2.19885e-40 0.00079575006 -0.00046528864 4.93442e-40 -4.91561e-40 -0.010410263
0.034897335 0.027196756 0.05076357 0.010258154 -0.030555682 -0.004851064 -0.10060009 -4.92474e-40
0.11524776 0.0813047 -0.02651572 -0.07400074 -0.015097895 -0.026492026 -0.041791316 0.023531266
0.058583464 0.049948838 0.089873806 -0.061525416 1.704308e-07 0.052289024 -0.0038025563 0.010454831
-0.052833885 0.059166994 -0.03531082 0.06384697 0.10583485 0.02658139 -0.07970497 0.005878292
0.007052909 -0.058422763 -0.063927524 -0.08448948 -4.97597e-40 -5.2973144e-05 0.010684926 -1.6068285e-34
-3.3847603e-16 0.0056748395 -0.017902847 -0.018941022 -5.35251e-40 -0.00034787695 0.09141108 0.026000774
00000000: 7030 a83d 245d 0500 8d5c 173c d786 9233
00000010: 5c2c 983d ec27 0bb9 6ced 193d a55a 0580
00000020: bec4 043e a1f4 4ebb 1c7d 0580 a3ff ad3b
00000030: b5ec 1a39 ee74 0500 ea61 0580 a7e6 1dbd
00000040: 014f d43b f563 77bd 6e11 df3c 5103 b0bc
00000050: 7881 943c e643 cfba 35b8 dfbc af57 0580
00000060: a018 46bd 2dc6 cb3d 768c 6bbd de3b 9f3c
00000070: 47c3 ccbb 2b1b 01bd da6c 053e bb98 22bd
00000080: f04e 07bc 1090 4c3c b4f1 87bd 48cb 4e3d
00000090: 40af 8cb0 662c a13d 0dd6 2b3d e534 753d
000000a0: 8972 8c3d 407d 87bc 2f0e 8fbc 6cfc c03d
000000b0: 9a66 a6bd 302f fc3c 601b d13c 6657 a43d
000000c0: 6156 c53c 7fe8 2cbc fd12 723d fbf6 593d
000000d0: 865b 0500 792f 413c a535 82bc 1d7a 6206
000000e0: 3f58 3122 3328 063d eb3a b23c 093b 71bd
000000f0: 125f 0580 8953 3739 83ad b9bb 486d d53d
00000100: 3a8e adbd 566c 0580 0479 ef3c 0d48 21ba
00000110: aa9f 823d 88ad 5b3b a144 2e3d b365 0500
00000120: f37f 1b3d cbe6 ac3d 4074 0500 9a42 42bc
00000130: eb5e 4dbb b060 0500 8962 0500 87b8 0a3e
00000140: 482a 4c3d 692c 77bd be9c e7bb 4932 703b
00000150: fe3f 203b 4d9e 3ebc 024d 82bc 4161 0580
00000160: 892f 65bc a05c c1bd 7b8d 3cbd dccc d13d
00000170: 711a ecbc 5e77 10bd 5645 0d3d 6769 89bc
00000180: a260 b53c 96e4 4e3d cc58 4abc 263b 663d
00000190: c233 a2b3 02c7 8e3d 02e6 2f3d b984 c53d
000001a0: 555d 333c 1c84 243d c24d 883d 7d6e 11bd
000001b0: 48dd 9dbc 330d bf3d 3438 803d 6e2a debb
000001c0: 0c09 943d 453f 503c 6a00 b23d 6a97 a33c
000001d0: 845e 0580 28eb 98bc ab5b 283b e940 6587
000001e0: d391 1ab9 c84d 9ebd 79a7 a23d 5de6 e23d
000001f0: ab5b 0500 5179 10b9 140b bb3d 6361 5dbc
00000200: 70ea de3d ff59 0500 2f4f 9e3c b8b0 17b8
00000210: f7ec 9abd 6c25 083b 50f9 b1bd 8f58 0500
00000220: 3c2c 833d 808b 7b3d faad 0180 0924 dfbb
00000230: ccbc 0dbb 5c5f 0500 085e 0580 79e3 343d
00000240: c3ee c6bd 7097 153c 2af6 81bc 499c bf3d
00000250: a6f2 413b d539 deba 55d5 b03d d762 0580
00000260: bde5 313b 81d3 6d3d 5016 93bd c610 083d
00000270: 8e68 babd 034c 16bd c9bb 813d 1b88 893d
00000280: 2755 873d c963 58bc ec36 913d 8a99 9b3d
00000290: 7686 9bb2 de3b 0dbd 7855 aa3c 85da 82bc
000002a0: 5f4f c83d 2be9 89bc 89f4 853d 4b06 73bc
000002b0: d615 d03d 9112 5bbc 24d5 b63c e745 833d
000002c0: 5469 6f3d a6cc 89bb 2e99 773d cd2a 3f3c
000002d0: 5158 0580 f52e 2fbb 25d7 c33c 9e13 2187
000002e0: 299c a7b6 3f88 3dbd ee4d a0bc 3ebd c13d
000002f0: 0459 0500 be16 7bb9 23f9 a1bd b81f 11bd
00000300: c623 523c 2563 0580 0cea 123b c6ed 4734
00000310: 09c0 ec3d c041 7239 a18f b03d 2d58 0500
00000320: df6d d13d 268a 453c f364 0200 e299 503a
00000330: fcf1 f3b9 845f 0500 465a 0580 cf8f 2abc
00000340: 82f0 0e3d bbcb de3c 76ed 4f3d d111 283c
00000350: e94f fabc adf5 9ebb 6c07 cebd d15c 0580
00000360: 0507 ec3d 1483 a63d 7f37 d9bc b38d 97bd
00000370: 295d 77bc ce05 d9bc 5f2d 2bbd a4c4 c03c
00000380: 37f5 6f3d 2797 4c3d c20f b83d 1302 7cbd
00000390: a9ff 3634 042d 563d 4f34 79bb bd4a 2b3c
000003a0: 5868 58bd 1759 723d 14a2 10bd 33c2 823d
000003b0: f1bf d83d 37c1 d93c 5c3c a3bd b09e c03b
000003c0: 171c e73b b54c 6fbd 6fec 82bd d208 adbd
000003d0: 196b 0580 7b2f 5eb8 d40f 2f3c 8a95 5587
000003e0: 3f1e c3a5 01f4 b93b fea8 92bc 342a 9bbc
000003f0: 10d4 0580 4163 b6b9 bb35 bb3d 93ff d43c

lstm.weight_hh_l0 f4 [256, 64]
0.055163767 -0.05593659 0.022432493 0.06503746 -0.06394382 0.056966346 -0.048374098 0.06401858
-0.08941041 -0.029010955 0.07247946 0.0016317753 0.05308774 0.030939873 -0.00822096 0.008664035
-0.010936029 -0.019683568 0.06787057 0.045001503 0.04141519 -0.060473282 -0.04690135 0.08841959
0.09749199 0.0740463 -0.024814 -0.108742364 -0.0928809 -0.05598814 -0.026194507 -0.04652836
-0.03434509 -0.049958292 -0.04343721 0.0022562437 0.0026763498 -0.03673901 -0.019244913 0.047536284
0.009423835 -0.055631932 0.027975349 0.0019526762 0.011033399 -0.05083629 0.012233628 -0.062183965
-0.08521505 0.0837322 -0.042753175 -0.041879687 -0.01510903 -0.016831458 -0.045857225 -0.0070085465
-0.006536806 0.014003763 0.0361892 0.023448296 -0.061118513 0.054127555 -0.028780444 0.07183326
0.083918735 -0.046949733 0.10965341 0.007054376 0.057598565 -0.118287444 0.050832354 -0.04247456
-0.049912404 -0.07730162 -0.062072903 -0.014777194 -0.047244973 -0.08531321 0.12610872 -0.042710956
-0.018508958 -0.03130917 0.12334003 -0.043572664 0.1075003 0.0991065 -0.014444465 -0.02145196
0.09596206 -0.0721412 -0.057251442 0.03726143 0.075850174 -0.09143472 -0.0248259 -0.10709763
0.08902669 0.068051815 0.014096441 0.01533789 0.045345172 0.029152371 0.04092572 0.037569236
-0.08922204 0.02744503 0.005038569 0.024021309 0.02483869 0.002027674 -0.021221923 -0.05651403
-0.123310134 -0.06013916 0.049186837 -0.076413535 0.10169922 0.06762876 0.07929386 -0.09613031
-0.016741123 0.0028321377 -0.092950314 0.038419195 -0.009706289 0.031737346 0.083583005 -0.023427406
0.0072771274 -0.011237799 0.06196544 0.07595657 0.06856478 -0.09978763 -0.09695529 0.058825932
0.09241752 0.020564476 0.032619007 -0.03875051 0.080654286 -0.007924224 0.021035027 -0.04001789
-0.06382193 0.023300627 -0.05907874 -0.06387951 0.03083388 -0.004266144 0.06895955 -0.07473256
0.08715164 -0.071249895 0.02717999 0.07528016 -0.0069293915 -0.08679931 -0.08532844 -0.10649191
-0.027463794 -0.03665343 -0.011997467 -0.0041395775 -0.05287794 -0.06880441 0.01978505 0.0031986253
-0.0256007 0.072176605 -0.11332887 0.110106975 -0.02710901 -0.020642832 -0.032900855 -0.043272074
0.031897455 0.02117306 -0.06962199 -0.026177097 -0.010725583 0.0132660195 0.040496066 -0.022005295
0.030697476 -0.061661106 0.0144547 0.0073361984 -0.020620557 -0.07263229 0.052176733 0.09770352
0.041664965 0.10659321 -0.023215573 -0.08924345 0.013318382 0.010614343 0.08083168 0.100003205
0.037400067 0.061699126 -0.0048043192 0.04000833 -0.09749696 0.007040873 0.07020034 -0.068205714
-0.088896275 0.01725505 0.03400936 0.02287025 0.057014555 -0.012685738 0.03967395 0.09643274
0.10077062 -0.09256872 -0.053921007 -0.04424694 -0.018941112 -0.036571212 -0.02934651 0.04262243
-0.045847043 -0.092717625 0.016941613 0.066327475 -0.014822836 -0.030746024 0.013198049 0.009854123
0.009709602 -0.0079473425 0.057309892 0.041607857 0.009961793 -0.07231677 -0.064518675 0.034931798
-0.05789568 0.053521823 -0.05683928 0.09882476 0.00079881074 -0.11667387 0.008106784 -0.016797146
-0.07392187 -0.039958786 -0.05939317 0.03309616 0.052044585 0.0729941 -0.075544186 0.01587839
00000000: 67f3 613d c41d 65bd 59c4 b73c 5c32 853d
00000010: faf4 82bd 8b55 693d eb23 46bd 2c1c 833d
00000020: ce1c b7bd 62a8 edbc 1c70 943d 4be1 d53a
00000030: 8872 593d 9e75 fd3c 35b1 06bc 99f3 0d3c
00000040: 082d 33bc 6f3f a1bc baff 8a3d 7f53 383d
00000050: f9a2 293d d5b2 77bd a11b 40bd 5415 b53d
00000060: e1a9 c73d 96a5 973d bb46 cbbc 51b4 debd
00000070: 5738 bebd d253 65bd dd95 d6bc 8694 3ebd
00000080: 70ad 0cbd 11a1 4cbd 37eb 31bd 7ddd 133b
00000090: b365 2f3b a57b 16bd 82a7 9dbc 68b5 423d
000000a0: 6e66 1a3c 4fde 63bd 8f2c e53c f1f0 ff3a
000000b0: 6ec5 343c b739 50bd 8e6f 483c 9db4 7ebd
000000c0: 3a85 aebd ca7b ab3d f41d 2fbd 098a 2bbd
000000d0: dd8b 77bc 20e2 89bc c9d4 3bbd f3a7 e5bb
000000e0: b432 d6bb 0a70 653c 203b 143d a416 c03c
000000f0: 6857 7abd dbb4 5d3d f7c4 ebbc 511d 933d
00000100: 96dd ab3d 5d4e 40bd f891 e03d 6528 e73b
00000110: 79ec 6b3d b040 f2bd 9635 503d cef9 2dbd
00000120: f370 4cbd 5050 9ebd 2840 7ebd 0b1c 72bc
00000130: f283 41bd b1b8 aebd a522 013e aff1 2ebd
00000140: 19a0 97bc 0b3e 00bd b399 fc3d 4079 32bd
00000150: 1e29 dc3d 59f8 ca3d 7aa8 6cbc 05bc afbc
00000160: c287 c43d c4be 93bd 7d80 6abd 719f 183d
00000170: 5657 9b3d 2042 bbbd b05f cbbc 0156 dbbd
00000180: a053 b63d c05e 8b3d c2f4 663c c64b 7b3c
00000190: dcbb 393d f4d0 ee3c baa1 273d 33e2 193d
000001a0: 0bba b6bd 66d4 e03c 951a a53b 56c8 c43c
000001b0: 827a cb3c bae2 043b 99d9 adbc 417b 67bd
000001c0: 068a fcbd 7b54 76bd 2378 493d b37e 9cbd
000001d0: ae47 d03d f380 8a3d d264 a23d f8df c4bd
000001e0: ae24 89bc 639b 393b bc5c bebd 725d 1d3d
000001f0: 2007 1fbc 05ff 013d 912d ab3d d5ea bfbc
00000200: f874 ee3b bf1e 38bc 79cf 7d3d 1e8f 9b3d
00000210: b16b 8c3d 755d ccbd 7f90 c6bd 76f3 703d
00000220: 6645 bd3d d576 a83c 829b 053d dbb8 1ebd
00000230: 132e a53d 9bd4 01bc a651 ac3c cde9 23bd
00000240: 12b5 82bd f5e0 be3c 8dfc 71bd 43d3 82bd
00000250: 5597 fc3c 02cb 8bbb aa3a 8d3d 620d 99bd
00000260: 8f7c b23d 77eb 91bd 92a8 de3c 7c2c 9a3d
00000270: f30f e3bb d6c3 b1bd adc0 aebd 6e18 dabd
00000280: c0fb e0bc e821 16bd 0691 44bc 4ba5 87bb
00000290: 8a96 58bd 54e9 8cbd 4214 a23c 07a0 513b
000002a0: 8fb8 d1bc 54d1 933d f718 e8bd c47f e13d
000002b0: b713 debc 281b a9bc 0cc3 06bd 0f3e 31bd
000002c0: e8a6 023d 2073 ad3c f995 8ebd 5a71 d6bc
000002d0: 5bba 2fbc b859 593c 34df 253d 7344 b4bc
000002e0: 4679 fb3c 5b90 7cbd 68d3 6c3c 7e64 f03b
000002f0: 71ec a8bc 3dc0 94bd 45b7 553d c818 c83d
00000300: e2a8 2a3d 8a4d da3d 962e bebc 45c5 b6bd
00000310: 5835 5a3c c8e7 2d3c 148b a53d 7bce cc3d
00000320: d030 193d 39b8 7c3d 8d6d 9dbb c6df 233d
00000330: 7cac c7bd 20b7 e63b 32c5 8f3d 70af 8bbd
00000340: 400f b6bd 765a 8d3c 664d 0b3d 645a bb3c
00000350: 1888 693d d7d7 4fbc 2781 223d 877e c53d
00000360: d460 ce3d ab94 bdbd 46dc 5cbd 483c 35bd
00000370: 642a 9bbc b2cb 15bd 1868 f0bc db94 2e3d
00000380: 1cca 3bbd bde2 bdbd 23c9 8a3c b3d6 873d
00000390: 7bdb 72bc 16df fbbc a13c 583c 3073 213c
000003a0: 0615 1f3c 9235 02bc c7bd 6a3d 006d 2a3d
000003b0: ca36 233c d11a 94bd 5e22 84bd a514 0f3d
000003c0: 0524 6dbd b339 5b3d 4ed0 68bd a364 ca3d
000003d0: 4867 513a b6f2 eebd 51d2 043c 2b9a 89bc
000003e0: 5964 97bd d3ab 23bd 4146 73bd d78f 073d
000003f0: b42c 553d ee7d 953d e9b6 9abd 6613 823c

lstm.bias_ih_l0 f4 [256]
0.06537706 0.14237969 0.07676584 -0.050056368 0.10741439 0.076889746 -0.0630626 -0.07147184
0.04056004 0.050792355 -0.032921527 0.07498253 0.10738131 -0.0954481 0.113748185 0.13747762
0.0020149334 0.14053445 0.024053378 -0.08755673 0.12167948 -0.04509931 0.070565626 -0.04603616
0.11306472 0.08338599 0.18914631 0.018053401 0.00693879 0.055243436 0.044035114 -0.059007917
-0.07556594 0.061314777 0.116093986 -0.05263686 -0.10515864 -0.040479474 0.04996443 -0.055663027
0.0043526585 0.08924933 0.048675105 0.11950641 0.09713993 0.07119691 -0.013875268 -0.06512472
-0.022905359 -0.026388185 0.02998568 0.09818378 0.05271985 0.12621315 -0.07482331 -0.03046423
-0.06191576 -0.012043407 0.033983294 0.10384776 -0.051915474 0.088642776 0.06818891 -0.042253833
-0.041682955 -0.037154555 -0.058286935 -0.037239645 0.06115938 0.10202278 0.019574009 -0.042841885
-0.025434744 0.08904558 0.10473549 -0.01977563 0.017772324 -0.053597275 -0.051364712 0.07149319
0.055454176 -0.000513633 0.026489142 0.023227608 0.09231092 0.035934143 -0.04092647 0.115829125
-0.096163556 -0.07198372 0.07951105 0.07728925 0.06438569 0.012811037 0.0004681202 -0.08688888
-0.05845124 0.07806761 0.18001415 0.10149629 0.05804669 -0.007927312 -0.016307518 0.13335326
-0.02120603 0.13793512 0.12178342 0.13782628 -0.019599484 0.0827125 0.08959064 -0.061272588
-0.017441805 0.0600951 -0.08381641 0.020076713 0.030709177 0.026882658 0.077605136 0.015175417
-0.070597686 0.034384515 0.100927316 0.051607788 -0.09843503 -0.06828936 0.047528442 0.04140745
0.038014613 0.06938502 0.07371267 0.057550233 -0.0973844 -0.054560006 0.053053115 0.049125638
-0.024472207 0.04704825 -0.11149901 0.00022119687 0.11607688 0.120438516 0.08687191 -0.03403296
0.013555998 0.03437318 0.029835567 0.07209085 0.1046586 -0.10812805 -0.00984062 0.094233684
-0.007087066 -0.029984921 0.044153586 -0.05105673 -0.015913595 -0.020461122 0.12528807 -0.101180196
-0.09418281 -0.092447005 0.08693206 0.110753074 0.0746222 0.11735844 -0.12560637 0.12761764
0.027802823 0.044056438 -0.101581335 0.014528257 -0.044943813 -0.008109592 -0.018747745 0.013131981
0.11603041 0.053201813 -0.048141096 0.010176302 0.11899391 -0.09117744 0.08761496 -0.04935174
-0.0021660472 0.06304193 0.112807944 0.05907485 -0.0015373603 -0.033508107 0.00044183547 -0.048783854
0.029265162 0.025975395 -0.016631428 0.12490711 0.06010772 0.07756112 -0.08616674 -0.038461316
0.09534471 0.12257942 -0.03768053 0.06367602 -0.07657938 0.11944684 -0.03111231 -0.027579801
0.098088436 0.09603126 -0.004021852 -0.03760755 -0.031245753 0.10877145 0.009000229 -0.087932825
-0.030550016 -0.00553196 -0.0060100514 0.046603803 0.14098899 0.10928862 -0.08067435 -0.05556184
-0.023315769 -0.097070836 0.092345536 0.08957877 -0.0859011 0.028480858 0.06193472 -0.047203273
0.010065731 0.15228334 0.09599409 -0.020547936 0.005081863 0.13756745 0.053686008 0.030714178
-0.056982797 -0.03305934 0.05079432 -0.08818474 -0.008249651 0.120871395 0.010291646 -0.005865578
-0.0699646 0.044693388 0.081614465 -0.08988611 0.09499011 -0.051219434 -0.049657583 -0.003129732
00000000: 68e4 853d fbcb 113e 6937 9d3d e807 4dbd
00000010: 13fc db3d 5f78 9d3d f726 81bd d45f 92bd
00000020: 4922 263d a50b 503d b9d8 06bd 7190 993d
00000030: bbea db3d 4b7a c3bd cff4 e83d efc6 0c3e
00000040: f90c 043b 43e8 0f3e 970b c53c f150 b3bd
00000050: 1733 f93d 0eba 38bd b684 903d 6a90 3cbd
00000060: 7a8e e73d 46c6 aa3d 92af 413e bae4 933c
00000070: ca5e e33b f146 623d 2a5e 343d 49b2 71bd
00000080: 51c2 9abd 3425 7b3d afc2 ed3d c099 57bd
00000090: 6a5d d7bd cecd 25bd 81a7 4c3d eafe 63bd
000000a0: bfa0 8e3b 5ac8 b63d 8c5f 473d c7bf f43d
000000b0: 4df1 c63d b0cf 913d 1855 63bc 1c60 85bd
000000c0: 05a4 bbbc 092c d8bc 87a4 f53c 9414 c93d
000000d0: c5f0 573d 053e 013e f73c 99bd 1f90 f9bc
000000e0: 619b 7dbd b651 45bc 1132 0b3d 22ae d43d
000000f0: 52a5 54bd 588a b53d a1a6 8b3d 5b12 2dbd
00000100: bfbb 2abd 602f 18bd 48be 6ebd 9988 18bd
00000110: 4282 7a3d 52f1 d03d ac59 a03c f97a 2fbd
00000120: 865c d0bc 875d b63d 907f d63d 8100 a2bc
00000130: 4497 913c d188 5bbd ce63 52bd 066b 923d
00000140: eb23 633d 54a5 06ba c2ff d83c d347 be3c
00000150: 820d bd3d ae2f 133d 84a2 27bd d237 ed3d
00000160: 66f1 c4bd 336c 93bd b0d6 a23d d449 9e3d
00000170: a5dc 833d 62e5 513c 086e f539 ccf2 b1bd
00000180: 916a 6fbd e9e1 9f3d a155 383e 49dd cf3d
00000190: 5ec2 6d3d 8ee1 01bc 5897 85bc c28d 083e
000001a0: 45b8 adbc dd3e 0d3e 9669 f93d 5522 0d3e
000001b0: 198f a0bc 2c65 a93d 4c7b b73d f7f8 7abd
000001c0: 1ee2 8ebc 4826 763d f0a7 abbd eb77 a43c
000001d0: d091 fb3c 0539 dc3c 71ef 9e3d 50a2 783c
000001e0: 8595 90bd c7d6 0c3d fbb2 ce3d b062 533d
000001f0: 4e98 c9bd 4bdb 8bbd 2fad 423d dc9a 293d
00000200: 36b5 1b3d bc19 8e3d abf6 963d cbb9 6b3d
00000210: 7971 c7bd 507a 5fbd 394e 593d f737 493d
00000220: f079 c8bc aab5 403d 9859 e4bd 15f1 6739
00000230: b7b9 ed3d 78a8 f63d e6e9 b13d 2566 0bbd
00000240: fa19 5e3c e4ca 0c3d b869 f43c 5ea4 933d
00000250: 4057 d63d 3d72 ddbd 8d3a 21bc 97fd c03d
00000260: 9e3a e8bb f0a2 f5bc 64da 343d dd20 51bd
00000270: 3a5d 82bc 159e a7bc 844b 003e 9037 cfbd
00000280: ebe2 c0bd db54 bdbd 7009 b23d 82d2 e23d
00000290: 86d3 983d 9f59 f03d f59e 00be 33ae 023e
000002a0: bfc2 e33c 8674 343d e009 d0bd ed07 6e3c
000002b0: 0117 38bd 18de 04bc df94 99bc 8527 573c
000002c0: 5aa1 ed3d 25ea 593d 992f 45bd 81ba 263c
000002d0: 14b3 f33d 3dbb babd 796f b33d 0d25 4abd
000002e0: 3ef4 0dbb 211c 813d da07 e73d 78f8 713d
000002f0: 4081 c9ba cc3f 09bd 27a6 e739 94d1 47bd
00000300: 7ebd ef3c 5aca d43c a23e 88bc 4dcf ff3d
00000310: 8333 763d 5dd8 9e3d 3078 b0bd 9d89 1dbd
00000320: 1644 c33d eb0a fb3d e656 1abd 9368 823d
00000330: a6d5 9cbd 8ba0 f43d 3edf febc 09ef e1bc
00000340: 97e2 c83d 0aac c43d bdc9 83bb 600a 1abd
00000350: 18f7 ffbc 91c3 de3d b275 133c 2016 b4bd
00000360: 0744 fabc 7245 b5bb f7ef c4bb a1e3 3e3d
00000370: 6b5f 103e b6d2 df3d 9838 a5bd d094 63bd
00000380: b600 bfbc 13cd c6bd a81f bd3d 1375 b73d
00000390: eaec afbd b050 e93c 43af 7d3d 3858 41bd
000003a0: bcea 243c 2af0 1b3e 8d98 c43d 2554 a8bc
000003b0: c285 a63b 7bde 0c3e dce5 5b3d 4d9c fb3c
000003c0: cb66 69bd 3b69 07bd b40d 503d 339a b4bd
000003d0: 8b29 07bc 6c8b f73d 4b9e 283c 0934 c0bb
000003e0: 9a49 8fbd 6a10 373d 7c25 a73d 3516 b8bd
000003f0: 2d8a c23d 78cb 51bd c065 4bbd 311c 4dbb

lstm.bias_hh_l0 f4 [256]
-0.04066214 -0.057833157 -0.0023136206 0.1069731 0.102223836 -0.09898607 0.053466782 0.033195388
0.07422959 0.12226922 -0.041007094 0.017320886 0.067142494 0.09487768 0.017951688 0.054997813
0.020317106 -0.040738158 0.08055332 -0.091734506 0.14273836 -0.062824965 -0.10776645 -0.033487495
0.09006461 -0.06953645 0.004704977 -0.08063256 0.05484904 0.058268785 -0.054414183 0.06893345
0.07288992 0.05269758 -0.01609944 0.11889446 -0.09770677 -0.035642963 0.060767952 0.10452904
-0.020487744 0.14184526 0.12824887 -0.073741294 0.025856048 0.13320826 0.04509221 0.050863203
0.12536758 -0.08295009 -0.05111123 0.10324582 0.056496814 0.060653936 -0.04938306 0.14425309
-0.07426281 0.10368578 0.1329492 0.07957425 -0.050149135 0.044878356 -0.038702592 0.114837036
0.12464561 -0.0073931036 0.039383125 0.092529245 -0.026613986 0.02102726 0.12935464 0.07093885
0.077262014 -0.0044470225 -0.049870383 0.040711712 0.09951987 -0.024752565 -0.047410015 0.05355394
-0.044844266 0.05536522 0.047790926 0.10896038 0.10696461 0.080065064 -0.103191935 -0.045283526
-0.054534756 -0.091552384 -0.016986044 -0.09703732 0.079757184 0.081052996 -0.086285815 0.018238032
-0.028989425 -0.09946272 0.10583649 -0.033029966 0.11046379 -0.071625546 -0.05932379 0.095041454
-0.07000345 0.04137439 0.07981814 0.051732406 0.07236404 -0.0124868825 -0.04868478 -0.09291111
0.12521866 0.038270354 -0.008166289 0.028090782 0.032355927 0.1037927 0.0675933 -0.018318687
0.031888958 -0.0031344893 -0.09550349 0.039493643 0.12310554 0.017811539 0.080494635 -0.043578587
0.034641784 -0.0162245 0.026498592 0.10979615 -0.109453835 0.07883487 -0.0057779877 0.044482775
0.056966778 0.11311188 -0.10710669 -0.060239144 -0.04993532 -0.030950483 0.03540543 0.009049412
-0.12074124 -0.018216504 -0.08461556 0.07437421 -0.10508419 0.08549005 -0.043509334 0.019175148
-0.111974455 -0.01357373 -0.07704753 0.08995426 0.043801982 -0.07333193 -0.040106952 0.078303196
-0.13189529 -0.09527507 -0.052517902 0.03955931 -0.06060599 0.06587922 0.0051280796 -0.09601798
-0.11542969 0.043129917 -0.012398258 0.022314066 -0.032670308 0.07902081 -0.06771449 0.06815912
0.018433493 0.08399588 -0.10890341 0.09073911 0.02561765 -0.04117651 -0.04755013 -0.0420843
0.093448624 0.058896072 -0.016466195 -0.045066357 0.07251344 -0.0732029 0.086162195 -0.11592146
-0.047536332 -0.035648167 -0.060728 -0.08520468 0.1385489 0.04486994 0.016376361 -0.093102105
0.12621942 -0.037816174 0.039382555 0.05185201 0.12922202 -0.0045239097 -0.012490423 -0.08056532
0.056527324 0.054544475 0.021525078 -0.11785587 0.02145645 0.09854833 0.07065103 -0.054799784
0.14737204 -0.04093795 -0.014648189 0.03863065 -0.08269088 0.00917413 0.048482735 -0.041313235
-0.058254693 -0.062888116 0.1210835 0.041491646 0.032575496 0.14052083 -0.041882705 0.008953958
-0.09731224 0.162888 0.07737274 0.14040321 0.08654998 0.10948422 0.016495496 -0.08474236
0.10955955 -0.10068147 -0.07455507 -0.04165655 -0.044461794 -0.09609512 -0.027629135 -0.03595883
-0.111001365 -0.09609759 0.095740475 0.0891835 -0.057206023 0.054678436 0.06662329 0.00048234267
00000000: 588d 26bd 76e2 6cbd 1da0 17bb b614 db3d
00000010: bb5a d13d 35b9 cabd fcff 5a3d e3f7 073d
00000020: af05 983d 4968 fa3d 0ef7 27bd 88e4 8d3c
00000030: 0182 893d 3b4f c23d 6b0f 933c 6345 613d
00000040: 0f70 a63c 0edd 26bd 24f9 a43d 4ddf bbbd
00000050: 012a 123e 60aa 80bd a8b4 dcbd 2f2a 09bd
00000060: cb73 b83d 2069 8ebd 352c 9a3b af22 a5bd
00000070: 63a9 603d 40ab 6e3d 68e1 5ebd fb2c 8d3d
00000080: 4f47 953d 6bd9 573d f9e2 83bc f07e f33d
00000090: 7d1a c8bd 5bfe 11bd d1e7 783d 5213 d63d
000000a0: ead5 a7bc e23f 113e ac53 033e ad05 97bd
000000b0: 10d0 d33c bf67 083e 9cb2 383d ef55 503d
000000c0: 5c60 003e bde1 a9bd 025a 51bd 8b72 d33d
000000d0: 3469 673d 4370 783d e445 4abd 15b7 133e
000000e0: 1a17 98bd 3659 d43d d623 083e d3f7 a23d
000000f0: 2e69 4dbd 5ed2 373d 9c86 1ebd ae2f eb3d
00000100: 3346 ff3d d941 f2bb 3350 213d f97f bd3d
00000110: 9305 dabc 5c41 ac3c 8b75 043e 6348 913d
00000120: 8c3b 9e3d 54b8 91bb e344 4cbd 53c1 263d
00000130: 13d1 cb3d e4c5 cabc 0131 42bd 605b 5b3d
00000140: 9fae 37bd a4c6 623d 6bc0 433d 9f26 df3d
00000150: 4310 db3d 27f9 a33d 4b56 d3bd 387b 39bd
00000160: d65f 5fbd d17f bbbd 5126 8bbc 81bb c6bd
00000170: bc57 a33d 1dff a53d 9eb6 b0bd ed67 953c
00000180: 3b7b edbc 1cb3 cbbd cdc0 d83d 6e4a 07bd
00000190: d73a e23d 6ab0 92bd 81fd 72bd 18a5 c23d
000001a0: f85d 8fbd 3178 293d b177 a33d 5ce5 533d
000001b0: 9933 943d c895 4cbc b169 47bd 2e48 bebd
000001c0: 5239 003e 60c1 1c3d e6cb 05bc a41e e63c
000001d0: a687 043d 4491 d43d 5b6e 8a3d 1211 96bc
000001e0: ff9d 023d 016c 4dbb 5597 c3bd 16c4 213d
000001f0: c21e fc3d 81e9 913c 5fda a43d 767f 32bd
00000200: 8be4 0d3d 3ee9 84bc 9313 d93c cedc e03d
00000210: 5529 e0bd 2d74 a13d 4655 bdbb 9233 363d
00000220: ff55 693d 34a7 e73d c15a dbbd 52bd 76bd
00000230: fa88 4cbd de8b fdbc 4905 113d fc43 143c
00000240: 2f47 f7bd c73a 95bc ec4a adbd 8151 983d
00000250: 6136 d7bd 6815 af3d d836 32bd 3315 9d3c
00000260: dd52 e5bd 5a64 5ebc 18cb 9dbd f039 b83d
00000270: b569 333d 0d2f 96bd 3047 24bd 6d5d a03d
00000280: 8f0f 07be 931f c3bd 031d 57bd f108 223d
00000290: fd3d 78bd afeb 863d 7309 a83b 13a5 c4bd
000002a0: 6766 ecbd ffa8 303d 1022 4bbc fdcb b63c
000002b0: 4dd1 05bd aad5 a13d e5ad 8abd 0297 8b3d
000002c0: d601 973c 0806 ac3d c008 dfbd 6dd5 b93d
000002d0: 1bdc d13c b3a8 28bd edc3 42bd 9660 2cbd
000002e0: fe61 bf3d 023d 713d 1de4 86bc 8097 38bd
000002f0: ed81 943d 67eb 95bd ce75 b03d 3b68 edbd
00000300: 75b5 42bd d003 12bd ecbd 78bd cb7f aebd
00000310: c3df 0d3e 8bc9 373d b827 863c 51ac bebd
00000320: aa3f 013e 22e5 1abd 9a4f 213d c662 543d
00000330: c752 043e 4e3d 94bb a2a4 4cbc 6eff a4bd
00000340: 3289 673d 076a 5f3d 5c55 b03c 6b5e f1bd
00000350: 70c5 af3c b5d3 c93d 7db1 903d bd75 60bd
00000360: b2e8 163e 8dae 27bd f5fe 6fbc 2c3b 1e3d
00000370: d659 a9bd 174f 163c d595 463d 1138 29bd
00000380: 799c 6ebd 7ccb 80bd a0fa f73d 25f3 293d
00000390: e26d 053d b1e4 0f3e 338d 2bbd 9fb3 123c
000003a0: a44b c7bd 1dcc 263e 9975 9e3d dcc5 0f3e
000003b0: 1e41 b13d 4339 e03d 9021 873c 678d adbd
000003c0: c260 e03d 1632 cebd 54b0 98bd 0fa0 2abd
000003d0: 921d 36bd 85cd c4bd 7f56 e2bc 9149 13bd
000003e0: af54 e3bd d0ce c4bd 9513 c43d d7a5 b63d
000003f0: dd50 6abd 7ff6 5f3d cb71 883d f0e2 fc39

fc.weight f4 [64, 64]
-0.069688424 -0.07572926 0.026350992 -0.09386786 -0.023124697 0.03625341 0.03863886 0.038929746
-0.07506199 0.014527126 0.07269826 0.096757635 0.07388725 -0.1052609 0.108758345 -0.04539674
0.0834098 0.108243465 -0.022392983 -0.05853903 -0.013127059 -0.022693243 0.033210535 -0.034297567
-0.09858564 -0.11709945 -0.008778875 -0.023032896 0.104855955 -0.055225827 0.002339953 -0.03942831
0.020280328 -0.11416676 0.12066924 -0.037042607 0.05796395 0.072457395 -0.060145736 -0.079359464
-0.061399657 -0.050693415 0.09204029 -0.14444868 -0.04167474 -0.04546933 0.06397193 -0.03880617
0.06330453 -0.021505984 0.1534496 0.13994339 -0.05834343 0.07385768 -0.06428192 0.09903205
0.103845626 -0.0047250194 -0.04662379 0.061742112 -0.05294013 -0.02481953 -0.007047655 0.039633382
0.08037954 0.11306301 -0.04867391 0.023150887 0.080122635 0.052056428 0.096266 -0.034142334
0.0015961546 -0.09249614 0.0063892617 -0.07041882 0.040658176 0.049882047 -0.006148792 0.024316903
0.046347983 -0.030066535 0.09839546 -0.039654844 0.059398014 0.006789311 0.12016068 -0.11858236
-0.077042766 -0.12225349 0.056238193 0.046016645 0.09120662 0.02982171 0.11970188 0.10815569
0.109351985 -0.06437826 -0.14037384 -0.109167285 -0.12465114 0.08940228 -0.0010531318 -0.018749977
-0.09953742 0.14375286 -0.04197444 -0.108317345 -0.02748947 -0.0995361 -0.0680346 0.07220409
0.024020936 0.07009646 0.09992119 -0.055708792 -0.080301605 0.06561451 0.1169459 0.0994812
0.03764324 -0.11508057 -0.005252259 0.10882017 -0.029852165 -0.118064165 -0.0520106 -0.003833195
0.093019925 -0.10967751 -0.012092157 0.029055437 -0.011453674 -0.033752043 -0.09788526 -0.040833402
0.09061247 0.11872104 0.024360413 -0.053959183 -0.04908136 0.05608479 0.030178154 0.0026719205
-0.030212818 0.12319882 -0.02692443 -0.07793227 0.13782336 -0.06471452 0.067962 0.018083863
-0.08442841 0.114754945 0.008667121 0.035332732 0.052250538 0.022726834 -0.11563593 -0.06356375
0.09153335 0.026147773 0.06784753 -0.12816492 0.1372875 0.115896836 0.006920869 -0.004284977
0.08982815 -0.08905529 0.07496182 0.15676653 0.056805547 -0.010357177 -0.14442316 0.044221174
-0.076062396 -0.0650532 0.03895605 0.04603976 0.09578746 0.13444488 0.08408838 -0.13210021
-0.0718101 0.029534196 -0.021733912 -0.014037838 -0.11564067 0.06489709 -0.034882374 0.10994368
0.058111645 0.062114898 0.10814491 0.117538884 0.11445179 -0.09372714 -0.105512284 -0.09110592
0.09545559 0.073569484 -0.12112291 -0.018746577 0.08210843 -0.112864174 -0.0460607 0.10580818
0.106108665 -0.068371266 0.0861325 -0.010550446 0.062145088 0.11729481 -0.024811214 -0.09037345
-0.0105269635 0.045767874 0.10250945 -0.035768226 -0.09598643 0.09307501 0.0056314073 0.0070164474
0.06873655 0.031531665 0.07782418 -0.03228791 -0.09501264 0.11793632 0.0880417 -0.0005446255
-0.08223373 -0.0904346 -0.08415742 0.056318603 0.05931827 -0.055244714 0.013823146 0.10956407
-0.0031024003 0.072451375 0.058062777 -0.110198766 0.09832632 -0.039043702 0.085979596 -0.04229091
0.090033196 -0.0674017 -0.1429638 -0.09411935 0.07919431 -0.09520901 -0.006210636 -0.07399371
00000000: ceb8 8ebd f117 9bbd 09de d73c cb3d c0bd
00000010: 0170 bdbc 757e 143d c843 1e3d cc74 1f3d
00000020: 1aba 99bd 2f03 6e3c d3e2 943d de28 c63d
00000030: 3352 973d 0793 d7bd b2bc de3d eff1 39bd
00000040: c2d2 aa3d c0ae dd3d 7d71 b7bc 9fc6 6fbd
00000050: e012 57bc 2ee7 b9bc c507 083d 9b7b 0cbd
00000060: 45e7 c9bd d6d1 efbd 45d5 0fbc 7caf bcbc
00000070: b8be d63d 7a34 62bd e659 193b 947f 21bd
00000080: ee22 a63c 43d0 e9bd 6f21 f73d fdb9 17bd
00000090: 9b6b 6d3d 8b64 943d 605b 76bd 3787 a2bd
000000a0: 357e 7bbd e6a3 4fbd 9f7f bc3d 5bea 13be
000000b0: 22b3 2abd 0c3e 3abd b703 833d 38f3 1ebd
000000c0: cea5 813d 512d b0bc e421 1d3e 524d 0f3e
000000d0: 85f9 6ebd b242 973d 3da6 83bd 51d1 ca3d
000000e0: 04ad d43d 56d4 9abb 96f8 3ebd 4ce5 7c3d
000000f0: c0d7 58bd 5452 cbbc 04f0 e6bb 9d56 223d
00000100: 079e a43d 948d e73d 4b5e 47bd eea6 bd3c
00000110: 5617 a43d 1f39 553d 1c27 c53d d5d8 0bbd
00000120: 1036 d13a 9e6e bdbd 035d d13b be37 90bd
00000130: 3089 263d 1e51 4c3d ce7b c9bb 3e34 c73c
00000140: 62d7 3d3d 184e f6bc 8f83 c93d 1e6d 22bd
00000150: 554b 733d de78 de3b cd16 f63d 4fdb f2bd
00000160: 99c8 9dbd 0a60 fabd 055a 663d f37b 3c3d
00000170: 89ca ba3d a94c f43c 4226 f53d bb80 dd3d
00000180: eff3 df3d c0d8 83bd 29be 0fbe 1993 dfbd
00000190: 1949 ffbd 8b18 b73d 3d09 8aba 8d99 99bc
000001a0: 46da cbbd f333 133e 64ed 2bbd 7cd5 ddbd
000001b0: 9931 e1bc 95d9 cbbd b955 8bbd bddf 933d
000001c0: 8ec7 c43c bc8e 8f3d 7ba3 cc3d e72e 64bd
000001d0: 2b75 a4bd e660 863d 5581 ef3d cdbc cb3d
000001e0: cc2f 1a3d 5daf ebbd 241b acbb 1cdd de3d
000001f0: 878c f4bc a0cb f1bd 1109 55bd 5736 7bbb
00000200: 3b81 be3d 9a9e e0bd 2f1e 46bc ab05 ee3c
00000210: 31a8 3bbc 953f 0abd 1178 c8bd ed40 27bd
00000220: 0893 b93d 0424 f33d 7d8f c73c 4e04 5dbd
00000230: 8909 49bd 2ab9 653d 2d38 f73c 631b 2f3b
00000240: df80 f7bc aa4f fc3d 9f90 dcbc f49a 9fbd
00000250: 9121 0d3e 0c89 84bd a92f 8b3d 9c24 943c
00000260: cde8 acbd a404 eb3d 8a00 0e3c 0eb9 103d
00000270: a904 563d a02d ba3c 88d2 ecbd b62d 82bd
00000280: d675 bb3d db33 d63c a5f3 8a3d aa3d 03be
00000290: 1895 0c3e 525b ed3d 75c8 e23b fe68 8cbb
000002a0: d2f7 b73d 9f62 b6bd 9585 993d 6887 203e
000002b0: efac 683d 26b1 29bc aae3 13be 4321 353d
000002c0: 9ac6 9bbd 9d3a 85bd 6190 1f3d 3094 3c3d
000002d0: 372c c43d ebab 093e 8736 ac3d 4745 07be
000002e0: 2c11 93bd b3f1 f13c 510b b2bc f6fe 65bc
000002f0: 04d5 ecbd c4e8 843d d2e0 0ebd 272a e13d
00000300: 7a06 6e3d 316c 7e3d 147b dd3d 3ab8 f03d
00000310: b365 ea3d 04f4 bfbd d316 d8bd be95 babd
00000320: 387e c33d 99ab 963d 4a0f f8bd 6c92 99bc
00000330: 7728 a83d 5525 e7bd 25aa 3cbd f6b1 d83d
00000340: 804f d93d 3c06 8cbd 3c66 b03d c7db 2cbc
00000350: d98b 7e3d 4338 f03d e340 cbbc b715 b9bd
00000360: 4979 2cbc 1877 3b3d 79f0 d13d b481 12bd
00000370: 8994 c4bd 1c9e be3d ab87 b83b 3aea e53b
00000380: c0c5 8c3d 5927 013d 4962 9f3d 5440 04bd
00000390: fd95 c2bd 9988 f13d 354f b43d 33c5 0eba
000003a0: 286a a8bd c735 b9bd ba5a acbd 56ae 663d
000003b0: b7f7 723d 4848 62bd 7a7a 623c 2163 e03d
000003c0: a451 4bbb 6361 943d 3cd3 6d3d e4af e1bd
000003d0: 4f5f c93d 4aec 1fbd 1216 b03d 3c39 2dbd
000003e0: 5363 b83d e709 8abd 1a65 12be a5c1 c0bd
000003f0: a030 a23d f1fc c2bd 9782 cbbb 048a 97bd

fc.bias f4 [64]
-0.06348412 -0.074471466 0.116944246 -0.07865241 0.0052973176 -0.07621599 -0.13320398 0.08413797
-0.071384124 -0.067476526 0.14059883 -0.014364716 -0.010937221 -0.09217515 -0.090820126 -0.12661164
-0.06840189 0.072737046 -0.03278611 0.056626357 -0.00131385 0.081028506 -0.12769544 0.12920871
-0.113306485 -0.117188886 0.02944508 -0.010602646 -0.10207855 -0.0720419 0.02024243 -0.059527628
-0.10610521 -0.07211533 0.067116246 0.013649466 -0.067835435 0.07576532 -0.041526858 0.025628826
-0.014154665 -0.13108625 0.0826346 0.036078997 -0.11181437 -0.03668248 -0.02433323 0.04602527
0.090049475 -0.0011219077 0.037050333 0.057226263 -0.048432242 -0.11252083 0.09134315 -0.12917572
-0.035445463 -0.06898787 -0.123754695 0.00047628 0.011971728 -0.085795954 -0.1054997 0.035817284
00000000: f603 82bd 7f84 98bd 7780 ef3d 8414 a1bd
00000010: 1f95 ad3b 2117 9cbd a066 08be 8750 ac3d
00000020: d731 92bd 2231 8abd 24f9 0f3e fc59 6bbc
00000030: 0832 33bc 53c6 bcbd e7ff b9bd 7ba6 01be
00000040: 4a16 8cbd 29f7 943d ba4a 06bd 0af1 673d
00000050: 7e35 acba 46f2 a53d 98c2 02be 4a4f 043e
00000060: 3b0d e8bd ba00 f0bd cf36 f13c b8b6 2dbc
00000070: 8f0e d1bd b48a 93bd 74d3 a53c 3ed3 73bd
00000080: b04d d9bd 34b1 93bd 3e74 893d 03a2 5f3c
00000090: 4eed 8abd d92a 9b3d 1118 2abd 8bf3 d13c
000000a0: f8e8 67bc 793b 06be 543c a93d 92c7 133d
000000b0: effe e4bd 5e40 16bd 7b56 c7bc fe84 3c3d
000000c0: dc6b b83d fa0c 93ba 17c2 173d 1666 6a3d
000000d0: e360 46bd 5271 e6bd 1e12 bb3d a446 04be
000000e0: 432f 11bd 8349 8dbd 1a73 fdbd 38b5 f939
000000f0: 1125 443c cab5 afbd 3a10 d8bd 25b5 123d
