weights/best_ppg_emotion_regressor.pth (torch, 10792 bytes, 3 tensors)

mlp.0.weight f4 [32, 64]
00000000: 9860 a0bc 87b5 e83d dc83 14bd d0dd c13d
00000010: ec6e 06bd fc7e dabd cc53 d53d 83b6 cb3d
00000020: 1974 0b3d ffe9 12bd 314c b93d 7873 ac3d
00000030: 9ba1 ccbd 2d14 da3d 821e b33c 96a4 89bc
00000040: d760 c33d 62bd e8bd b6fa 85bd 9a38 993d
00000050: 2f66 55bc 968d 2dbd d969 243d ca33 04be
00000060: 3e03 24bd de0f e23d 091c 75bd fab1 71bc
00000070: b2fd b53d 83a6 6abc fcc2 e0bd 0d13 d33d
00000080: 065d 20bc a19e bc3d c727 eabc ea88 bbbd
00000090: a123 dcbb e921 6d3d 31a9 ac3b acf3 bf3d
000000a0: 475d d2bd 1c43 c8bd 8d9c f23d b363 af3c
000000b0: 90f4 49bb db4e 853d 4d73 1ebc fdef 5dbd
000000c0: 6017 9dbd f801 a63d 10ee 0b3d 1295 f93c
000000d0: 45c3 853d 16f7 75bd b892 e6bd 0ba4 9e3d
000000e0: 6ae3 a33d 99d9 9f3d af9b 2cbd 0353 f2bc
000000f0: 3843 eebd f219 40bb b913 d53d c54f aa3c
00000100: a23d 3f3c c9ad 933d a92e 953d 0313 993d
00000110: 04ea de3c a936 4abc a1fb e53d dc85 26bd
00000120: 080c 38bd 6471 dc3d b6ff a93c 5b72 cbbd
00000130: fb34 aa3d a64f a63d 3da4 d33d 4195 bdbd
00000140: d54b d2bd b89d afbb 88ae cdbd d82c b6bd
00000150: fe22 e3bd 301b 6b3d 3c6d cb3d bae5 cd3d
00000160: 888a c93b 1cd5 d03b 0485 523d 5f72 18ba
00000170: 06f5 833d 0622 5a3d 207f 053d 33e9 e6bc
00000180: 67bb 953c ee98 b23c 6cca 103d f59c cc3d
00000190: d5f5 55bd d8a2 3dbd 3afd ccbc d45a 4e3c
000001a0: e17c 633d cc92 dd3d abc7 65ba d9b7 8ebd
000001b0: 3014 b63d 4a78 cd3d 7a33 6bbd 9fd3 8ebc
000001c0: 7463 e43d 029e c7bd 566b 5abd dd02 05bd
000001d0: 4256 543d d6bf bc3d 19f1 03bc 6dbb 38bd
000001e0: cb41 cdbd 1e83 6cbd ebea e63d 7d40 ae3d
000001f0: 9625 373c c140 83ba ea41 17b7 cce1 37bd
00000200: 9ee1 eabd d226 adbd 1cf6 e3bb bc9f bfbd
00000210: 139e 0ebd 02f6 ecbd 19ea fd3b 2980 c4bd
00000220: fabf 353c 7f23 d93d 9156 833d 1881 af3d
00000230: 6c51 fb3d c4d9 823d d663 203a 1d9c cebd
00000240: f786 e1bd 4eaf a5bd 78c4 aabd eaeb ba3d
00000250: 132e 313c 03fe 7a3c c891 803d 56fc 6f3d
00000260: b22d 69bd 7292 85bd ce3a 003e 656b f23d
00000270: e8eb c6bd 1e5b 91bd 1500 943d 2e55 603d
00000280: 0442 4f3d 0473 af3c ecd4 a23d 5d64 103c
00000290: 64a3 b4bd e598 d5bd de69 433d 63ac abbd
000002a0: f248 10bd b10c e93d bb07 873d 82a0 ea3c
000002b0: 58ab 013e ce97 a63b 600c 493d 97e2 38bd
000002c0: 20df 69bd d1d2 a83c fbb0 64bc 763e 26bc
000002d0: 6cbd 2cbc 5f34 abbd a3a3 c63d 246d bc3d
000002e0: c868 f93d 3567 e3ba c28f 49bd 5c82 a13c
000002f0: ce8c f03d 18c2 dc3d 9fe1 cd3d df11 b53d
00000300: 0737 9dbb bfc2 f63c 9165 273b 1ae6 d23d
00000310: 717c ec3c 1af8 d4bd 5327 5e3d 139c c93d
00000320: a6a1 91bd 26fb b7bd 34df 92bc 9c6e 40ba
00000330: 646e d23d 8934 a1bd e76b a83d 9603 82bd
00000340: bdf4 16bd 08c8 1b3d 875a 843d 8dea 3d3a
00000350: 76e1 08bc 75b0 e63b 9a9c 3abd e78c 93bd
00000360: 8128 bdbb b360 7abd 86a3 bcbd 9187 f4bb
00000370: 7c89 dbbd 67d9 bc3d afec ef3c 7c2d 843c
00000380: 84b1 8a3a e904 da3d daf4 cf3d 9f12 a7bd
00000390: 78a9 193d 8566 bab9 7e86 b53c ff98 f139
000003a0: 9dfd 323d d780 e3bd 2fa9 71b7 d633 75bd
000003b0: 89e1 d835 ff59 9dbd 88e3 2d3d f392 b0bd
000003c0: 3d05 b53b fad3 913d 1f08 0fbd 6f1b 6e3d
000003d0: 449b dfbd 7a75 d3bd 12d8 1cbd 9fef 1dbd
000003e0: 692b 703d 519c 8e3d 3428 143d d9a6 da3b
000003f0: 6c32 8a3d b5a3 4fb9 800f 393d 9afe 5cbb
-0.01957731 0.113627486 -0.036258563 0.094661355 -0.032820627 -0.106687516 0.104163736 0.09946921
0.034046266 -0.035867687 0.090477355 0.084204614 -0.09991761 0.106483795 0.021865133 -0.016802114
0.09539955 -0.11364247 -0.0654196 0.07481499 -0.013024851 -0.042371355 0.040140007 -0.12910381
-0.040042154 0.11038183 -0.05984119 -0.014751906 0.08886279 -0.014321926 -0.1097469 0.10306368
-0.0097878035 0.092099436 -0.02858342 -0.09156974 -0.0067181145 0.057893667 0.0052691926 0.093726486
-0.102716975 -0.09778425 0.11846266 0.021409845 -0.0030815937 0.06509181 -0.009671045 -0.05418395
-0.07670474 0.08105844 0.03416258 0.03046659 0.06531385 -0.060050093 -0.11258453 0.077461325
0.0800236 0.07805175 -0.04214066 -0.029580599 -0.11633915 -0.002931234 0.104041524 0.02078999
0.011672409 0.07210881 0.0728429 0.07474329 0.027211197 -0.012342134 0.11229635 -0.040655002
-0.04493335 0.10763815 0.020751815 -0.09933921 0.083108865 0.081206605 0.1033406 -0.092569835
-0.1026837 -0.0053593777 -0.10043055 -0.08895272 -0.110906586 0.057398975 0.09932944 0.100535825
0.0061505474 0.006373061 0.051396385 -0.00058153825 0.06443219 0.053255104 0.03259194 -0.02818737
0.018277837 0.021801438 0.035349295 0.09990875 -0.052236397 -0.046297878 -0.025023092 0.012594897
0.055539016 0.10819015 -0.00087654096 -0.0696866 0.08890569 0.10032709 -0.05742214 -0.017434893
0.11151782 -0.097469345 -0.05332502 -0.032473434 0.051840074 0.09216277 -0.008053088 -0.04510062
-0.10022315 -0.05774223 0.11275276 0.08508394 0.011178395 -0.0010013805 -9.015648e-06 -0.04489307
-0.11468814 -0.0845467 -0.0069568288 -0.09356639 -0.03481872 -0.1157036 0.007748854 -0.09594757
0.011093134 0.106024735 0.064129956 0.085695446 0.12271389 0.06389192 0.00061183923 -0.1008837
-0.110120706 -0.08090077 -0.08338255 0.09127028 0.010814208 0.01531935 0.062778056 0.058590256
-0.056928344 -0.06522073 0.12522432 0.1183689 -0.09712964 -0.07097457 0.07226578 0.054768734
0.050600067 0.021417148 0.07950768 0.008812991 -0.08820227 -0.10429553 0.047708385 -0.083824895
-0.035225816 0.11379374 0.06593271 0.02864099 0.12663019 0.0050840145 0.049084067 -0.045137968
-0.057097554 0.020608338 -0.013958211 -0.010146728 -0.010543209 -0.08359598 0.0969918 0.092005044
0.121781886 -0.0017349484 -0.049209364 0.01971548 0.11745606 0.10779208 0.100527994 0.08841299
-0.0047978195 0.030122159 0.0025542716 0.10297795 0.028867932 -0.10398884 0.05423672 0.09844222
-0.0711091 -0.0898345 -0.017928697 -0.0007340701 0.102749616 -0.078713484 0.08223706 -0.0634834
-0.036854494 0.03803256 0.06462579 0.00072447286 -0.008354535 0.0070400783 -0.045559503 -0.07204609
-0.0057726507 -0.061127376 -0.09210877 -0.00746245 -0.107195824 0.09221154 0.029287664 0.01613497
0.0010581468 0.10645468 0.101541236 -0.081578486 0.037515134 -0.00035553068 0.022158857 0.00046081093
0.043698896 -0.111085586 -1.44041105e-05 -0.059863888 1.6158893e-06 -0.07683181 0.04245332 -0.08621778
0.005524306 0.071205094 -0.034919854 0.05813163 -0.109182864 -0.10325141 -0.038292 -0.0385586
0.05863515 0.06963409 0.036171153 0.006672722 0.067478985 -0.00019802044 0.045180798 -0.003372109

mlp.0.bias f4 [32]
00000000: c3d4 033d a56d 68b5 e591 b0bc eae3 47bd
00000010: 5dae 9ebb 0382 aebd 5841 ab3d a369 383c
00000020: 99f0 0e3d 27ad e73b 7e2b 013d 57f6 88bc
00000030: dd04 8cbd 5143 cc3c 76de c13d 84b2 f53c
00000040: 8877 20bd 242e d73d 74df d33d 7ba5 e03a
00000050: 8756 323d 68ab eb38 8f6e afbd 2d61 f4bc
00000060: ee50 623d 342c 053d 974e 803d 7902 8eb9
00000070: e980 c23c fb86 cbbd 5057 793c c294 b8bd
0.032185327 -8.658629e-07 -0.021553943 -0.04880134 -0.004842563 -0.085208915 0.08362073 0.0112556545
0.03489742 0.007070202 0.031535618 -0.016719026 -0.06836865 0.024934443 0.09466259 0.02999235
-0.039176494 0.105068475 0.10345355 0.0017139161 0.04353955 0.000112376 -0.08566009 -0.029831493
0.05525296 0.03251286 0.0626499 -0.00027086193 0.02374311 -0.09937855 0.015218571 -0.09012748

mlp.2.weight f4 [1, 32]
00000000: fd96 a7bd 516f 023e 6d9a 113e 9541 a5bd
00000010: 05f5 d03d 351c 123e 87b5 c0bd b10c 813d
00000020: cb83 cdbd 06ef 573c c2e5 213e 8657 e0bd
00000030: eac1 bcbd fefc 88bd b261 263e 1a99 a33d
00000040: 7a3b c8bc 3659 fdbd 367b bcbd 9b7a f0bc
00000050: f426 c0bc 1957 07be 76b3 c4bd 73a9 673c
00000060: 0b86 d53c e312 9b3d 23a1 0c3e 345e 34bd
00000070: b6eb 283e b1c6 85bd c750 cf3d cb72 af3d
-0.081830956 0.12737776 0.14219065 -0.080691494 0.10202984 0.14268573 -0.094096236 0.06301249
-0.10034903 0.013179546 0.15810302 -0.10954194 -0.09216674 -0.066888794 0.16248205 0.07988186
-0.024442423 -0.12370531 -0.09203188 -0.029355338 -0.023456074 -0.13216819 -0.09604542 0.014139521
0.026064893 0.07571962 0.13733344 -0.04403515 0.16496167 -0.06532038 0.10122829 0.08566817
